test_model_pth/discrete/test_highway_dqn_cuda.pth (torch, 878307 bytes, 40 tensors)

weight f4 [128, 25]
0.033199057 0.05330805 -0.12661152 -0.08130528 -0.1548403 -0.12800236 -0.36845198 0.23184678
0.491376 0.064592876 -0.04541508 -0.88799125 -0.09625927 -0.4391522 0.17883469 0.039880756
0.10555727 -0.3784144 0.2844115 0.17246579 0.10009446 -0.008569803 0.26946 -0.390204
0.13253957 -0.21913813 0.09856956 0.23556828 -0.1835317 -0.13637868 0.014495719 -0.15977378
0.36178806 -0.2795373 0.16525754 -0.1740815 0.006413228 0.447604 0.12515448 0.5990148
-0.07477906 0.49833155 -0.12168304 0.32231596 0.3734505 0.05530073 -0.2087971 0.1892609
0.12787145 0.0499793 -0.17074202 -0.19989738 0.1475308 0.03402784 0.38713393 0.10859949
0.29665852 -0.31468406 0.41800871 -0.046391424 -0.19015199 0.037101895 0.4473172 -0.3935504
-0.35983184 -0.17348683 0.096884 -0.1554546 0.270113 -0.064029895 0.0049261153 0.13969481
-0.17811741 0.0031209448 0.03074848 -0.09377716 -0.086790465 0.16406144 -0.18356335 0.16867535
0.04499428 -0.13881521 0.10227682 -0.02297625 -0.19614394 0.085128024 -0.0050999373 0.1515358
0.03035207 -0.050746113 -0.045754388 -0.050193876 0.08138497 -0.07455103 0.09759538 -0.072963044
0.1435617 -0.05146441 0.11825727 0.0384084 -0.13154049 -0.074595846 -0.03652544 -0.05183031
-0.03949297 0.11130178 0.061071392 0.04870068 0.0496834 -0.13979074 -0.0938788 -0.18732664
-0.010263476 0.18901056 0.0925963 -0.19434774 0.14603926 0.15005866 0.185286 -0.067511246
-0.00037504834 -0.16132829 -0.15155461 0.17878568 -0.11941945 -0.08769054 -0.050017383 -0.021694388
-0.16685733 -0.07317535 -0.0675015 0.15058826 -0.011219168 -0.17917353 -0.003203 0.16563287
1.2966787 0.5433789 0.38731816 0.445348 -0.031480595 -0.1303676 -0.00053323054 -0.108347885
-0.08970265 0.05420221 0.104929104 -0.003910119 0.022298578 0.12735973 -0.1400028 -0.030981306
-0.40890157 -0.1288992 -0.39684975 0.12905245 -0.31918395 -0.05263879 -0.44682318 -0.3311496
-0.06782633 -0.7450287 -0.28250542 0.033933293 -0.45916674 0.14222412 0.08480196 -0.17692834
0.13259684 -0.038956005 -0.05006265 -0.267844 -0.254365 -0.1442709 0.050188784 0.16123174
-0.2533463 -0.115726754 0.08849355 -0.045759432 0.053576853 0.28679514 0.102988996 -0.122412995
0.54757875 -0.11966425 0.7127862 -0.15717886 -0.043517288 0.2585242 0.095820956 0.32121667
-0.22981274 -0.18977486 0.1303982 -0.10297394 0.1265722 -0.101827666 -0.23950395 -0.13862373
0.08240693 -0.21371214 0.34370878 -0.1693182 0.11569173 -0.018172784 0.40312743 0.33252406
-0.0008500109 0.018073509 -0.16877712 0.38901073 0.31134945 0.31855306 0.16002095 0.08385653
0.054071512 0.053527202 -0.0014538809 -0.3021267 -0.111975014 0.014423244 0.06717035 -0.031568106
0.15629163 -0.010249015 -0.012529921 -0.021701291 -0.117988914 0.174657 -0.050923336 -0.14556408
0.024058713 0.018833157 -0.14463371 -0.18370754 0.105871804 0.18178372 -0.04747174 0.12774198
0.11739305 -0.21120788 0.010947059 0.029731387 -0.018441373 -0.13185482 0.026265025 0.09934016
0.060985982 -0.015577201 -0.0989059 0.05915414 -0.20949328 -0.2716166 0.23397085 0.003318883
00000000: bcfb 073d 8b59 5a3d 73a6 01be 6283 a6bd
00000010: 758e 1ebe 0d13 03be bda5 bcbe 3e69 6d3e
00000020: a395 fb3e 4549 843d 2a05 3abd 6553 63bf
00000030: 9523 c5bd 8fd8 e0be 7120 373e 015a 233d
00000040: 692e d83d 88bf c1be 629e 913e df9a 303e
00000050: 53fe cc3d 5c68 0cbc a9f6 893e d2c8 c7be
00000060: 74b8 073e bf65 60be d6de c93d d038 713e
00000070: bcef 3bbe daa6 0bbe 747f 6d3c bd9b 23be
00000080: 493c b93e 831f 8fbe 4639 293e 6c42 32be
00000090: 0e26 d23b 5a2c e53e 7f28 003e 0959 193f
000000a0: c425 99bd 5025 ff3e f534 f9bd 9906 a53e
000000b0: e734 bf3e 0583 623d e8ce 55be 9ccd 413e
000000c0: bcf0 023e 18b7 4c3d ffd6 2ebe e6b1 4cbe
000000d0: 5012 173e c760 0b3d 6b36 c63e 6969 de3d
000000e0: a0e3 973e 451e a1be 3d05 d63e ef04 3ebd
000000f0: 34b7 42be 28f8 173d c306 e53e 707f c9be
00000100: e13b b8be 88a6 31be 1e6b c63d 7e2f 1fbe
00000110: 404c 8a3e 1b22 83bd 406b a13b 280c 0f3e
00000120: 6964 36be c488 4c3b 3de4 fb3c 3d0e c0bd
00000130: 33bf b1bd b9ff 273e 08f8 3bbe 3bb9 2c3e
00000140: ec4b 383d 9325 0ebe 8276 d13d b038 bcbc
00000150: f5d9 48be 9a57 ae3d 601d a7bb 332c 1b3e
00000160: e8a4 f83c 28db 4fbd f468 3bbd 1898 4dbd
00000170: 2aad a63d 36ae 98bd 16e0 c73d a66d 95bd
00000180: d701 133e 58cc 52bd de30 f23d 2052 1d3d
00000190: 8db2 06be b5c5 98bd b39b 15bd 054c 54bd
000001a0: 61c3 21bd 30f2 e33d ff25 7a3d 5d7a 473d
000001b0: d280 4b3d 4e25 0fbe 8743 c0bd 8ed2 3fbe
000001c0: 2328 28bc fc8b 413e 21a3 bd3d 1803 47be
000001d0: 518b 153e faa8 193e 9dbb 3d3e 5643 8abd
000001e0: 23a2 c4b9 3e33 25be 2231 1bbe 9813 373e
000001f0: 2f92 f4bd 1997 b3bd 07df 4cbd 6eb8 b1bc
00000200: a6dc 2abe f5dc 95bd 3a3e 8abd cf33 1a3e
00000210: 9ad0 37bc 4479 37be 6ce9 51bb aa9b 293e
00000220: 91f9 a53f e11a 0b3f 914e c63e a704 e43e
00000230: ccf1 00bd 167f 05be 7fc8 0bba 7fe5 ddbd
00000240: 06b6 b7bd 2303 5e3d 12e5 d63d 7520 80bb
00000250: 82ab b63c 976a 023e e55c 0fbe 82cc fdbc
00000260: 8c5b d1be 27fe 03be e42f cbbe 5326 043e
00000270: 146c a3be c69b 57bd 02c6 e4be 718c a9be
00000280: 88e8 8abd 33ba 3ebf 8da4 90be a3fd 0a3d
00000290: e717 ebbe 33a3 113e a6ac ad3d b42c 35be
000002a0: 77c7 073e 5590 1fbd 7e0e 4dbd d922 89be
000002b0: 213c 82be c0bb 13be c192 4d3d ef19 253e
000002c0: 9bb6 81be 2602 edbd 1b3c b53d 3e6e 3bbd
000002d0: 6773 5b3d d0d6 923e e5eb d23d aab3 fabd
000002e0: 1f2e 0c3f 8812 f5bd 2879 363f 7ff3 20be
000002f0: 2f3f 32bd 495d 843e c73d c43d 8376 a43e
00000300: 0854 6bbe 5754 42be 1b87 053e 00e4 d2bd
00000310: 259c 013e 068b d0bd 8640 75be 61f3 0dbe
00000320: f7c4 a83d 5bd7 5abe 99fa af3e c061 2dbe
00000330: c9ef ec3d 17df 94bc b866 ce3e 9840 aa3e
00000340: 44d3 5eba e50e 943c e9d3 2cbe 6a2c c73e
00000350: 3269 9f3e 6319 a33e 88dc 233e f9bc ab3d
00000360: 177a 5d3d 573f 5b3d 2690 beba 5ab0 9abe
00000370: 2853 e5bd 784f 6c3c 9c90 893d 8f4d 01bd
00000380: ea0a 203e 7ceb 27bc 4c4a 4dbc e8c6 b1bc
00000390: 2ca4 f1bd 49d9 323e fd94 50bd c00e 15be
000003a0: c716 c53c fe47 9a3c dc1a 14be d41d 3cbe
000003b0: 51d3 d83d 8325 3a3e ba71 42bd cbce 023e
000003c0: c46b f03d e146 58be 4b5b 333c 3d8f f33c
000003d0: 5d12 97bc f304 07be c029 d73c db72 cb3d
000003e0: 70cc 793d 8437 7fbc 2d8f cabd 9d4b 723d
000003f0: 6885 56be 5511 8bbe 0e96 6f3e 9e81 593b

bias f4 [128]
0.027738683 0.1582571 -0.0065718614 -0.13406211 0.14631093 0.067987315 0.11230175 -0.116833515
0.065392345 0.023946006 0.060371865 0.006005319 0.010424701 -0.06140707 0.011854274 -0.032770332
0.06099448 -0.11078559 -0.21851254 0.097056106 -0.20573135 -0.01342883 0.045610767 -0.15448302
-0.075739145 0.014258574 -0.06708987 -0.15902519 -0.079749264 -0.17006598 0.033072468 -0.12680198
0.02102182 -0.009830624 -0.025840685 -0.004599677 0.06868841 -0.0013288325 -0.0745893 -0.08510593
0.12836121 -0.18883257 -0.0064555015 0.070627704 -0.075570695 -0.022385474 0.0129060075 -0.105242044
0.059122685 -0.017863724 -0.09612657 -0.014817093 -0.07644381 -0.16235124 -0.023118049 -0.20006675
0.10223821 -0.19255726 0.0511419 -0.10356395 -0.1300872 -0.20924914 -0.19795063 0.00075285137
-0.030843565 -0.24260196 -0.06136434 -0.21400933 0.006593266 -0.06605068 0.08000113 -0.122127175
0.005940153 -0.15799807 -0.17956327 -0.14006713 -0.1559169 0.13905191 -0.09326911 -0.1065749
0.14898561 0.11127198 -0.10466976 0.06268672 -0.07909486 0.15178107 -0.06790467 -0.14926122
0.027201667 0.081118055 0.09943971 -0.12904498 0.046191007 -0.16955918 0.10252267 0.19500412
-0.16019382 -0.0019868 0.12458528 0.17426783 -0.075310186 -0.018529281 0.08509191 -0.19895922
-0.16214707 -0.022730503 -0.22332083 -0.20006408 -0.06627369 -0.029015169 0.08150899 -0.10532627
0.050477292 0.050853852 -0.18158916 -0.08690658 0.01409765 0.0148434965 -0.10496751 -0.08485942
-0.0033774823 0.0621325 0.08635525 -0.13963877 -0.19456077 -0.19861548 0.055595085 -0.16562966
00000000: 3c3c e33c 260e 223e c558 d7bb 9447 09be
00000010: 88d2 153e ef3c 8b3d 76fe e53d 6946 efbd
00000020: 6cec 853d 6a2a c43c 7d48 773d 44c8 c43b
00000030: 5dcc 2a3c fb85 7bbd 6e38 423c 2f3a 06bd
00000040: 59d5 793d 8ee3 e2bd c0c1 5fbe 5ac5 c63d
00000050: 3dab 52be 9804 5cbc 5bd2 3a3d cc30 1ebe
00000060: 201d 9bbd cb9c 693c 6a66 89bd 80d7 22be
00000070: 9553 a3bd c725 2ebe ff76 073d 61d8 01be
00000080: f435 ac3c a010 21bc d8af d3bc e3b8 96bb
00000090: 82ac 8c3d 382c aeba 46c2 98bd 054c aebd
000000a0: 1f71 033e 535d 41be ac88 d3bb 42a5 903d
000000b0: cfc4 9abd be61 b7bc b873 533c 2489 d7bd
000000c0: a12a 723d f256 92bc 02de c4bd 64c3 72bc
000000d0: 928e 9cbd 673f 26be 1062 bdbc 4cde 4cbe
000000e0: 4462 d13d bb2d 45be 2b7a 513d 5619 d4bd
000000f0: 9435 05be 6845 56be 92b3 4abe 005b 453a
00000100: a5ab fcbc a66c 78be 2d59 7bbd 4325 5bbe
00000110: 530c d83b 9445 87bd a2d7 a33d d01d fabd
00000120: 9da5 c23b 3fca 21be 6fdf 37be c26d 0fbe
00000130: aea8 1fbe a063 0e3e e003 bfbd f143 dabd
00000140: af8f 183e 90e2 e33d 195d d6bd e561 803d
00000150: 7cfc a1bd 7f6c 1b3e 9b11 8bbd efd7 18be
00000160: 08d6 de3c 3921 a63d 0ca7 cb3d 5e24 04be
00000170: c832 3d3d eca0 2dbe 68f7 d13d 29af 473e
00000180: d909 24be f934 02bb 9126 ff3d 4473 323e
00000190: 3a3c 9abd b8ca 97bc ab44 ae3d f7bb 4bbe
000001a0: e209 26be 5235 babc 37ae 64be 99dd 4cbe
000001b0: 80ba 87bd 38b1 edbc 2fee a63d 4db5 d7bd
000001c0: 47c1 4e3d 214c 503d 82f2 39be 14fc b1bd
000001d0: d4f9 663c 2332 733c 35f9 d6bd c7ca adbd
000001e0: c058 5dbb a67e 7e3d 05db b03d 77fd 0ebe
000001f0: f03a 47be db61 4bbe acb7 633d d29a 29be

weight f4 [128, 128]
-0.019926323 -0.032544024 0.033631846 0.017899022 0.04696203 -0.015818235 0.02349406 -0.007262428
-0.00727079 0.016823173 0.0073819947 -0.11766149 0.07080891 -0.09240757 0.001952165 -0.021738911
-0.1308098 -0.029710952 0.030413315 -0.08394671 0.07638996 0.031740353 0.003412827 0.017770601
-0.018207826 0.03614729 -0.054381013 0.08414493 -0.038039587 -0.03207307 -0.04379187 -0.1341009
0.03570145 0.02587767 -0.0047083497 -0.0036384922 -0.08950416 0.050575845 0.04018149 0.0012778889
-0.031613223 -0.057698455 -0.019690387 -0.067707255 0.012699275 0.11620419 -0.07544957 -0.11257084
-0.07479213 -0.022060933 0.046962213 -0.08179824 0.050667256 0.04375035 0.03066235 -0.07052467
-0.041949693 -0.0144206565 0.06537056 0.006275884 -0.06311678 0.025205456 -0.023801772 -0.079572566
-0.04317284 0.019250937 0.010606867 0.07894295 0.016972968 0.03573419 0.038595863 0.06380484
-0.047467783 0.037786014 -0.0653252 -0.06498919 0.03945152 -0.07858001 -0.026383389 0.063695945
0.024763707 -0.0887833 0.010224309 -0.13904946 -0.04030526 -0.008906616 0.022501083 0.03175196
-0.03673405 0.027334956 0.077775 0.08679613 -0.036730394 0.035877056 -0.0126190465 -0.0031109676
0.030050198 -0.08371427 -0.012593986 -0.07546338 0.04627659 -0.09170929 -0.0017351976 0.03292923
0.010906883 0.011166979 -0.051527414 0.04528398 -0.11195378 0.057145037 0.02483072 -0.09385957
-0.06845184 0.03315384 0.016998649 0.0025206918 -0.08805478 0.04453293 -0.09258392 -0.03445804
-0.08491201 -0.06824679 -0.058708433 -0.027413437 -0.030531654 -0.013885267 0.017535083 0.08580613
0.15456507 -0.03669964 -0.13482413 -0.057113424 0.099757336 -0.016333021 0.024445236 0.020550594
0.0914676 0.036739785 0.016345501 -0.05198173 -0.076592594 -0.026321748 -0.059312325 -0.072688445
-0.04852011 -0.058325555 -0.033351056 -0.09458445 0.031772725 -0.031017357 0.10185736 0.0068547865
-0.05755166 0.041654903 0.032023475 -0.030273542 -0.07771988 0.050088633 0.017348453 0.07142424
-0.08009343 0.07874934 0.06342866 -0.11067477 -0.0551954 -0.07958759 -0.24898337 0.12796216
0.05029302 0.081872426 -0.06317 0.028038874 -0.00599743 0.1318086 0.014880807 -0.22958034
0.085053 -0.013278465 0.08475789 -0.12913045 -0.1711734 0.0152816195 -0.050777815 0.062389217
0.01889394 0.0805211 0.08694088 0.0008190343 -0.056615587 0.019793214 0.08554829 -0.05310446
-0.075359054 0.13065483 -0.04080677 0.023829866 0.023471545 -0.00996349 0.0008503571 -0.011858247
-0.27925274 0.12619017 0.051052414 -0.3040101 0.16722067 0.06459732 -0.009415418 -0.07447613
0.18264887 -0.15008709 0.026878266 0.09679343 -0.02472702 -0.56652176 0.0067895544 0.069290906
-0.16424355 0.0123068085 -0.38182712 -0.029728763 0.03020123 0.319223 -0.16445106 0.037575714
-0.07242831 0.00018981662 0.028488403 0.044153694 -0.07223163 -0.07501467 0.07190801 -0.025324346
0.040121444 0.10316663 -0.11995001 -0.013733271 -0.04391835 -0.24614741 -0.17114656 -0.07211547
-0.04686929 -0.0051684696 0.08173532 -0.017078767 0.18449786 0.04689787 -0.0723447 -0.042867366
0.019132555 0.05006444 0.05740479 0.09144412 0.16819851 -0.003037344 -0.005709529 0.13106601
00000000: 873c a3bc e24c 05bd 8cc1 093d f8a0 923c
00000010: 425b 403d 3e95 81bc 9d76 c03c a9f9 edbb
00000020: cf3f eebb c0d0 893c a9e4 f13b 82f8 f0bd
00000030: 4304 913d 2e40 bdbd cadf ff3a cd15 b2bc
00000040: 01f3 05be 6264 f3bc 5825 f93c 41ec abbd
00000050: 5772 9c3d 2c02 023d bca9 5f3b a793 913c
00000060: 9428 95bc 2e0f 143d a0be 5ebd 2d54 ac3d
00000070: 66cf 1bbd 0d5f 03bd 1b5f 33bd bf51 09be
00000080: af3b 123d 68fd d33c 8048 9abb c573 6ebb
00000090: f54d b7bd 9e28 4f3d 5995 243d d67e a73a
000000a0: de7c 01bd 3755 6cbd bc4d a1bc 1aaa 8abd
000000b0: 9f10 503c 76fc ed3d 4e85 9abd 8a8b e6bd
000000c0: 9e2c 99bd 21b9 b4bc 735b 403d d685 a7bd
000000d0: 7888 4f3d 9133 333d 9c2f fb3c 3d6f 90bd
000000e0: 71d3 2bbd 9e44 6cbc 00e1 853d eea5 cd3b
000000f0: 5f43 81bd ac7b ce3c effb c2bc f1f6 a2bd
00000100: 01d6 30bd 24b4 9d3c 6dc8 2d3c d7ac a13d
00000110: e50a 8b3c 045e 123d b216 1e3d 1dac 823d
00000120: 946d 42bd 82c5 1a3d 38c9 85bd 0d19 85bd
00000130: eb97 213d 8eee a0bd fa21 d8bc 0573 823d
00000140: 42dd ca3c 05d4 b5bd dc83 273c fb62 0ebe
00000150: 2117 25bd 0eed 11bc 3154 b83c 580e 023d
00000160: 7176 16bd 8fed df3c 8048 9f3d 2bc2 b13d
00000170: 9c72 16bd d2f3 123d 1ec0 4ebc 60e1 4bbb
00000180: d52b f63c 6372 abbd 0157 4ebc 8b8c 9abd
00000190: 868c 3d3d 15d2 bbbd 926f e3ba cde0 063d
000001a0: c8b2 323c b4f5 363c 690e 53bd b27b 393d
000001b0: 0648 e5bd ea10 6a3d cb69 cb3c 7239 c0bd
000001c0: 7a30 8cbd 52cc 073d c040 8b3c 3132 253b
000001d0: 1156 b4bd 2968 363d a39c bdbd e023 0dbd
000001e0: 59e6 adbd f9c4 8bbd 4178 70bd 2592 e0bc
000001f0: 851d fabc 087f 63bc bca5 8f3c 20bb af3d
00000200: 4e46 1e3e 5d52 16bd 560f 0abe c4ef 69bd
00000210: 934d cc3d d4cc 85bc 6041 c83c b859 a83c
00000220: 5d53 bb3d 757c 163d 00e7 853c cbea 54bd
00000230: 94dc 9cbd b5a0 d7bc 7bf1 72bd aedd 94bd
00000240: 06bd 46bd c7e6 6ebd 1e9b 08bd 7eb5 c1bd
00000250: 1e24 023d 1d18 febc 979a d03d 1e9e e03b
00000260: 4abb 6bbd 559e 2a3d 0c2b 033d 3800 f8bc
00000270: 9a2b 9fbd bd29 4d3d 581e 8e3c df46 923d
00000280: 0608 a4bd 5547 a13d e3e6 813d 74a9 e2bd
00000290: 9214 62bd d2fe a2bd 7ff5 7ebe 8308 033e
000002a0: 0e00 4e3d bbac a73d 465f 81bd c8b1 e53c
000002b0: 1786 c4bb d5f8 063e a1ce 733c 1c17 6bbe
000002c0: 4430 ae3d eb8d 59bc 8b95 ad3d c63a 04be
000002d0: 1448 2fbe c25f 7a3c 66fc 4fbd d68b 7f3d
000002e0: 77c7 9a3c 3fe8 a43d 0f0e b23d 76b4 563a
000002f0: bfe5 67bd 6125 a23c f133 af3d 1084 59bd
00000300: d955 9abd 61ca 053e 0025 27bd da36 c33c
00000310: 6647 c03c e83d 23bc 80ea 5e3a 1849 42bc
00000320: 37fa 8ebe ff37 013e 561c 513d 36a7 9bbe
00000330: e53b 2b3e 9a4b 843d 2043 1abc f186 98bd
00000340: 4e08 3b3e 6eb0 19be cf2f dc3c a23b c63d
00000350: 5290 cabc 9207 11bf e97a de3b 64e8 8d3d
00000360: 762f 28be 7fa2 493c d87e c3be bc89 f3bc
00000370: 9268 f73c 3271 a33e dc65 28be fee8 193d
00000380: 4b55 94bd 8309 4739 8360 e93c 81da 343d
00000390: 2dee 93bd 4ba1 99bd 8244 933d 0175 cfbc
000003a0: 6256 243d 0749 d33d 5aa8 f5bd 8301 61bc
000003b0: bae3 33bd 110e 7cbe 0b41 2fbe 47b1 93bd
000003c0: 03fa 3fbd 445c a9bb d964 a73d c5e8 8bbc
000003d0: 02ed 3c3e fb17 403d 7529 94bd b195 2fbd
000003e0: e0bb 9c3c 5f10 4d3d 4921 6b3d 0e47 bb3d
000003f0: 3b3c 2c3e 2d0e 47bb 0017 bbbb 2b36 063e

bias f4 [128]
-0.13291384 0.15928793 0.013337413 -0.06774124 0.09726244 -0.06035087 -0.00061229506 -0.08651491
-0.013649645 -0.09714453 -0.021998279 -0.107571736 0.10240665 0.13748184 -0.15394081 -0.10912287
-0.11620277 -0.10905673 -0.04062196 -0.005139966 0.10919887 -0.11979156 -0.05723997 -0.0135167325
0.13068257 -0.094744936 -0.28478715 0.11195587 -0.019532518 -0.10630189 0.020914694 -0.084167935
-0.003999843 0.07047483 -0.023907512 0.0375086 -0.0020089075 0.09898672 -0.098879054 -0.09563896
0.15561864 0.02162246 -0.08157977 0.0930704 0.07265997 -0.11529448 -0.019109301 -0.013957528
0.07930485 0.016940909 0.0092029525 0.06646173 0.12751964 -0.04664037 0.0386069 -0.054893706
-0.0051236576 -0.021832315 -0.10357312 -0.07354734 -0.039983507 -0.037904914 0.09350487 -0.075076915
0.07046899 -0.0063799047 0.06710168 -0.038424052 -0.030096063 -0.10018959 -0.07884091 -0.09372312
-0.18313561 -0.09648005 -0.026765356 -0.015158894 -0.13768871 -0.020457577 -0.009133296 0.048327114
-0.016169561 -0.08836146 -0.01633558 -0.034601465 0.16164221 0.036250476 -0.09272705 0.033755697
-0.06452475 -0.05079991 -0.04389697 -0.074369885 0.014565958 -0.14580993 -0.096023165 -0.115759015
-0.11488207 -0.011883563 -0.09602992 0.07540702 0.020321082 -0.089823805 0.06347821 0.09966458
-0.02985659 0.009404007 -0.22831403 -0.17626788 -0.06550295 -0.10283475 -0.0039150356 -0.0008268682
0.0011047543 -0.17925198 0.04660847 0.033363555 -0.14791001 -0.073898815 0.03339746 -0.015276458
-0.06119792 -0.045874592 0.119183406 -0.05522499 0.050504703 -0.059160702 0.19046716 -0.0274788
00000000: 911a 08be 601c 233e 2a85 5a3c ebbb 8abd
00000010: 8831 c73d 7932 77bd 6d82 20ba bb2e b1bd
00000020: c3a2 5fbc b6f3 c6bd bc35 b4bc 924e dcbd
00000030: 94ba d13d 0ac8 0c3e a9a2 1dbe d07b dfbd
00000040: b8fb edbd 2359 dfbd 3663 26bd 296d a8bb
00000050: a8a3 df3d 4755 f5bd 7574 6abd 4975 5dbc
00000060: a7d1 053e a209 c2bd 9fcf 91be 1f49 e53d
00000070: a902 a0bc ceb4 d9bd 4b55 ab3c 3d60 acbd
00000080: 1d11 83bb 1c55 903d b0d9 c3bc 9ea2 193d
00000090: e0a7 03bb 8db9 ca3d 1a81 cabd 5cde c3bd
000000a0: 7e5a 1f3e 9621 b13c 4b13 a7bd b29b be3d
000000b0: c0ce 943d 831f ecbd 1c8b 9cbc 1eae 64bc
000000c0: 956a a23d a9c7 8a3c fbc7 163c 161d 883d
000000d0: 8294 023e f909 3fbd 4522 1e3d 39d8 60bd
000000e0: 5be4 a7bb afd9 b2bc 251e d4bd fd9f 96bd
000000f0: bfc5 23bd 2f42 1bbd 7b7f bf3d edc1 99bd
00000100: 0c52 903d 850e d1bb 9b6c 893d 8a62 1dbd
00000110: 058c f6bc 3330 cdbd 5877 a1bd e8f1 bfbd
00000120: e787 3bbe 5597 c5bd 0543 dbbc 025d 78bc
00000130: 45fe 0cbe a696 a7bc d2a3 15bc a7f2 453d
00000140: 0776 84bc daf6 b4bd 32d2 85bc 44ba 0dbd
00000150: 8985 253e 617b 143d aee7 bdbd 6a43 0a3d
00000160: 8d25 84bd 9113 50bd 4fcd 33bd 3d4f 98bd
00000170: 0ea6 6e3c 334f 15be cba7 c4bd 1013 edbd
00000180: 4a47 ebbd 47b3 42bc 56ab c4bd ff6e 9a3d
00000190: 6678 a63c 8bf5 b7bd dd00 823d f11c cc3d
000001a0: cf95 f4bc 4413 1a3c 27cb 69be 917f 34be
000001b0: 6926 86bd 079b d2bd b349 80bb 30c2 58ba
000001c0: 67cd 903a d58d 37be 86e8 3e3d 39a8 083d
000001d0: b975 17be 4358 97bd c6cb 083d 1c4a 7abc
000001e0: acaa 7abd ffe6 3bbd 6e16 f43d 9933 62bd
000001f0: 05de 4e3d 7e52 72bd d309 433e 381b e1bc

weight f4 [128, 128]
-0.08005877 -0.07333397 -0.04367366 0.104349405 -0.10785354 -0.009772675 -0.050365847 0.030735297
-0.03954455 -0.03202624 -0.011441947 0.09053524 0.24174681 0.06267312 -0.13983895 0.019533256
0.12289016 0.091850825 0.08727166 0.07227598 0.32875666 -0.08840216 0.0025672491 -0.0658882
0.07055516 0.025570044 -0.06986116 -0.019312678 -0.07584207 0.0074371393 -0.11257141 -0.013246489
0.06481712 0.065885685 -0.019519616 0.16353329 -0.28326523 -0.041697077 -0.48501828 -0.090376206
0.045905184 0.11624598 -0.3121797 -0.09584168 0.003379078 0.1588808 -0.05399114 -0.1975949
0.25660077 0.0019992527 -0.0065926397 -0.17379434 0.1576426 0.044007305 -0.18142432 -0.09375803
-0.04797679 0.07830831 0.0582065 0.19602995 -0.09610379 -0.07143989 0.124916345 -0.047403444
-0.09628827 -0.016034124 -0.5525606 -0.060284935 -0.10410004 0.030803172 0.032554474 0.013629132
0.09517273 0.005831139 0.12937105 -0.03994396 -0.030056339 -0.057772625 0.03837049 0.23926349
-0.107484534 -0.0023936578 0.020440942 -0.12092306 0.008840016 0.20004061 -0.07466901 0.19837943
-0.035573397 -0.00021769846 -0.12551656 -0.055278607 0.043504864 -0.29986894 -0.024692925 -0.07996016
0.06088632 -0.20612301 0.09849122 -0.14555974 -0.038530126 0.03763829 -0.17501105 -0.030599868
-0.048053287 0.07766969 0.11802111 0.15065947 0.119179435 -0.06730834 -0.03313985 -0.018644694
0.0022926906 -0.22766148 0.17423877 0.035196416 0.022155194 0.04215797 0.009065985 0.014488204
-0.024816077 0.07252398 0.5672955 -0.00614938 0.12954436 0.07091933 -0.036593255 0.034749426
0.019055765 0.17445138 0.10872977 0.065740846 0.38264558 -0.28873098 -0.02781358 0.020729102
0.024162035 0.024966275 -0.15798345 0.07427181 -0.109422155 0.14605348 0.07249957 0.007139094
0.06624407 -0.10570554 -0.019380845 0.054247715 0.64564556 -0.069367975 -0.07867759 -0.24206965
0.1659813 0.087826796 -0.5339747 0.1462273 -0.35080427 0.06558011 -0.046776306 -0.08603707
0.058780666 -0.8036302 0.0439085 -0.16027753 0.5550355 0.06809014 0.20086414 0.0802141
0.1806188 -0.07116718 -0.4476775 0.2242959 0.05332779 -0.407521 -0.19169594 -0.038830478
-0.04131095 -0.8573423 0.07217013 0.2782394 -0.40522715 -0.022726577 0.05185131 0.07507478
-0.5181968 -0.42836672 0.03816225 -0.15119404 -0.00094962504 0.0042649894 0.024351936 -0.097984366
-0.08620935 -0.010097975 1.0590503 -0.07661018 0.02413889 -0.06241345 -0.02127327 0.0686088
-0.5708336 -0.15861696 0.15634055 0.053999096 -0.023837829 -0.12768377 -0.03652808 -0.57522327
-0.280823 0.07225669 -0.07777092 -0.22517127 0.7296278 -0.18442167 0.005428411 -0.021808347
-0.010915602 -0.42568436 -0.21666329 -0.07632071 -0.016454624 -0.48883176 -0.12408589 -0.17887841
0.11345169 -0.069287516 -0.05596275 0.15693519 0.045909554 0.01670508 0.033510268 -0.49878547
-0.4817034 -0.17259583 -0.32603568 -0.047491487 -0.06803871 0.086796954 -0.039319836 -0.065201044
-0.8387781 -0.7433697 0.15098102 0.020519149 -0.024991632 0.0013774065 0.04669282 -0.045202594
-0.061457332 -0.03373403 0.04622809 -0.056768376 -0.2734196 -0.018170984 0.109733604 -0.27084762
00000000: daf5 a3bd 1f30 96bd 27e3 32bd 24b5 d53d
00000010: 51e2 dcbd 921d 20bc 6b4c 4ebd 97c8 fb3c
00000020: 77f9 21bd f22d 03bd 0177 3bbc 8a6a b93d
00000030: 7a8c 773e c45a 803d f131 0fbe 3504 a03c
00000040: d6ad fb3d 491c bc3d 7cbb b23d 6e05 943d
00000050: cb52 a83e 310c b5bd 4b3f 283b 65f0 86bd
00000060: 397f 903d 4578 d13c 5e13 8fbd 9f35 9ebc
00000070: 1653 9bbd 3fb3 f33b d78b e6bd cd07 59bc
00000080: d7be 843d 13ef 863d 9ae7 9fbc 4575 273e
00000090: 2408 91be 8eca 2abd 5154 f8be 2917 b9bd
000000a0: 1307 3c3d 5f12 ee3d 05d6 9fbe a548 c4bd
000000b0: 8673 5d3b a6b1 223e d025 5dbd 5156 4abe
000000c0: 2d61 833e e505 033b 1207 d8bb 25f7 31be
000000d0: 106d 213e 0141 343d 4cc7 39be 3604 c0bd
000000e0: 5083 44bd 1b60 a03d f069 6e3d 13bc 483e
000000f0: 10d2 c4bd 144f 92bd 24d4 ff3d 1d2a 42bd
00000100: c932 c5bd ff59 83bc 9d74 0dbf 56ed 76bd
00000110: 6732 d5bd ef56 fc3c d757 053d b94c 5f3c
00000120: ece9 c23d 2413 bf3b d879 043e 479c 23bd
00000130: b638 f6bc fda2 6cbd 602a 1d3d 7d01 753e
00000140: da20 dcbd eade 1cbb c373 a73c 82a6 f7bd
00000150: b7d5 103c 72d7 4c3e 11ec 98bd fa23 4b3e
00000160: 69b5 11bd fc45 64b9 6a87 00be d26b 62bd
00000170: 2832 323d 6c88 99be d148 cabc 27c2 a3bd
00000180: ef63 793d e911 53be c4b5 c93d 9d0d 15be
00000190: c4d1 1dbd 9c2a 1a3d 1936 33be 93ac fabc
000001a0: 86d3 44bd 4911 9f3d 0db5 f13d 7a46 1a3e
000001b0: 5914 f43d f4d8 89bd a7bd 07bd c2bc 98bc
000001c0: f740 163b 1720 69be a66b 323e 1e2a 103d
000001d0: cf7e b53c d6ad 2c3d 7f89 143c ef5f 6d3c
000001e0: 164b cbbc 7487 943d 473a 113f bd80 c9bb
000001f0: 47a7 043e 273e 913d cfe2 15bd 6a55 0e3d
00000200: d61a 9c3c 62a3 323e b7ad de3d 23a3 863d
00000210: 1fea c33e 8cd4 93be 4ed9 e3bc 14d0 a93c
00000220: 76ef c53c 1386 cc3c 6ac6 21be d21b 983d
00000230: b918 e0bd 0b8f 153e a87a 943d 10ef e93b
00000240: f9aa 873d 257c d8bd 94c4 9ebc da32 5e3d
00000250: 0749 253f cc10 8ebd b721 a1bd 1be1 77be
00000260: 00f7 293e 89de b33d 91b2 08bf 9cbc 153e
00000270: 9e9c b3be dd4e 863d 8398 3fbd 3434 b0bd
00000280: ffc3 703d b5ba 4dbf 66d9 333d cb1f 24be
00000290: ce16 0e3f d872 8b3d 54af 4d3e 4a47 a43d
000002a0: 22f4 383e 19c0 91bd fc35 e5be d3ad 653e
000002b0: 3e6e 5a3d 98a6 d0be f14b 44be b50c 1fbd
000002c0: ac35 29bd c97a 5bbf efcd 933d 6575 8e3e
000002d0: ef79 cfbe 162d babc 0a62 543d cec0 993d
000002e0: 8ca8 04bf e252 dbbe 0550 1c3d 9cd2 1abe
000002f0: 42f0 78ba 53c1 8b3b b67d c73c 07ac c8bd
00000300: 878e b0bd fa71 25bc f68e 873f cce5 9cbd
00000310: ecbe c53c 3fa5 7fbd 4845 aebc c582 8c3d
00000320: 2722 12bf 7c6c 22be bd17 203e 282e 5d3d
00000330: 8d47 c3bc 89bf 02be 789e 15bd d541 13bf
00000340: 08c8 8fbe 51fb 933d 5c46 9fbd 4c93 66be
00000350: e3c8 3a3f 09d9 3cbe d0e0 b13b 6ba7 b2bc
00000360: 5ad7 32bc 4df3 d9be fbdc 5dbe 084e 9cbd
00000370: d9cb 86bc 2848 fabe be20 febd e72b 37be
00000380: 5c59 e83d 9de6 8dbd 3239 65bd 9eb3 203e
00000390: a80b 3c3d 18d9 883c 1042 093d cf60 ffbe
000003a0: d4a1 f6be f6bc 30be 26ee a6be 6f86 42bd
000003b0: e157 8bbd 9ac2 b13d d60d 21bd 2088 85bd
000003c0: 29ba 56bf 7a4d 3ebf c59a 1a3e c617 a83c
000003d0: 40bb ccbc 188a b43a f840 3f3d 5b26 39bd
000003e0: afba 7bbd b22c 0abd aa59 3d3d f585 68bd
000003f0: a7fd 8bbe 51db 94bc 03bc e03d 8aac 8abe

bias f4 [128]
0.08635236 0.24735743 0.010019989 -0.10723746 -0.005037269 -0.08306178 -0.015088662 0.23980926
-0.089147 -0.060639493 -0.08101086 -0.052572593 -0.058045525 -0.031321984 0.36438027 -0.081992544
-0.07758625 0.16444774 -0.033739477 -0.09375241 -0.104567215 0.1475373 0.21805632 -0.036718052
-0.01448285 0.12994267 -0.016956016 -0.08610061 0.19241044 -0.053720634 0.10658889 -0.11213162
0.15918103 -0.063042454 -0.08518012 -0.07265134 0.14021933 0.08910955 -0.07798198 0.0147750825
-0.008199398 -0.0868727 0.069865525 -0.044962328 0.043692347 0.14242835 -0.06635904 -0.081273414
-0.051680516 -0.35991043 0.252931 0.24105605 -0.020877182 0.0024480023 0.04974594 0.02791346
0.06488756 -0.034856863 -0.13411489 -0.044174504 0.3412771 -0.042127874 -0.108107954 -0.05236814
0.06417316 0.24970068 -0.025141295 0.37370136 -0.052176666 0.2679194 -0.020206966 -0.06849571
-0.089161955 -0.08349348 0.1716426 -0.041127305 -0.093432255 -0.07067465 -0.021860896 0.0586988
0.10639263 0.006380973 0.34034103 -0.083825365 -0.11132524 0.010277339 -0.09384696 0.17175372
0.12862568 0.21855322 -0.11311382 -0.096490435 0.15685537 0.27404073 0.00012637777 0.07428853
-0.0048256163 -0.062343344 -0.014964503 0.30992118 0.06923789 -0.06953426 -0.0073632495 -0.06698988
-0.016850267 -0.027518297 0.19535552 0.11889302 0.13530032 0.3005867 0.12517413 -0.025424927
0.012969882 0.073074795 0.27577955 -0.04352997 0.016270913 0.34977797 0.30413356 -0.09662507
0.00883728 0.05644085 0.18900077 0.018593553 -0.09027944 0.15346743 -0.119624004 0.027517054
00000000: 82d9 b03d 444b 7d3e e12a 243c 509f dbbd
00000010: ad0f a5bb 4b1c aabd 6f36 77bc 8f90 753e
00000020: b492 b6bd 1e61 78bd 06e9 a5bd 5c56 57bd
00000030: 25c1 6dbd 7b4b 00bd 0d90 ba3e b5eb a7bd
00000040: 8ae5 9ebd fd64 283e 6832 0abd 4301 c0bd
00000050: 5627 d6bd 0514 173e 284a 5f3e ab65 16bd
00000060: 7a49 6dbc b10f 053e 58e7 8abc 8455 b0bd
00000070: 3e07 453e 2b0a 5cbd 474b da3d 43a5 e5bd
00000080: 5a00 233e 671c 81bd ea72 aebd 3aca 94bd
00000090: a895 0f3e 117f b63d 04b5 9fbd 3013 723c
000000a0: c556 06bc 50ea b1bd a815 8f3d 6b2a 38bd
000000b0: bff6 323d bdd8 113e 40e7 87bd ad72 a6bd
000000c0: f3ae 53bd 2e46 b8be 2c80 813e 66d7 763e
000000d0: a006 abbc aa6e 203b 66c2 4b3d c5aa e43c
000000e0: c5e3 843d 12c6 0ebd 6a55 09be 53f0 34bd
000000f0: dfbb ae3e 478e 2cbd b467 ddbd fa7f 56bd
00000100: 386d 833d 89b1 7f3e 1ef5 cdbc c955 bf3e
00000110: 33b7 55bd bb2c 893e 1489 a5bc 7b47 8cbd
00000120: 8b9a b6bd a1fe aabd 14c3 2f3e 1b75 28bd
00000130: 6959 bfbd dfbd 90bd 9f15 b3bc 276e 703d
00000140: 61e4 d93d 7b17 d13b 2e41 ae3e a2ac abbd
00000150: 7dfe e3bd 4962 283c d632 c0bd 35e0 2f3e
00000160: 73b6 033e 6acc 5f3e 38a8 e7bd c79c c5bd
00000170: b29e 203e 114f 8c3e 4684 0439 9624 983d
00000180: 3420 9ebb bc5b 7fbd ad2d 75bc fdad 9e3e
00000190: 98cc 8d3d fa67 8ebd 6a47 f1bb fd31 89bd
000001a0: 9209 8abc 0d6e e1bc 470b 483e 2f7e f33d
000001b0: 2b8c 0a3e 80e6 993e a62d 003e f047 d0bc
000001c0: a17f 543c 3da8 953d fa32 8d3e 7b4c 32bd
000001d0: 944a 853c 1916 b33e 65b7 9b3e 5de3 c5bd
000001e0: 3dca 103c 852e 673d 6b89 413e 8251 983c
000001f0: 6de4 b8bd 9126 1d3e 6efd f4bd 726b e13c

weight f4 [128, 128]
0.11947672 0.4770259 -0.38678062 -0.05075013 -0.36635593 -0.67979693 -0.2863321 -0.006720586
-0.040649507 -0.27023536 -0.04896505 -0.010849268 0.027336963 -0.04099055 0.14018384 0.021620305
-0.08281119 -0.093450844 0.03943617 0.0949837 -0.02109516 -0.22564213 -0.07987012 0.023251047
-0.0026266405 -0.12862371 -0.5503032 -0.5471899 0.07952603 -0.18797375 -0.19049774 -0.46680257
-0.13667412 -0.019580748 -0.080610745 0.046455123 0.059476748 -0.12938257 -0.38756114 -0.28261453
0.021768281 0.06581215 -0.054049548 -0.20414756 -0.18139999 -0.084182724 0.14830175 0.054915957
-0.017387405 -0.19463642 0.06683242 0.45726675 0.081656 0.029119475 -0.062007423 -0.1787613
-0.3047992 0.09081172 -0.17718661 0.029472467 0.10012452 0.021747025 0.0013485823 -0.08574765
-0.17534082 0.13659512 0.056294523 0.14502153 -0.026451716 0.27279168 -0.43576378 0.28114188
-0.30009574 0.00017323345 -0.150116 0.045696337 -0.040094078 -0.23183388 -0.07862569 -0.27099842
-0.38203368 -0.16134667 0.006128855 0.09565699 0.029602356 0.036651485 0.024257444 -0.13163349
-0.38349643 -0.0062931543 -0.020347217 0.00963857 0.007640223 -0.106976576 0.0115693165 -0.48273498
0.09680572 -0.55229855 -0.10934366 0.05087493 -0.0987412 0.0017403091 -0.055806804 0.03753569
-0.011918348 -0.1007681 0.07378736 0.055679865 0.08966276 0.13241372 0.09798641 0.04224439
-0.17947796 -0.024542846 1.6625112e-05 0.07099653 -0.09196573 0.056044742 0.104944274 -0.026991822
-0.34618983 -0.13639723 -0.3165156 -0.024322907 0.03596157 0.05121528 0.015438435 -0.2138592
0.07616692 -0.06986681 -0.10688462 0.06974942 0.0066906894 -0.050444104 0.06728179 -0.07095411
-0.04447525 0.01027598 0.025045823 0.03539597 -0.0016484708 0.019228235 -0.0139489 0.04243838
-0.047736235 -0.07550843 -0.031775016 0.030200005 -0.036641415 -0.09501165 -0.14388601 -0.074038304
0.08104951 -0.033963725 -0.11383824 -0.017419912 -0.029638007 -0.044061575 0.081125766 0.0043278807
8.671357e-07 -0.04896171 -0.010604337 0.0409872 0.077669136 0.012502496 -0.023908876 -0.05190308
0.019620985 -0.033417255 0.017032612 -0.07431667 0.041586988 -0.1274324 -0.079587705 -0.06887617
0.00551524 -0.044581324 -0.07252763 0.01949988 0.07163197 0.01025977 -0.017954579 -0.10588341
-0.05631767 -0.07168456 -0.035613477 -0.012895218 -0.110000744 0.05820354 0.021624252 -0.011529766
-0.000586566 0.06325165 0.02312801 -0.09956506 -0.008094229 -0.021682069 -0.07731575 -0.0026418115
-0.039241374 0.045715176 0.054506913 -0.0033567525 0.050790153 0.0007045663 -0.016114004 -0.139209
-0.07892561 -0.01504143 -0.036632065 -0.022384837 -0.0074431 -0.055610728 -0.06160205 -0.058582816
-0.0879171 -0.09208338 0.07668749 0.07524855 -0.17610478 -0.018507943 0.02882245 -0.12035617
0.07374865 -0.13755108 -0.07799945 -0.090039834 -0.1253808 -0.07623682 -0.014761233 0.0661946
0.023466198 0.046807878 -0.15758352 -0.12569863 -0.14588319 -0.024939917 -0.160705 0.0021244446
-0.041206565 0.02034954 -0.07689828 -0.023471735 0.008002441 -0.041015893 0.016838657 0.05066491
-0.09277399 0.027339429 0.011178321 0.03387098 0.040139906 -0.06541812 0.09714737 0.033648413
00000000: 36b0 f43d bd3c f43e 1c08 c6be 5edf 4fbd
00000010: 0193 bbbe 2c07 2ebf 1f9a 92be 5d38 dcbb
00000020: 1980 26bd 4a5c 8abe 948f 48bd 21c1 31bc
00000030: c4f1 df3c b5e5 27bd 5a8c 0f3e 111d b13c
00000040: ea98 a9bd 2863 bfbd d287 213d d086 c23d
00000050: c2cf acbc bb0e 67be f292 a3bd fb78 be3c
00000060: b723 2cbb efb5 03be ace0 0cbf a314 0cbf
00000070: 8bde a23d 317c 40be d711 43be bf00 efbe
00000080: 4df4 0bbe ce67 a0bc 3f17 a5bd ba47 3e3d
00000090: e49d 733d dd7c 04be 6a6e c6be dab2 90be
000000a0: 6553 b23c 85c8 863d 0f63 5dbd 0f0c 51be
000000b0: ebc0 39be fe67 acbd 6adc 173e 8eef 603d
000000c0: 0870 8ebc c54e 47be 70df 883d de1e ea3e
000000d0: 433b a73d f78b ee3c 7ffb 7dbd 340d 37be
000000e0: a40e 9cbe 7ffb b93d 6870 35be 3e70 f13c
000000f0: 160e cd3d d126 b23c eac2 b03a 779c afbd
00000100: 8b8c 33be 97df 0b3e 1695 663d 8680 143e
00000110: 45b1 d8bc 5aab 8b3e 6e1c dfbe d4f1 8f3e
00000120: 26a6 99be 00a6 3539 02b8 19be 152c 3b3d
00000130: b039 24bd dc65 6dbe 8106 a1bd 4ec0 8abe
00000140: eb99 c3be 1038 25be 90d4 c83b d0e7 c33d
00000150: a480 f23c de1f 163d 8cb7 c63c eeca 06be
00000160: a559 c4be ce36 cebb 35af a6bc 18eb 1d3c
00000170: d65a fa3b 8916 dbbd 3b8d 3d3c 0a29 f7be
00000180: 1442 c63d 7063 0dbf 92ef dfbd 3b62 503d
00000190: d438 cabd 151b e43a ad95 64bd 06bf 193d
000001a0: 2d45 43bc 815f cebd d41d 973d 9210 643d
000001b0: 1ca1 b73d 7697 073e 19ad c83d 7408 2d3d
000001c0: 12c9 37be 140e c9bc 2876 8b37 a166 913d
000001d0: 8758 bcbd 2c8f 653d 06ed d63d f41d ddbc
000001e0: cb3f b1be b7ab 0bbe 550e a2be d540 c7bc
000001f0: 704c 133d 1dc7 513d 7df1 7c3c e8fd 5abe
00000200: 67fd 9b3d 5516 8fbd 53e6 dabd c9d8 8e3d
00000210: 923d db3b 7a9e 4ebd 09cb 893d 6350 91bd
00000220: ae2b 36bd 965c 283c e62c cd3c 5dfb 103d
00000230: 8011 d8ba 8884 9d3c ed89 64bc ded3 2d3d
00000240: 1287 43bd 2aa4 9abd 8526 02bd 0066 f73c
00000250: 4f15 16bd 7895 c2bd db56 13be 65a1 97bd
00000260: 49fd a53d 8c1d 0bbd 0624 e9bd 34b4 8ebc
00000270: 68cb f2bc e979 34bd 4425 a63d e5d0 8d3b
00000280: 1dc5 6835 138c 48bd d0bd 2dbc 32e2 273d
00000290: ff10 9f3d 45d7 4c3c 8cdc c3bc 5398 54bd
000002a0: 30bc a03c 88e0 08bd fa87 8b3c 5733 98bd
000002b0: 1e57 2a3d a47d 02be e1fe a2bd f30e 8dbd
000002c0: 30b9 b43b e89a 36bd 5e89 94bd 36be 9f3c
000002d0: c8b3 923d 9818 283c 7b15 93bc 67d9 d8bd
000002e0: 5bad 66bd 5bcf 92bd 70df 11bd 7746 53bc
000002f0: 1248 e1bd d666 6e3d 5825 b13c 58e7 3cbc
00000300: c7c3 19ba 158a 813d f476 bd3c c4e8 cbbd
00000310: a89d 04bc 989e b1bc b857 9ebd 3e22 2dbb
00000320: 90bb 20bd d63f 3b3d a442 5f3d f6fc 5bbb
00000330: 5609 503d a5b2 383a 8401 84bc ce8c 0ebe
00000340: c0a3 a1bd 5470 76bc 810b 16bd 6860 b7bc
00000350: 40e5 f3bb 13c8 63bd 6e52 7cbd 89f4 6fbd
00000360: e10d b4bd 3696 bcbd 550e 9d3d e91b 9a3d
00000370: d054 34be f89d 97bc 0f1d ec3c 4c7d f6bd
00000380: 8809 973d 31da 0cbe 2dbe 9fbd ce66 b8bd
00000390: d363 00be 0d22 9cbd 19d9 71bc 0991 873d
000003a0: 2f3c c03c 9eb9 3f3d 935d 21be 24b7 00be
000003b0: 6762 15be cc4e ccbc da8f 24be 443a 0b3b
000003c0: 37c8 28bd 14b4 a63c d87c 9dbd cc47 c0bc
000003d0: ac1c 033c 4800 28bd 39f1 893c 0286 4f3d
000003e0: 4a00 bebd f0f6 df3c 4725 373c 4cbc 0a3d
000003f0: be69 243d eff9 85bd 33f5 c63d ebd2 093d

bias f4 [128]
0.21029441 0.00864698 0.27125973 -0.115557805 0.25061658 -0.06288196 -0.04336894 -0.041037254
0.30699202 0.3206886 0.1555073 0.37370077 -0.3592047 0.104625784 0.042322688 0.2845307
0.31539774 -0.09933675 0.019662388 0.32711527 -0.021026032 0.07031309 0.31435263 0.2158499
0.31704018 -0.010792513 0.24403125 0.12354994 0.0046521123 -0.016416017 -0.07571991 0.3509409
-0.0986544 0.3632493 0.068398535 0.18887621 0.3786074 0.32835674 -0.062358413 0.25682867
-0.024534473 -0.0676163 0.3702359 -0.007439519 0.31917378 0.03774701 0.37403512 0.32471028
-0.067889646 0.24683051 0.05582451 -0.09317143 -0.029625345 0.25968823 -0.08720287 0.25416008
-0.022178674 0.26953402 0.31786513 0.2878915 0.43076307 -0.044992223 -0.08866663 0.05884366
0.29488462 0.33308914 0.042944368 -0.106422946 -0.08337239 -0.093222775 -0.0635491 -0.05245242
0.31199056 0.17917491 0.41434777 -0.06616685 0.15242845 0.3611445 -0.084570706 -0.09921023
0.40645266 -0.11576373 -0.04810079 -0.059561484 0.044535037 -0.010659793 -0.046220686 0.24555296
-0.07563913 -0.10778039 0.13461347 -0.021379203 0.008988637 0.14151652 0.3921044 0.1539338
-0.02739017 0.0021393024 -0.03283059 -0.20063773 -0.058523003 0.3461931 -0.0819591 0.38719225
0.21890059 -0.036641195 0.35937303 0.05498992 -0.06922265 0.085870504 0.21800238 -0.10992086
-0.09641485 -0.08592762 0.39876068 -0.008426785 0.2334022 0.03702507 0.38119715 0.34199536
0.2590186 0.43782514 0.42934513 -0.040948965 -0.07305295 -0.033301994 0.07889185 -0.023554033
00000000: 6b57 573e 10ac 0d3c 8ee2 8a3e 92a9 ecbd
00000010: d150 803e 42c8 80bd a1a3 31bd ae16 28bd
00000020: 0f2e 9d3e 4c31 a43e 4e3d 1f3e b555 bf3e
00000030: aee9 b7be 0b46 d63d 8e5a 2d3d 02ae 913e
00000040: d07b a13e 1171 cbbd 0413 a13c a77b a73e
00000050: c93e acbc 4f00 903d d4f2 a03e c207 5d3e
00000060: 1753 a23e 15d3 30bc 54e3 793e c007 fd3d
00000070: bf70 983b e27a 86bc 0a13 9bbd 87ae b33e
00000080: 510b cabd d0fb b93e 8814 8c3d c468 413e
00000090: d4d8 c13e 601e a83e 896b 7fbd 0c7f 833e
000000a0: 85fc c8bc 6a7a 8abd 8f8f bd3e 35c7 f3bb
000000b0: bf6a a33e 9c9c 1a3d 8881 bf3e 6d40 a63e
000000c0: ba09 8bbd 23c1 7c3e 3ea8 643d aad0 bebd
000000d0: dab0 f2bc dbf5 843e 6b97 b2bd 4521 823e
000000e0: 0db0 b5bc 5d00 8a3e 38bf a23e 8466 933e
000000f0: fa8c dc3e c449 38bd da96 b5bd 0d06 713d
00000100: 1efb 963e a98a aa3e 6fe6 2f3d 46f4 d9bd
00000110: 25bf aabd 95eb bebd 0826 82bd 59d8 56bd
00000120: 3abd 9f3e a179 373e 6425 d43e 7c82 87bd
00000130: 3416 1c3e efe7 b83e 6833 adbd bc2e cbbd
00000140: 901a d03e 8915 edbd 5505 45bd bef6 73bd
00000150: 5f6a 363d 6aa6 2ebc e751 3dbd 3c72 7b3e
00000160: b0e8 9abd f7bb dcbd 1dd8 093e 7023 afbc
00000170: 1345 133c b5e9 103e e8c1 c83e d2a0 1d3e
00000180: 5a61 e0bc 8a33 0c3b 5e79 06bd fa73 4dbe
00000190: d1b5 6fbd 3940 b13e 2cda a7bd 103e c63e
000001a0: 7a27 603e 1415 16bd beff b73e 1c3d 613d
000001b0: 9bc4 8dbd e0dc af3d 043c 5f3e 301e e1bd
000001c0: 2675 c5bd d2fa afbd 5c2a cc3e 7f10 0abc
000001d0: fc00 6f3e 9aa7 173d 462c c33e 041a af3e
000001e0: 169e 843e 9e2a e03e 20d3 db3e 1aba 27bd
000001f0: c99c 95bd ac67 08bd 0d92 a13d 63f4 c0bc

weight f4 [5, 128]
-0.31952026 -0.09403884 0.16621193 0.014558397 0.28659374 -0.025126688 -0.04271767 -0.0127702765
0.1366809 -0.00026909926 0.11586085 0.13950375 -0.053351972 -0.002470517 0.008048471 0.13598801
0.16249941 0.012635994 0.0671101 0.15733908 0.009437118 -0.041155413 0.17039609 0.2714071
0.10740937 -0.018728912 0.052974775 0.20692083 -0.022994194 -0.012399152 0.0074177096 0.121366665
-0.0065793907 0.18540378 -0.049526613 -0.8419555 0.16629907 0.14585686 0.0006896405 -0.083407864
-0.037317287 -0.036674175 0.06979937 0.005827575 0.1826425 -0.032167763 0.21996056 0.16701463
-0.029685259 0.123324096 -0.0010153468 -0.04454332 0.03208197 0.10462403 -0.03115756 0.111003846
-0.013617431 0.2183067 0.15656173 -0.069859914 0.09899328 -0.06910217 -0.034047082 -0.05727442
0.16172633 -0.4358447 -0.12123127 0.051407553 0.06450059 0.028447488 -0.049951926 0.042183407
0.16942453 0.23512697 -0.0077994103 -0.02256839 -0.10040249 -0.08612742 -0.010404594 0.026965328
0.067237824 -0.03080234 -0.019964859 -0.055618446 0.0063570864 -0.02141435 -0.019904895 0.10661983
-0.01312831 -0.04654793 0.04680291 -0.039769236 -0.08223907 0.06493872 0.09580469 0.06443713
-0.0073755383 -0.026405461 0.01243909 -0.025963591 -0.08960845 0.11537538 -0.040798873 0.15968132
-0.17647843 -0.03910899 0.16798694 -0.029430112 -0.05297945 0.21333593 0.22525743 -0.072056785
0.038959518 0.026018873 0.13129075 -0.018064601 0.17565776 0.08505822 -1.1161568 0.17622173
0.07619844 0.102478705 0.14451525 0.0018679338 0.07453809 0.0042461557 0.16824275 -0.048447356
-0.7535065 0.017713174 0.16061881 -0.010832153 0.08636794 0.09798138 0.04585796 0.05328655
0.13679296 -0.37450764 -0.026145065 0.17749894 0.07299797 -0.18006979 -0.056566145 0.27074426
0.090815276 0.067269675 0.07989425 0.072143644 0.045575745 -0.03407128 0.1261837 -0.028809343
0.2089259 0.049992718 0.04849007 -0.01835038 0.06848398 -0.04556442 -0.01463265 0.13682877
0.004818969 0.1171441 0.0690279 0.15986855 0.16324207 0.18979691 0.027272593 -0.55251837
0.022283778 0.04917281 0.12293459 0.0798731 0.20086744 0.003445213 0.15414579 0.13697506
0.052162763 0.08246622 0.08005534 -0.02048121 -0.014117768 0.1142858 0.028947957 0.08747768
-0.05580512 0.1210214 0.10728084 -0.853384 0.22751726 -0.04397482 0.052385606 0.08436629
0.053774733 -0.80782056 0.037817772 -0.010360941 -0.086575106 0.083832845 0.004154913 -0.112000816
0.16820075 -0.048526004 -0.646509 0.039474927 -0.07525784 -0.66591185 -0.02066265 -0.05203241
0.16093764 0.07039239 -0.007589383 -0.01635421 0.0033875268 -0.034711357 -0.007565191 0.13146888
-0.041605774 0.04269974 0.1437433 -0.030437928 0.023259707 0.039225463 0.22861423 0.090604715
0.01370804 0.08979304 -0.0035261437 -0.012615843 -0.031329397 0.16306542 0.012802109 0.19927104
-0.36687398 0.034813814 0.20178519 -0.02626193 0.0050854906 -0.055591978 -0.029407581 0.024571985
-0.03241665 0.010978393 0.22505468 0.06225592 0.02098793 0.03585757 0.09365985 0.091943935
0.12812613 -0.3265816 0.20843303 0.032511503 0.0033285469 0.05005316 -0.033467952 -0.0135647
00000000: 2998 a3be 6f97 c0bd 7633 2a3e 5886 6e3c
00000010: 6abc 923e 7cd6 cdbc b9f8 2ebd 6c3a 51bc
00000020: 14f6 0b3e e415 8db9 7448 ed3d 12da 0e3e
00000030: 9987 5abd 66e8 21bb bcdd 033c 7140 0b3e
00000040: 3f66 263e 3307 4f3c 0571 893d 7f1d 213e
00000050: 249e 1a3c 9492 28bd 507c 2e3e dff5 8a3e
00000060: 72f9 db3d 606d 99bc 14fc 583d 0ee3 533e
00000070: 525e bcbc d025 4bbc 4210 f33b 168f f83d
00000080: ee97 d7bb 7dda 3d3e 6bdc 4abd 658a 57bf
00000090: 4e4a 2a3e 805b 153e fec8 343a bed1 aabd
000000a0: 03da 18bd a937 16bd f9f2 8e3d 3ef5 be3b
000000b0: a306 3b3e 58c2 03bd 573d 613e e205 2b3e
000000c0: 802e f3bc 5891 fc3d 6315 85ba 0e73 36bd
000000d0: 6268 033d 2045 d63d 243e ffbc fc55 e33d
000000e0: a51b 5fbc cb8b 5f3e b851 203e b712 8fbd
000000f0: fdbc ca3d 7085 8dbd f474 0bbd 9598 6abd
00000100: 969b 253e 0927 dfbe 1a48 f8bd ba90 523d
00000110: e318 843d b50a e93c 649a 4cbd 82c8 2c3d
00000120: a07d 2d3e 20c5 703e 3292 ffbb 58e1 b8bc
00000130: d29f cdbd 9363 b0bd 0878 2abc 64e6 dc3c
00000140: fcb3 893d 3055 fcbc 588d a3bc 2bd0 63bd
00000150: 1b4f d03b 266d afbc 970f a3bc 7f5b da3d
00000160: 2018 57bc 0ba9 3ebd 68b4 3f3d 11e5 22bd
00000170: f56c a8bd 97fe 843d 4035 c43d 9df7 833d
00000180: 80ae f1bb 4450 d8bc 53cd 4b3c 99b1 d4bc
00000190: a384 b7bd ed49 ec3d b81c 27bd 8083 233e
000001a0: c3b6 34be c030 20bd c504 2c3e 6b17 f1bc
000001b0: fb00 59bd bc74 5a3e e2a9 663e 8292 93bd
000001c0: 0494 1f3d 8825 d53c 1571 063e 37fc 93bc
000001d0: a1df 333e 0133 ae3d 3ade 8ebf 7873 343e
000001e0: ed0d 9c3d 5be0 d13d cefb 133e 75d5 f43a
000001f0: 6da7 983d 5623 8b3b d447 2c3e bc70 46bd
00000200: cde5 40bf 381b 913c 4279 243e 5879 31bc
00000210: ade1 b03d 76aa c83d 8ed5 3b3d ff42 5a3d
00000220: 7413 0c3e 77bf bfbe 2d2e d6bc 48c2 353e
00000230: f67f 953d 3764 38be e7b1 67bd fe9e 8a3e
00000240: 5cfd b93d afc4 893d 999f a33d 0cc0 933d
00000250: a2ad 3a3d 548e 0bbd 4d36 013e 9201 ecbc
00000260: acf0 553e 2ac5 4c3d 869d 463d 8953 96bc
00000270: 5441 8c3d c2a1 3abd c8bd 6fbc d71c 0c3e
00000280: 71e8 9d3b 3fe9 ef3d 805e 8d3d 95b4 233e
00000290: ee28 273e 1f5a 423e c66a df3c d871 0dbf
000002a0: 788c b63c 6e69 493d 21c5 fb3d 8294 a33d
000002b0: 32b0 4d3e 15c9 613b 65d8 1d3e 3143 0c3e
000002c0: 9fa8 553d 0de4 a83d 0ef4 a33d 36c8 a7bc
000002d0: 364e 67bc ac0e ea3d 4424 ed3c 7f27 b33d
000002e0: e993 64bd 11da f73d 0fb6 db3d 6077 5abf
000002f0: 49fa 683e f11e 34bd 4a92 563d 3cc8 ac3d
00000300: e542 5c3d 54cd 4ebf cfe6 1a3d f0c0 29bc
00000310: 4a4e b1bd 8eb0 ab3d f025 883b af60 e5bd
00000320: d13c 2c3e 34c3 46bd 9d81 25bf 76b0 213d
00000330: c820 9abd 3379 2abf b844 a9bc f01f 55bd
00000340: d6cc 243e e329 903d 5cb0 f8bb 44f9 85bc
00000350: 4501 5e3b 7f2d 0ebd 6ce5 f7bb c79f 063e
00000360: d16a 2abd ece5 2e3d 7231 133e f658 f9bc
00000370: 248b be3c e1aa 203d d919 6a3e f78e b93d
00000380: b097 603c 6ae5 b73d e016 67bb aeb2 4ebc
00000390: 4153 00bd 9ffa 263e f0bf 513c b50d 4c3e
000003a0: e8d6 bbbe ee98 0e3d c7a0 4e3e 4223 d7bc
000003b0: 30a4 a63b 6ab4 63bd 2be8 f0bc 304b c93c
000003c0: 52c7 04bd b8de 333c bc74 663e 1000 7f3d
000003d0: e1ee ab3c 63df 123d bcd0 bf3d 1a4d bc3d
000003e0: 7f33 033e b435 a7be 786f 553e c82a 053d
000003f0: c023 5a3b 8b04 4d3d b115 09bd 7a3e 5ebc

bias f4 [5]
0.25550622 0.39938226 0.22872654 0.16469312 0.58028775
00000000: b6d1 823e d57b cc3e 4a37 6a3e 50a5 283e
00000010: bd8d 143f

weight f4 [128, 25]
0.03529261 0.055407908 -0.12592846 -0.07864301 -0.16811839 -0.12590876 -0.3876079 0.23549967
0.4901487 0.07960859 -0.043321528 -0.88211685 -0.08913546 -0.44108605 0.18893418 0.04197431
0.10442329 -0.3772999 0.27481997 0.183099 0.10218801 -0.005791483 0.2702588 -0.39327934
0.1393649 -0.22861865 0.088858485 0.21103846 -0.19449003 -0.1268692 0.005015258 -0.15967414
0.35713783 -0.26660386 0.16962004 -0.18356203 -0.0045444397 0.44897512 0.13892567 0.5868875
-0.08425951 0.48628476 -0.103974216 0.3327674 0.36578414 0.045820285 -0.21685356 0.18782161
0.14481561 0.034304697 -0.17114411 -0.2003533 0.14711814 0.033779867 0.38705328 0.10819746
0.29348454 -0.31421685 0.41797623 -0.046341624 -0.19055408 0.03574062 0.44730797 -0.3937463
-0.3597762 -0.17388892 0.09544144 -0.15512662 0.26985613 -0.0639715 0.0045240745 0.13891347
-0.17755139 0.0025982105 0.030808536 -0.09377716 -0.086790465 0.16406144 -0.18356335 0.16867535
0.04499428 -0.13881521 0.10227682 -0.02297625 -0.19614394 0.085128024 -0.0050999373 0.1515358
0.03035207 -0.050746113 -0.045754388 -0.050193876 0.08138497 -0.07455103 0.09759538 -0.072963044
0.1435617 -0.05146441 0.11825727 0.0384084 -0.13154049 -0.074595846 -0.03652544 -0.05183031
-0.03949297 0.11130178 0.061071392 0.04870068 0.0496834 -0.13979074 -0.0938788 -0.18732664
-0.010263476 0.18901056 0.0925963 -0.19434774 0.14603926 0.15005866 0.185286 -0.067511246
-0.00037504834 -0.16132829 -0.15155461 0.17878568 -0.11941945 -0.09006889 -0.052377913 -0.020834666
-0.17111379 -0.058389477 -0.06987985 0.15316303 -0.015555424 -0.17378075 -0.012613862 0.16325448
1.2868412 0.5440884 0.3918932 0.43306574 -0.033858974 -0.1271079 -0.0017854309 -0.099652596
-0.10265354 0.05182383 0.099681914 -0.004918006 0.029853854 0.13123623 -0.13681342 -0.027796136
-0.40114665 -0.12643954 -0.39064547 0.13224183 -0.31287074 -0.06080687 -0.44601437 -0.33193544
-0.06463684 -0.73372185 -0.28325295 0.0339954 -0.4645322 0.1454135 0.08535892 -0.19471186
0.12967817 -0.044038787 -0.046873186 -0.2630461 -0.2588001 -0.14638716 0.044721317 0.16914473
-0.24525672 -0.11011134 0.0972055 -0.037051793 0.061489854 0.2949732 0.10617843 -0.13432936
0.5482124 -0.111751325 0.71195656 -0.17203175 -0.05860393 0.25851494 0.10373388 0.32598427
-0.23362727 -0.2015175 0.11929942 -0.09506101 0.13209479 -0.10256658 -0.24952623 -0.14390266
0.08867898 -0.20745447 0.34521723 -0.16516313 0.114352755 -0.011900737 0.40845037 0.3375881
0.0045023574 0.023018451 -0.16250516 0.39477903 0.31358495 0.32041237 0.16101919 0.09012858
0.059994042 0.059130885 0.0033085463 -0.30451614 -0.10570297 0.02163749 0.066122055 -0.02789384
0.16535555 -0.010249015 -0.012529921 -0.021701291 -0.117988914 0.174657 -0.050923336 -0.14556408
0.024058713 0.018833157 -0.14463371 -0.18370754 0.105871804 0.18178372 -0.04747174 0.12774198
0.11739305 -0.21120788 0.010947059 0.029731387 -0.018441373 -0.13185482 0.026265025 0.09934016
0.060985982 -0.015577201 -0.09783246 0.060125258 -0.20085415 -0.26536107 0.21369079 0.0043922835
00000000: fc8e 103d 67f3 623d 64f3 00be 960f a1bd
00000010: 3a27 2cbe 3aee 00be 8b74 c6be d326 713e
00000020: c5f4 fa3e d409 a33d ea71 31bd 69d2 61bf
00000030: a78c b6bd 08d6 e1be f677 413e 41ed 2b3d
00000040: e1db d53d 742d c1be 34b5 8c3e 4e7e 3b3e
00000050: f347 d13d 7bc6 bdbb 5d5f 8a3e e95b c9be
00000060: acb5 0e3e 021b 6abe 70fb b53d 771a 583e
00000070: 6528 47be 00ea 01be 0957 a43b 9e81 23be
00000080: c5da b63e 4d80 88be e0b0 2d3e aff7 3bbe
00000090: 86e9 94bb 11e0 e53e 8842 0e3e 423e 163f
000000a0: 4090 acbd 51fa f83e 6ff0 d4bd 7d60 aa3e
000000b0: 0f48 bb3e 0dae 3b3d dc0e 5ebe 4f54 403e
000000c0: 8b4a 143e 1583 0c3d 6740 2fbe 6a29 4dbe
000000d0: 23a6 163e c25c 0a3d d92b c63e a196 dd3d
000000e0: 9b43 963e 08e1 a0be fb00 d63e b7d0 3dbd
000000f0: 9c20 43be c264 123d 8d05 e53e 1d99 c9be
00000100: 9634 b8be f00f 32be cd76 c33d 83d9 1ebe
00000110: 952a 8a3e 7d03 83bd b03e 943b 553f 0e3e
00000120: 08d0 35be bd46 2a3b 2f62 fc3c 3d0e c0bd
00000130: 33bf b1bd b9ff 273e 08f8 3bbe 3bb9 2c3e
00000140: ec4b 383d 9325 0ebe 8276 d13d b038 bcbc
00000150: f5d9 48be 9a57 ae3d 601d a7bb 332c 1b3e
00000160: e8a4 f83c 28db 4fbd f468 3bbd 1898 4dbd
00000170: 2aad a63d 36ae 98bd 16e0 c73d a66d 95bd
00000180: d701 133e 58cc 52bd de30 f23d 2052 1d3d
00000190: 8db2 06be b5c5 98bd b39b 15bd 054c 54bd
000001a0: 61c3 21bd 30f2 e33d ff25 7a3d 5d7a 473d
000001b0: d280 4b3d 4e25 0fbe 8743 c0bd 8ed2 3fbe
000001c0: 2328 28bc fc8b 413e 21a3 bd3d 1803 47be
000001d0: 518b 153e faa8 193e 9dbb 3d3e 5643 8abd
000001e0: 23a2 c4b9 3e33 25be 2231 1bbe 9813 373e
000001f0: 2f92 f4bd 0a76 b8bd 398a 56bd 76ad aabc
00000200: 7438 2fbe ce29 6fbd 2b1d 8fbd c5d6 1c3e
00000210: 2ddc 7ebc 95f3 31be 5faa 4ebc 2f2c 273e
00000220: 36b7 a43f 6149 0b3f 3aa6 c83e cbba dd3e
00000230: b5af 0abd 9328 02be 1f05 eaba a916 ccbd
00000240: 053c d2bd 3945 543d 0826 cc3d 3927 a1bb
00000250: 1290 f43c ca62 063e d118 0cbe b9b4 e3bc
00000260: 1863 cdbe 5e79 01be af02 c8be 676a 073e
00000270: 9830 a0be a010 79bd ff5b e4be 71f3 a9be
00000280: 5260 84bd 32d5 3bbf 8806 91be c33e 0b3d
00000290: 2ad7 edbe 47e7 143e a8d0 ae3d 8c62 47be
000002a0: 5bca 043e 0462 34bd 19fe 3fbd faad 86be
000002b0: 7281 84be 84e6 15be b32d 373d 4734 2d3e
000002c0: 9424 7bbe 0e82 e1bd ad13 c73d 9fc3 17bd
000002d0: c9dc 7b3d ba06 973e 1474 d93d a38d 09be
000002e0: a657 0c3f e1dd e4bd c942 363f 1729 30be
000002f0: ad0a 70bd 125c 843e 6e72 d43d 69e7 a63e
00000300: fd3b 6fbe 9b5a 4ebe 4153 f43d 59af c2bd
00000310: db43 073e 6d0e d2bd ce83 7fbe 385b 13be
00000320: 539d b53d f26e 54be 50c0 b03e 8620 29be
00000330: c731 ea3d 4ffb 42bc 6820 d13e 59d8 ac3e
00000340: 8388 933b 3191 bc3c c167 26be 7a20 ca3e
00000350: 358e a03e 170d a43e 37e2 243e 5595 b83d
00000360: 50bc 753d 3a33 723d 32d4 583b 8ae9 9bbe
00000370: cc7a d8bd 1b41 b13c 006b 873d 9f81 e4bc
00000380: f752 293e 7ceb 27bc 4c4a 4dbc e8c6 b1bc
00000390: 2ca4 f1bd 49d9 323e fd94 50bd c00e 15be
000003a0: c716 c53c fe47 9a3c dc1a 14be d41d 3cbe
000003b0: 51d3 d83d 8325 3a3e ba71 42bd cbce 023e
000003c0: c46b f03d e146 58be 4b5b 333c 3d8f f33c
000003d0: 5d12 97bc f304 07be c029 d73c db72 cb3d
000003e0: 70cc 793d 8437 7fbc 635c c8bd e745 763d
000003f0: b6ac 4dbe 68dd 87be c2d1 5a3e 25ed 8f3b
