test_model_pth/discrete/test_cartpole_dqn_cpu.pth (torch, 825960 bytes, 40 tensors)

weight f4 [128, 4]
0.27312914 0.20213443 -0.48308268 -0.102419496 0.09459557 -0.3479887 0.21416813 -0.2247403
-0.26088887 -0.4332629 0.8256486 -0.040977962 0.03837331 -0.024910076 -0.6547918 -0.18417896
-0.25960115 0.1273661 -0.67463857 -0.32564676 -0.26480448 -0.038219005 -0.27329454 0.20877251
-0.5334073 -0.28842974 0.57186407 -0.40254256 0.39944497 0.3393508 0.47614214 -0.05079575
0.019672945 0.21974847 -0.09668916 0.22245057 0.43226954 -0.36759007 1.0449141 -0.044189557
0.057514735 -0.17163335 -0.3845585 0.1530891 0.6562483 -0.21961688 -0.6129178 -0.4764193
-0.43256465 -0.25698346 0.0073323743 0.28675508 -0.013276349 -0.1570794 -1.0122806 -0.4118881
0.13725331 -0.45633098 -0.2704021 -0.25231844 0.4514048 -0.055476364 -0.45682874 0.05106643
-0.24604176 0.16756946 -0.14881644 0.17783569 0.09926321 0.38115808 0.40720767 0.047268357
0.1679661 0.06377391 0.8929267 0.22541809 -0.5883953 -0.3802837 0.40387103 -0.22866653
-0.41158226 0.49099684 0.32188183 0.443782 0.056479715 -0.3922101 -0.85286635 -0.15242998
-0.068502866 -0.17319115 0.6019426 0.32918638 -0.3281246 -0.07085866 0.43685025 0.006570708
-0.33848882 -0.112071775 -0.36337498 0.031688757 -0.198259 -0.14836346 0.23422974 0.4156609
0.09667888 -0.41413724 0.0006295868 -0.12934282 -0.57070345 -0.17061788 0.14704676 -0.09412226
0.284034 0.3750069 0.4323589 -0.01580579 -0.2972242 0.17513607 0.89867073 0.13411042
-0.43140155 -0.04322578 0.64535886 0.056082282 0.53443646 0.02384997 -0.54052365 -0.052108392
-0.24303798 0.193466 0.44454333 0.2539815 0.42467606 -0.3592261 0.663511 -0.14404708
0.18796654 0.18546808 -0.1015603 -0.23222077 -0.004324805 0.24463809 0.4478786 0.014599735
0.50588477 -0.34415635 -0.4267381 -0.264313 -0.17940994 -0.5087124 -0.16405834 -0.44433284
-0.37311423 0.48359358 0.228869 0.3999907 -0.27839345 -0.28846264 0.28425595 0.006097877
-0.06988686 0.09535703 0.0065876665 -0.47680762 0.29551566 0.32984945 0.052351754 -0.19020297
-0.15778013 -0.1728303 0.15861838 -0.106620654 -0.14608562 -0.47418368 -0.23477747 -0.36783722
-0.2215172 -0.017055197 -0.27525854 -0.16196945 -0.19426219 -0.19392538 -0.20021291 0.3061572
0.032332134 -0.2949762 -0.85865664 -0.4663687 -0.015023977 0.39740297 0.34435868 -0.058492593
-0.33730978 -0.027307665 0.7497208 0.09216404 0.519258 0.044531655 0.0046130847 -0.14712441
0.38560715 -0.53247124 -0.40518188 -0.06975342 -0.5964548 0.2564964 0.04227242 0.30635184
0.32007048 -0.33209303 0.55433774 -0.32645655 -0.48246393 -0.036299925 0.232756 0.009120828
-0.102991566 0.1970375 0.1928709 0.3061487 -0.28364155 0.08363155 0.35746387 0.2641256
-0.22689582 -0.259757 -0.043722928 -0.071995795 -0.0231458 -0.27249235 -0.037183426 0.0032135956
-0.19002643 0.16415702 -0.03236804 0.033370875 0.40754175 0.021009862 -0.651507 0.29164276
0.061584834 -0.2736128 -0.5703966 0.08790492 0.08307308 0.44823194 0.5748783 0.46461916
0.58572817 0.3059592 -0.88586044 0.08696006 0.08582524 -0.16783392 0.6813349 0.17786722
00000000: 95d7 8b3e 54fc 4e3e 9d56 f7be 50c1 d1bd
00000010: 52bb c13d 932b b2be e44e 5b3e 5222 66be
00000020: 3a93 85be a3d4 ddbe b55d 533f 82d8 27bd
00000030: 552d 1d3d 3710 ccbc 6fa0 27bf 6999 3cbe
00000040: 71ea 84be 426c 023e 1db5 2cbf 2cbb a6be
00000050: 7494 87be 888b 1cbd 43ed 8bbe 76c8 553e
00000060: 618d 08bf 10ad 93be af65 123f 0f1a cebe
00000070: 0d84 cc3e 63bf ad3e e7c8 f33e 340f 50bd
00000080: 2829 a13c be05 613e f704 c6bd 15ca 633e
00000090: 6f52 dd3e c434 bcbe bfbf 853f 1c00 35bd
000000a0: 9294 6b3d a7c0 2fbe dae4 c4be 64c3 1c3e
000000b0: e3ff 273f 3fe3 60be 2ee8 1cbf 3bed f3be
000000c0: 1d79 ddbe 5693 83be 6a44 f03b 90d1 923e
000000d0: 0b85 59bc 6cd9 20be 6992 81bf ffe2 d2be
000000e0: 228c 0c3e 37a4 e9be 2572 8abe e22f 81be
000000f0: 881e e73e 2f3b 63bd 75e5 e9be 082b 513d
00000100: 5ff2 7bbe 5497 2b3e 5663 18be 8f1a 363e
00000110: 834a cb3d 2727 c33e 867d d03e 779c 413d
00000120: 4eff 2b3e e59b 823d d896 643f 00d4 663e
00000130: 13a1 16bf 8cb4 c2be 2fc8 ce3e 8f27 6abe
00000140: e9ba d2be f063 fb3e b2cd a43e 6537 e33e
00000150: 4657 673d c3cf c8be 7355 5abf 9b16 1cbe
00000160: 3b4b 8cbd 0559 31be e918 1a3f 1e8b a83e
00000170: f3ff a7be 581e 91bd d6aa df3e 184f d73b
00000180: 684e adbe e385 e5bd 490c babe 12cc 013d
00000190: 6804 4bbe 97ec 17be ecd9 6f3e 81d1 d43e
000001a0: 94ff c53d cc09 d4be db0a 253a 7272 04be
000001b0: 9f19 12bf 74b6 2ebe 6d93 163e 2cc3 c0bd
000001c0: e86c 913e e800 c03e 255e dd3e 257b 81bc
000001d0: c52d 98be df56 333e 490f 663f 3e54 093e
000001e0: aae0 dcbe 840d 31bd 3d36 253f 89b6 653d
000001f0: d4d0 083f 0361 c33c c25f 0abf 9c6f 55bd
00000200: f3de 78be f31b 463e 2f9b e33e dd09 823e
00000210: 246f d93e 7cec b7be dbdb 293f 1481 13be
00000220: 4d7a 403e 58eb 3d3e d9fe cfbd 48cb 6dbe
00000230: 18b7 8dbb 6882 7a3e 5850 e53e ba33 6f3c
00000240: aa81 013f 4335 b0be 6b7d dabe 0954 87be
00000250: 3db7 37be fa3a 02bf e9fe 27be 987f e3be
00000260: d408 bfbe 9499 f73e a35c 6a3e 95cb cc3e
00000270: 9689 8ebe 60b1 93be ff89 913e b3d0 c73b
00000280: d820 8fbd 8c4a c33d 5add d73b 2120 f4be
00000290: d44d 973e 07e2 a83e cb6e 563d 91c4 42be
000002a0: 1d91 21be 6dfa 30be db6c 223e ee5b dabd
000002b0: 7897 15be 34c8 f2be 8169 70be 2955 bcbe
000002c0: 68d5 62be 57b7 8bbc b0ee 8cbe 52db 25be
000002d0: abec 46be 6094 46be 9d04 4dbe a3c0 9c3e
000002e0: b36e 043d 1f07 97be ecd0 5bbf e1c7 eebe
000002f0: 2027 76bc 6778 cb3e c84f b03e ee95 6fbd
00000300: deb3 acbe 53b4 dfbc b4ed 3f3f 80c0 bc3d
00000310: 18ee 043f d366 363d 5c29 973b c8a7 16be
00000320: 4d6e c53e 0950 08bf 0074 cfbe e2da 8ebd
00000330: 43b1 18bf 7f53 833e d825 2d3d 26da 9c3e
00000340: 47e0 a33e 1908 aabe 14e9 0d3f 5025 a7be
00000350: 8305 f7be 3baf 14bd 9757 6e3e 866f 153c
00000360: 3eed d2bd 33c4 493e f37f 453e 86bf 9c3e
00000370: 7739 91be 0547 ab3d 8105 b73e 783b 873e
00000380: 6157 68be dffe 84be d016 33bd 8872 93bd
00000390: 439c bdbc 1e84 8bbe a64d 18bd 309b 523b
000003a0: 4a96 42be c718 283e 5a94 04bd e6af 083d
000003b0: 50a9 d03e e01c ac3c 2ac9 26bf 3352 953e
000003c0: 6140 7c3d fa16 8cbe 8305 12bf 7f07 b43d
000003d0: 3822 aa3d a87e e53e 392b 133f 90e2 ed3e
000003e0: 48f2 153f afa6 9c3e c0c7 62bf 1e18 b23d
000003f0: 25c5 af3d a8dc 2bbe f76b 2e3f d322 363e

bias f4 [128]
-0.6685615 0.47288185 -0.4464052 0.29248872 -0.16207172 -0.4823276 0.002449808 -0.5728196
0.4388152 -0.15316285 -0.35860795 -0.36967823 -0.55869657 -0.21293072 0.4660238 -0.08119521
-0.42357242 -0.0195615 -0.20355375 0.3549094 0.5008623 0.12370149 -0.27853534 -0.52024627
0.079761304 -0.2482707 0.4152801 0.4193457 0.035051186 -0.1692068 -0.087840594 -0.35632804
0.15632516 0.30653977 0.25886923 0.3422496 0.32347113 0.29358515 -0.27250353 -0.39316735
-0.20727429 0.13736176 -0.44699076 -0.47124368 -0.44598317 -0.26469898 -0.34923592 0.065081745
0.15424791 -0.24951813 -0.21832854 0.060522933 0.071774796 0.20971353 0.54484487 0.006487112
0.02753599 -0.38497344 0.49752548 0.46158102 0.30856538 0.5175653 -0.25022626 -0.01847342
-0.23102029 0.37252894 0.349024 -0.0772908 0.17920856 -0.063111804 0.5080457 0.18731332
0.45744127 0.122264884 -0.021874333 -0.29360637 0.05137383 0.4126063 -0.265104 0.23368554
0.009271558 -0.28054428 0.17863049 0.079759516 -0.15973993 0.1851002 -0.04294672 0.048395813
0.14963649 -0.12158103 -0.250809 -0.09250856 0.4149376 0.36455593 0.10214868 0.28916863
0.2456083 -0.47383514 -0.33827162 0.2815092 0.34157962 -0.6359699 0.1872136 -0.066271864
-0.24856126 0.38237703 -0.08225066 0.040280625 0.46253225 -0.3898343 0.075701386 -0.3346683
0.37416592 -0.3063573 0.13294311 -0.32465735 -0.025051247 0.18208562 0.49580288 -0.48685104
-0.038016215 -0.18437175 0.3706158 0.45003188 0.03705493 -0.04223448 -0.3492961 -0.46406305
00000000: d926 2bbf 921d f23e 398f e4be 15c1 953e
00000010: 21f6 25be a5f3 f6be f58c 203b 4ea4 12bf
00000020: 63ac e03e b9d6 1cbe 769b b7be 7746 bdbe
00000030: bd06 0fbf 830a 5abe ac9a ee3e ad49 a6bd
00000040: 7cde d8be 703f a0bc 6570 50be afb6 b53e
00000050: 8338 003f 3557 fd3d 2f9c 8ebe dc2e 05bf
00000060: e559 a33d ad3a 7ebe 989f d43e 7bb4 d63e
00000070: d591 0f3d 8c44 2dbe c5e5 b3bd a170 b6be
00000080: b413 203e c8f2 9c3e 828a 843e 573b af3e
00000090: 029e a53e cb50 963e 9585 8bbe 3b4d c9be
000000a0: b63f 54be 90a8 0c3e f9db e4be da46 f1be
000000b0: e857 e4be a086 87be 0dcf b2be 9449 853d
000000c0: 2af3 1d3e ae81 7fbe 8491 5fbe e5e6 773d
000000d0: aafe 923d 25bf 563e f47a 0b3f d791 d43b
000000e0: 2893 e13c 3d1b c5be a9bb fe3e 5954 ec3e
000000f0: 48fc 9d3e 297f 043f a81d 80be 9255 97bc
00000100: 9590 6cbe 1dbc be3e 46b3 b23e a44a 9ebd
00000110: 7382 373e c340 81bd 480f 023f 10cf 3f3e
00000120: be35 ea3e 0366 fa3d cd31 b3bc 9353 96be
00000130: 5d6d 523d 2241 d33e b6bb 87be 434b 6f3e
00000140: bce7 173c 80a3 8fbe e9ea 363e f558 a33d
00000150: dd92 23be e88a 3d3e e6e8 2fbd b03a 463d
00000160: 4f3a 193e 7aff f8bd 0a6a 80be 2175 bdbd
00000170: b372 d43e 13a7 ba3e 5433 d13d e90d 943e
00000180: be80 7b3e 859a f2be f031 adbe f921 903e
00000190: 86e3 ae3e ecce 22bf ecb4 3f3e 8bb9 87bd
000001a0: d886 7ebe ecc6 c33e 0973 a8bd 4cfd 243d
000001b0: 07d1 ec3e 5d98 c7be 5409 9b3d a559 abbe
000001c0: ad92 bf3e ddda 9cbe 3d22 083e 7d39 a6be
000001d0: 4638 cdbc a774 3a3e e0d9 fd3e 8a44 f9be
000001e0: e4b6 1bbd f3cb 3cbe 5bc1 bd3e 946a e63e
000001f0: e9c6 173d 10fe 2cbd f0d6 b2be ac99 edbe

weight f4 [128, 128]
-0.19003046 0.07962921 -0.2461111 0.033114064 -0.16551778 -0.13635924 -0.0525782 -0.06748941
0.11463049 -0.07611851 -0.065403394 -0.015986716 -0.04903749 -0.3093373 -0.056954596 0.034632802
0.06532054 0.101608746 -0.3714716 -0.031361908 0.06225758 -0.009640275 -0.11369805 0.0147825265
0.040451415 -0.0767812 0.089514755 0.019326758 0.07581612 -0.39768386 -0.031977013 -0.07697881
-0.055755418 0.04308465 -0.021799007 -0.06028109 -0.0143812625 -0.09536094 -0.019265957 -0.09286639
-0.09306801 0.06618152 0.040858276 -0.1364817 0.03859408 0.08242154 -0.2513792 -0.024795432
0.038030397 -0.003728028 0.049565535 0.0091526 -0.07122576 -0.057366405 0.1272061 -0.068372585
0.05581059 -0.120620914 0.009944567 0.10796326 0.003447056 0.12698297 -0.040178094 -0.092362024
0.03953539 -0.070664 0.0034020904 -0.16124476 -0.024956204 -0.08535939 0.0024311177 -0.035696372
-0.01196547 -0.14468676 -0.2551438 -0.08460665 -0.041622106 -0.05768836 -0.18311451 -0.078817666
-0.113946095 -0.28393996 0.057748836 0.06618305 -0.01932397 0.015590707 0.11845239 -0.04676736
0.0017480861 -0.016147647 0.044438697 -0.27269107 -0.02128098 0.027545553 -0.022915669 0.057311174
-0.031200241 -0.06395602 0.09760793 -0.00078291266 0.00021691239 -0.39418736 0.06804345 -0.050690774
-0.013665371 -0.00044645875 -0.06387071 -0.053397585 0.07783069 -0.0040990105 0.0032494985 -0.23895697
-0.044728436 -0.019090034 -0.1307817 0.048458926 6.716267e-05 -0.09314859 0.05453717 -0.0053517
-0.19353929 -0.11495404 -0.022803819 0.08441593 0.07656129 -0.015599913 -0.11035168 0.02783402
-0.09745117 0.12162753 -0.13951543 0.0063067735 -0.052901424 -0.19957021 0.13281445 -0.09363618
0.051915057 -0.09450542 0.0064650853 -0.0019185191 -0.065190524 -0.031031791 0.02495221 0.07452647
-0.058380805 0.07245371 -0.24853276 -0.020471312 0.11824525 0.021900488 -0.07967514 -0.0781951
0.11579157 0.009164816 0.017655624 -0.019815644 0.042800605 -0.4520241 0.032892823 -0.06508551
0.021521147 0.07594745 -0.025995487 0.11378463 0.004438623 0.02030185 -0.072686285 0.029608112
0.07579059 -0.007790141 -0.0815069 -0.21945897 -0.024523603 0.049418293 -0.13807693 -0.021817802
0.029764177 -0.021161137 0.023231804 0.064873055 -0.035201058 0.09110057 0.052811857 0.032017834
-0.006922629 0.034394424 0.09320573 -0.02595703 -0.042154692 0.019041823 -0.11095438 -0.06833759
-0.042084835 0.074807025 0.0005423124 -0.02058765 0.008259472 0.07538387 0.056705397 0.08919803
-0.013035642 -0.05811018 -0.29599452 -0.13429359 -0.02150683 0.103479125 -0.089384295 -0.050871693
0.05094818 -0.177525 0.06673288 -0.040669035 -0.02211318 -0.031274013 0.06963641 -0.01485311
0.032088947 0.019990688 -0.019361263 -0.14117272 0.012973793 0.028884673 0.04213983 -0.03133948
0.05677879 -0.0037333046 -0.08760177 0.1193976 0.07511601 -0.3178342 0.014573287 -0.077867426
-0.046855517 0.09789046 -0.039761633 -0.06364419 -0.011674847 0.05581497 -0.057863183 -0.22050433
0.04688215 0.025816059 -0.10295541 -0.017143719 -0.08094059 -0.008594769 0.04280932 -0.07905452
-0.032607604 -0.038419176 0.033093736 0.028448861 -0.02209376 0.026034748 -0.018631449 0.03775906
00000000: 5897 42be a414 a33d 8c04 7cbe 9da2 073d
00000010: 7e7d 29be c2a1 0bbe 3d5c 57bd e337 8abd
00000020: 64c3 ea3d 05e4 9bbd 37f2 85bd 93f6 82bc
00000030: 89db 48bd 7561 9ebe 3949 69bd 20db 0d3d
00000040: c6c6 853d 3f18 d03d 8731 bebe 5875 00bd
00000050: ce01 7f3d 3ef2 1dbc 86da e8bd 6932 723c
00000060: 62b0 253d 763f 9dbd 8353 b73d 2653 9e3c
00000070: 7b45 9b3d 389d cbbe 54fa 02bd 11a7 9dbd
00000080: cb5f 64bd 8879 303d d593 b2bc 4ee9 76bd
00000090: 639f 6bbc 994c c3bd a4d3 9dbc bc30 bebd
000000a0: 719a bebd 2d8a 873d 025b 273d dcc1 0bbe
000000b0: d314 1e3d a0cc a83d c6b4 80be ca1f cbbc
000000c0: c3c5 1b3d ee51 74bb 3b05 4b3d c9f4 153c
000000d0: d0de 91bd 09f9 6abd 5142 023e ed06 8cbd
000000e0: a599 643d 1908 f7bd 8aee 223c d71b dd3d
000000f0: 01e8 613b d307 023e c991 24bd 4d28 bdbd
00000100: dcef 213d 4ab8 90bd 9bf5 5e3b 591d 25be
00000110: f470 ccbc e7d0 aebd 6353 1f3b 5c36 12bd
00000120: d20a 44bc c428 14be 35a2 82be 4046 adbd
00000130: f17b 2abd a14a 6cbd 5f82 3bbe 286b a1bd
00000140: 925c e9bd 9460 91be 0b8a 6c3d fb8a 873d
00000150: 4d4d 9ebc 2a70 7f3c 2b97 f23d 228f 3fbd
00000160: 0920 e53a 1248 84bc 5a05 363d 2a9e 8bbe
00000170: 7355 aebc 36a7 e13c a4b9 bbbc 1fbf 6a3d
00000180: a697 ffbc 60fb 82bd abe6 c73d 613c 4dba
00000190: fa72 6339 edd2 c9be 5d5a 8b3d 21a1 4fbd
000001a0: b8e4 5fbc ae12 eab9 a6ce 82bd 6db7 5abd
000001b0: b265 9f3d fe50 86bb 8af5 543b 23b1 74be
000001c0: 2a35 37bd b462 9cbc a3eb 05be de7c 463d
000001d0: afd9 8c38 b0c4 bebd 5e62 5f3d 505d afbb
000001e0: 2a2f 46be 066d ebbd 13cf babc 42e2 ac3d
000001f0: 2acc 9c3d c796 7fbc 1000 e2bd 2c04 e43c
00000200: 7b94 c7bd db17 f93d 22dd 0ebe 0da9 ce3b
00000210: 2aaf 58bd 225c 4cbe 8300 083e 53c4 bfbd
00000220: e2a4 543d 0f8c c1bd 11d9 d33b d276 fbba
00000230: 9c82 85bd 6236 febc 9468 cc3c 55a1 983d
00000240: b620 6fbd 9c62 943d 5f7f 7ebe 74b3 a7bc
00000250: 912a f23d a768 b33c b82c a3bd c124 a0bd
00000260: 2124 ed3d 0628 163c 87a2 903c 6b54 a2bc
00000270: b04f 2f3d b46f e7be a0ba 063d 8d4b 85bd
00000280: 1e4d b03c 568a 9b3d 7df4 d4bc eb07 e93d
00000290: de71 913b 1150 a63c 8cdc 94bd b68c f23c
000002a0: 1938 9b3d 7044 ffbb 17ed a6bd dab9 60be
000002b0: b9e5 c8bc d66a 4a3d 0a64 0dbe 3fbb b2bc
000002c0: 01d4 f33c 1f5a adbc a050 be3c 2adc 843d
000002d0: fc2e 10bd f092 ba3d 3f51 583d 2225 033d
000002e0: 39d7 e2bb 2be1 0c3d a5e2 be3d d6a3 d4bc
000002f0: 66aa 2cbd 99fd 9b3c 0d3c e3bd 94f4 8bbd
00000300: 2661 2cbd 6d34 993d f829 0e3a 6ea7 a8bc
00000310: bd52 073c dc62 9a3d eb43 683d 75ad b63d
00000320: 7293 55bc f104 6ebd 988c 97be 4284 09be
00000330: 172f b0bc ddec d33d 1d0f b7bd d65e 50bd
00000340: 0aaf 503d 1dc9 35be 40ab 883d 9394 26bd
00000350: b326 b5bc 2e19 00bd 899d 8e3d 755a 73bc
00000360: b36f 033d 83c3 a33c 839b 9ebc 958f 10be
00000370: 0890 543c 8d9f ec3c d09a 2c3d d45d 00bd
00000380: e090 683d 75aa 74bb 8f68 b3bd bb86 f43d
00000390: 6cd6 993d 2abb a2be ccc4 6e3c f578 9fbd
000003a0: 92eb 3fbd cb7a c83d 18dd 22bd e357 82bd
000003b0: dc47 3fbc 3d9e 643d f201 6dbd e3cb 61be
000003c0: 7f07 403d 337c d33c 49da d2bd fc70 8cbc
000003d0: 2ec4 a5bd 13d1 0cbc d358 2f3d 56e7 a1bd
000003e0: 8d8f 05bd 6d5d 1dbd 4c8d 073d 960d e93c
000003f0: f9fd b4bc d346 d53c fba0 98bc 3ea9 1a3d

bias f4 [128]
0.0830308 0.044833418 -0.031624652 0.122806124 -0.028092833 -0.02362875 0.03440416 -0.012206074
0.024605762 0.046443325 0.07425057 0.085510336 0.0060326024 0.0830137 0.08381663 -0.038774163
-0.0861148 -0.030205913 -0.024211852 0.10103645 0.05722108 -0.039295215 -0.02937452 0.009906093
-0.044101223 0.04629861 -0.03731606 0.09554509 0.05719965 0.090586305 -0.08354321 0.06909752
-0.06263911 -0.0061755152 0.006500536 -0.020582307 0.046114773 0.1051817 -0.08481124 -0.03860583
-0.044890188 0.08895344 -0.046264034 0.018589696 -0.116508976 0.014704063 -0.043294813 -0.04901789
-0.02140404 -0.06803143 -0.099030815 0.0021552125 -0.0730426 -0.0033521287 -0.11989785 0.13632551
0.010974795 0.12967901 0.0037363786 -0.049673453 0.09197504 0.03859082 -0.03538065 0.07419335
-0.092220955 0.08173576 0.06354699 0.05356359 -0.016957179 0.022546455 0.058431793 0.010037005
0.068050906 -0.08561989 -0.07204191 0.06371493 -0.01801021 0.064990945 0.052224856 0.051324654
0.016420498 0.11775723 0.03597048 0.0009271508 -0.014378297 -0.07126143 -0.0064937244 0.050834335
-0.078877315 0.036591426 -0.048991654 -0.044811234 -0.035518724 0.08625234 -0.05620673 -0.011077396
0.09027346 0.058898482 0.008492881 0.07604098 0.060296316 -0.022380412 0.105742976 -0.035112135
-0.0053665633 0.021027606 -0.0601434 0.10809783 0.09365292 -0.0032611864 0.07121397 0.02589169
0.0101299845 -0.019630197 -0.0022289571 -0.06339469 0.1036779 -0.10914907 -0.003418437 0.015395459
0.0029832711 -0.09076761 -0.075291455 -0.0420405 -0.03299196 0.08016901 0.1267862 0.08715317
00000000: 0d0c aa3d 3fa3 373d da88 01bd c781 fb3d
00000010: f122 e6bc 1591 c1bc 60eb 0c3d fcfb 47bc
00000020: 0692 c93c 5b3b 3e3d af10 983d 0b20 af3d
00000030: 23ad c53b 1603 aa3d 0ea8 ab3d a8d1 1ebd
00000040: f55c b0bd 6472 f7bc ef57 c6bc 33ec ce3d
00000050: a760 6a3d 05f4 20bd d5a2 f0bc 2a4d 223c
00000060: 7ca3 34bd 9ca3 3d3d bad8 18bd 25ad c33d
00000070: 2e4a 6a3d 5085 b93d b418 abbd 0083 8d3d
00000080: ef48 80bd fa5b cabb 7302 d53b 3a9c a8bc
00000090: d8e2 3c3d 8169 d73d 84b1 adbd 2621 1ebd
000000a0: c6de 37bd 392d b63d 5b7f 3dbd 6b49 983c
000000b0: 429c eebd 4fe9 703c e755 31bd fcc6 48bd
000000c0: 8657 afbc 1054 8bbd abd0 cabd 773e 0d3b
000000d0: 5c97 95bd 63af 5bbb 018d f5bd ea98 0b3e
000000e0: a0cf 333c 93ca 043e 08de 743b 6476 4bbd
000000f0: 695d bc3d 6811 1e3d 4deb 10bd aff2 973d
00000100: 57de bcbd 1465 a73d ed24 823d 7f65 5b3d
00000110: c8e9 8abc 58b3 b83c 2d56 6f3d 4072 243c
00000120: 465e 8b3d 7b59 afbd b58a 93bd f97c 823d
00000130: 268a 93bc f919 853d bbe9 553d cd39 523d
00000140: 4884 863c b42a f13d c855 133d 090c 733a
00000150: f392 6bbc 83f1 91bd 4fc9 d4bb aa37 503d
00000160: 6e8a a1bd e4e0 153d 79ab 48bd fc8b 37bd
00000170: 157c 11bd 11a5 b03d 0739 66bd f77d 35bc
00000180: 4be1 b83d 893f 713d ba25 0b3c 60bb 9b3d
00000190: 45f9 763d 2057 b7bc c68f d83d bed1 0fbd
000001a0: ffd9 afbb 1642 ac3c ed58 76bd 6562 dd3d
000001b0: 1acd bf3d a1b9 55bb a1d8 913d cf1a d43c
000001c0: 3cf8 253c 82cf a0bc b213 12bb 13d5 81bd
000001d0: 1455 d43d 8c89 dfbd db07 60bb 3c3d 7c3c
000001e0: fc82 433b 5ee4 b9bd 6832 9abd a932 2cbd
000001f0: 9422 07bd a62f a43d 3ed4 013e 5c7d b23d

weight f4 [128, 128]
-0.0112504475 -0.12109698 -0.020419024 0.009731865 0.020979956 -0.07751625 0.01970143 -0.09395118
-0.055174563 -0.029678553 0.01858823 -0.102982186 -0.12050733 0.026764076 -0.07641338 0.088949844
-0.029842319 -0.031152787 -0.12823933 -0.009900558 0.049358662 0.045104206 0.058665343 0.046144765
0.0030595586 0.032097954 0.025402486 0.10712451 0.02815628 -0.056734443 -0.073635444 -0.080065586
-0.066649884 0.06256922 -0.05578918 -0.059834726 0.036787838 -0.09020912 0.10074012 0.078393556
0.051695816 -0.048541155 0.031841423 0.021891575 0.17425397 -0.03930047 0.061086707 -6.4294654e-05
-0.020640673 -0.09031158 0.07775544 0.053449236 -0.038893916 0.05953962 0.20144515 0.002742594
0.15114747 0.12073624 -0.0014289046 -0.07928684 0.0052638724 -0.026137704 -0.05017276 -0.010944221
-0.028514901 0.025812574 0.0365757 0.028093593 -0.09539835 0.010273501 0.019065438 -0.03249129
-0.039671037 0.009235807 -0.103169106 0.039345242 0.08672919 0.06345163 -0.034827035 -0.08841031
0.0365422 -0.0497561 -0.03840975 0.029182162 0.061708033 0.05709379 0.015631178 0.077561535
0.074286334 -0.102028124 -0.017993795 -0.10527657 -0.07458474 0.025373885 0.22342803 0.06952811
-0.10673986 -0.07629548 -0.0933768 0.0036763588 0.011226674 -0.031457115 -0.010215424 0.16152126
0.008971892 0.09715111 0.092383705 -0.111176245 0.024134472 0.05995739 0.06547795 0.008963132
-0.124224484 0.060668997 -0.020861559 0.053872764 0.06298786 -0.022536831 -0.032415897 -0.09794007
0.0087578595 0.03422931 0.047327615 -0.07134101 0.0823717 -0.01726969 0.03772685 0.09437288
0.030497495 -0.054134466 -0.051622715 0.05860546 0.034527034 0.012300506 0.036339045 -0.065570526
0.08016991 -0.0017949053 0.063566834 -0.00047264554 -0.057404175 -0.060975857 -0.05587169 -0.028258905
0.022902811 -0.059902146 -0.06349518 0.026343824 0.030927936 -0.09140019 -0.038760863 0.061535828
-0.037836943 -0.10023443 0.015569158 -0.08758998 0.035186052 -0.014412463 0.047785945 -0.0614687
-0.011727773 0.08208712 0.04311154 0.009525493 0.052653227 0.040095944 -0.084914066 -0.029207248
0.054994963 -0.006855134 -0.09235624 0.011747113 0.07021483 0.019350303 -0.03413978 -0.007875194
-0.08273616 0.06387902 0.032453462 -0.061793983 0.019979494 -0.05947049 -0.073629685 0.026714975
-0.10058826 0.027374845 -0.052013673 -0.02850305 -0.01994817 -0.039054714 -0.0029980615 -0.088011414
-0.013339259 -0.051606778 0.045202084 -0.08681382 0.056912757 -0.019375823 0.04964624 0.03638857
-0.0695042 -0.057755113 -0.00047493842 0.0439331 0.052191205 -0.021752365 0.067429595 0.03290288
0.02434291 -0.025242526 -0.061197206 -0.057108566 -0.07102105 -0.0114519 0.035243645 -0.042336095
0.059607297 -0.06711612 -0.06039887 0.04483065 -0.052293215 0.00681476 -0.04958018 -0.07236355
-0.013449551 -0.107771344 0.038862687 -0.07506353 -0.05963278 0.043176807 -0.01367244 0.039356112
0.004735388 -0.021937873 -0.04080393 0.037307322 -0.091409326 0.03173083 -0.01946906 0.013734676
-0.08885559 -0.046887726 -0.05242166 -0.034044705 0.018242622 0.051305033 -0.082031496 0.030339437
-0.044087287 0.030289276 0.019892871 0.07645296 0.015184324 -0.044450246 -0.066822566 0.044123147
00000000: cc53 38bc b201 f8bd cc45 a7bc 6672 1f3c
00000010: 28de ab3c d7c0 9ebd e564 a13c 7a69 c0bd
00000020: b9fe 61bd 7020 f3bc 5846 983c 53e8 d2bd
00000030: 8ccc f6bd 5640 db3c 9e7e 9cbd 562b b63d
00000040: e177 f4bc 2134 ffbc 2c51 03be f335 22bc
00000050: 4f2c 4a3d 30bf 383d 124b 703d 4b02 3d3d
00000060: e082 483b 2579 033d e018 d03c 1864 db3d
00000070: 00a8 e63c 6062 68bd 2ece 96bd 6df9 a3bd
00000080: bc7f 88bd 4b24 803d 3283 64bd 4215 75bd
00000090: d8ae 163d 8fbf b8bd d650 ce3d cd8c a03d
000000a0: febe 533d 17d3 46bd 276c 023d f655 b33c
000000b0: a26f 323e 88f9 20bd 0e36 7a3d eed5 86b8
000000c0: a116 a9bc 47f5 b8bd 3e3e 9f3d 96ed 5a3d
000000d0: 3a4f 1fbd d1df 733d a347 4e3e 18bd 333b
000000e0: 67c6 1a3e 9044 f73d 154a bbba 2461 a2bd
000000f0: 907c ac3b bd1e d6bc f481 4dbd 644f 33bc
00000100: 1598 e9bc e474 d33c 67d0 153d 8924 e63c
00000110: 3660 c3bd 3052 283c 1f2f 9c3c 9615 05bd
00000120: 197e 22bd c851 173c 534a d3bd 7a28 213d
00000130: 139f b13d eef2 813d cba6 0ebd 7710 b5bd
00000140: 46ad 153d 0dcd 4bbd 8b53 1dbd 6e0f ef3c
00000150: 90c1 7c3d 2edb 693d f50c 803c 95d8 9e3d
00000160: 6f23 983d 1ff4 d0bd b967 93bc 3e9b d7bd
00000170: e2bf 98bd e5dc cf3c 51ca 643e c164 8e3d
00000180: 6d9a dabd ce40 9cbd 563c bfbd 11ef 703b
00000190: 15f0 373c 2dd9 00bd 985e 27bc d465 253e
000001a0: d8fe 123c 29f7 c63d ab33 bd3d 5fb0 e3bd
000001b0: a8b5 c53c e195 753d 4e19 863d 1ada 123c
000001c0: 6869 febd 0e80 783d dce5 aabc b0a9 5c3d
000001d0: c7ff 803d 299f b8bc 88c6 04bd ce94 c8bd
000001e0: 207d 0f3c 0834 0c3d 9ada 413d 3c1b 92bd
000001f0: 7eb2 a83d 2a79 8dbc 7887 1a3d 9246 c13d
00000200: e2d5 f93c 1abc 5dbd 5772 53bd 470c 703d
00000210: 386c 0d3d 1088 493c 40d8 143d d749 86bd
00000220: 1f30 a43d 0743 ebba 542f 823d 69cd f7b9
00000230: a420 6bbd d2c1 79bd b7d9 64bd 387f e7bc
00000240: ad9e bb3c f45b 75bd c309 82bd 01cf d73c
00000250: 955c fd3c 0630 bbbd b6c3 1ebd fe0c 7c3d
00000260: e9fa 1abd b547 cdbd c815 7f3c 6062 b3bd
00000270: 401f 103d 4022 6cbc 32bb 433d 9bc6 7bbd
00000280: d825 40bc 4b1d a83d ba95 303d d010 1c3c
00000290: e9aa 573d a53b 243d 6de7 adbd 0a44 efbc
000002a0: 6642 613d 08a1 e0bb 4525 bdbd f776 403c
000002b0: cbcc 8f3d 8784 9e3c 27d6 0bbd f506 01bc
000002c0: 9371 a9bd 01d3 823d eced 043d b01b 7dbd
000002d0: 09ac a33c 5497 73bd 29cb 96bd 5dd9 da3c
000002e0: 3801 cebd 3641 e03c 4a0c 55bd 3a7f e9bc
000002f0: 586a a3bc d6f7 1fbd 207b 44bb 543f b4bd
00000300: e88c 5abc a161 53bd d225 393d 72cb b1bd
00000310: 5a1d 693d 0cba 9ebc db59 4b3d 2e0c 153d
00000320: 3858 8ebd a090 6cbd 2801 f9b9 32f3 333d
00000330: 72c6 553d 0432 b2bc 8718 8a3d 2cc5 063d
00000340: c86a c73c 6ac9 cebc eca9 7abd acea 69bd
00000350: 7c73 91bd c0a0 3bbc a45b 103d 9d68 2dbd
00000360: c826 743d 2d74 89bd ce64 77bd 58a0 373d
00000370: 6931 56bd 5a4e df3b 9614 4bbd 5733 94bd
00000380: 815b 5cbc 39b7 dcbd 7b2e 1f3d e8ba 99bd
00000390: 8041 74bd 2ada 303d 5f02 60bc e033 213d
000003a0: 502b 9b3b 0eb7 b3bc 0622 27bd 90cf 183d
000003b0: d034 bbbd 30f8 013d 947d 9fbc 6807 613c
000003c0: ebf9 b5bd 580d 40bd 18b8 56bd 7672 0bbd
000003d0: 8d71 953c 3a25 523d 2100 a8bd 698a f83c
000003e0: df94 34bd 3721 f83c 60f6 a23c 5f93 9c3d
000003f0: acc7 783c 7611 36bd 45da 88bd 79ba 343d

bias f4 [128]
-0.11090212 -0.090385936 0.14462882 0.083468266 0.13019802 0.052219465 0.016823221 -0.06016117
-0.04053823 0.07358767 -0.024388716 -0.09231597 -0.028033435 -0.046775624 -0.0045258743 0.06611227
-0.043394793 0.09329406 0.027837291 0.14893946 -0.0012334712 0.0489233 0.14303322 -0.039443616
-0.022778766 -0.067697205 -0.07501682 -0.061559368 0.015675109 -0.024625542 -0.0469327 0.14165722
0.06673971 -0.04842854 0.002237999 0.04550206 -0.049077712 0.047189917 -0.013261758 0.08626918
0.059721883 0.05955771 -0.029226968 0.032656055 -0.024918742 0.016669754 0.13426429 0.12474962
0.0047178334 -0.03507357 0.12994522 0.097090326 0.11624805 0.0044527147 0.01503227 0.045731153
0.07256685 0.14211234 0.068620324 0.10489577 0.12636742 -0.024082124 0.0008970896 -0.078813575
-0.11347591 0.11694364 0.10984546 0.1308161 0.044276644 -0.014898954 -0.038422517 -0.024508014
0.15045494 0.0035762344 -0.04159181 0.11101887 0.14470494 -0.0049503595 -0.008933627 -0.0004578058
0.058075104 0.002018483 -0.007942588 0.0029327013 -0.08957826 0.10406179 -0.050682854 -0.008095895
0.050323464 0.12491976 0.15574233 0.023663836 0.10621828 -0.073130965 -0.03555332 0.13820432
0.1239294 -0.01843308 -0.052354686 0.06843204 0.053403348 0.103770584 -0.016757233 -0.06782002
0.1360342 -0.09563622 -0.09984686 -0.024751542 -0.07974471 0.071617045 0.0016609766 -0.06031547
-0.035823766 0.12827098 -0.012579813 0.0033161452 0.094086535 -0.06747683 0.13077846 0.03714418
0.06281443 0.106255 0.017119791 0.06640558 -0.012162295 -0.043408453 0.14256923 -0.102021135
00000000: a720 e3bd 431c b9bd 9419 143e 69f1 aa3d
00000010: a152 053e 14e4 553d dad0 893c 8f6b 76bd
00000020: 6a0b 26bd 22b5 963d d8ca c7bc 2810 bdbd
00000030: 60a6 e5bc cc97 3fbd c94d 94bb df65 873d
00000040: bdbe 31bd f510 bf3d 080b e43c 9683 183e
00000050: 6dac a1ba cc63 483d 4d77 123e a18f 21bd
00000060: 899a babc d5a4 8abd 6ba2 99bd ad25 7cbd
00000070: 1669 803c 81bb c9bc 813c 40bd 970e 113e
00000080: d4ae 883d 015d 46bd 65ab 123b 5e60 3a3d
00000090: b605 49bd 374a 413d d847 59bc e5ad b03d
000000a0: ef9e 743d c9f2 733d 656d efbc 5bc2 053d
000000b0: 6422 ccbc 028f 883c 947c 093e bb7c ff3d
000000c0: 0e98 9a3b 4ea9 0fbd 5c10 053e 4bd7 c63d
000000d0: 7513 ee3d 14e8 913b e949 763c 9750 3b3d
000000e0: ee9d 943d e685 113e d088 8c3d 98d3 d63d
000000f0: 7666 013e e047 c5bc aa2a 6b3a 0369 a1bd
00000100: 0f66 e8bd 2680 ef3d a8f6 e03d a8f4 053e
00000110: 6d5b 353d be1a 74bc ee60 1dbd 08c5 c8bc
00000120: dc10 1a3e 425f 6a3b 2c5c 2abd dc5d e33d
00000130: 882d 143e a036 a2bb 595e 12bc a805 f0b9
00000140: 29e0 6d3d 8648 043b a121 02bc 9032 403b
00000150: cf74 b7bd 591e d53d d398 4fbd a5a4 04bc
00000160: fa1f 4e3d eed5 ff3d eb7a 1f3e a9da c13c
00000170: f888 d93d b0c5 95bd 5ca0 11bd 6f85 0d3e
00000180: b3ce fd3d f800 97bc de71 56bd 1926 8c3d
00000190: 78bd 5a3d ac85 d43d 7746 89bc 39e5 8abd
000001a0: 8d4c 0b3e ecdc c3bd 837c ccbd bfc3 cabc
000001b0: 3251 a3bd f5ab 923d 20b5 d93a 5b0d 77bd
000001c0: f1bb 12bd 7859 033e 8f1b 4ebc af53 593b
000001d0: 71b0 c03d 4b31 8abd caea 053e 7f24 183d
000001e0: daa4 803d 399c d93d ce3e 8c3c a6ff 873d
000001f0: 5d44 47bc 10cd 31bd abfd 113e 75f0 d0bd

weight f4 [128, 128]
-0.05686037 -0.04777206 -0.0026545867 0.01467284 0.068483934 -0.097707726 -0.04449217 0.07371507
0.03885431 -0.018720783 0.04874236 0.03444265 0.0019525588 0.025315627 -0.07839632 -0.020061634
-0.0018930882 -0.01675257 -0.03756946 0.010352438 0.063719206 0.013178038 0.012677398 0.027890565
0.05421924 -0.09271156 -0.08249687 0.08308027 -0.018883882 -0.03940235 -0.017152853 -0.032940533
-0.036385708 0.019731004 0.07985606 -0.03119855 -0.056847688 -0.053741302 -0.06478863 -0.11625053
0.044785466 0.014607742 0.027495435 0.004003141 -0.017626695 0.029419413 0.024634836 -0.07506601
-0.05167213 0.068147205 -0.058845453 0.052172504 0.049251042 0.0719826 -0.03769796 -0.065931424
0.059268225 -0.020556236 0.04593278 -0.09028199 0.015065215 0.009677537 0.07129716 0.08007046
-0.062122464 -0.09071349 -0.08201791 -0.05089076 0.06264958 0.054617338 -0.0141393645 -0.020717666
0.0018702823 0.024874711 -0.053051215 -0.015578666 -0.010602497 -0.08398895 -0.011852701 -0.06661631
0.06432047 0.014691694 -0.052445628 0.03864836 0.048667796 -0.007375018 -0.122312754 -0.081846304
0.06866097 0.04431759 -0.025990041 -0.033108663 -0.038235206 -0.015593921 0.054008443 0.006207511
-0.018157208 -0.045767874 0.024039105 -0.048465658 -0.04834463 -0.03724299 -0.06430326 -0.0824818
0.0063811326 0.08392943 0.010974593 0.01944907 0.02590178 -0.0882659 0.019866971 0.0863348
0.061390974 -0.033638895 -0.08269652 -0.06496784 0.05884612 0.016577922 -0.09014961 -0.012168505
0.015160845 -0.04151975 -0.11570397 -0.09078749 0.005242711 -0.09351933 -0.058509953 0.007431723
0.014996123 -0.03837384 -0.07213851 -0.014221571 -0.05286243 -0.0472612 -0.022585358 -0.08143185
-0.08191888 -0.04256272 -0.07113586 -0.011716589 0.06748628 0.08573406 0.052734725 -0.015375979
-0.07205257 -0.051313043 0.026787676 -0.014665842 -0.021975711 -0.09092958 0.0671872 -0.02138903
0.020613529 -0.055609554 0.033551037 -0.07900894 0.022396699 -0.080291316 0.022252806 -0.0571058
0.02979467 -0.039067525 -0.022825457 0.08521085 -0.05170782 0.018670306 -0.0032009035 -0.021289634
-0.066924155 -0.06524089 -0.036952186 0.06652548 -0.019323058 0.05977019 -0.018037133 -0.019578453
-0.043560114 -0.054244287 0.07809194 0.04184074 -0.089756876 -0.047946244 -0.08653505 0.046826296
-0.075491875 0.0059465393 -0.023321062 -0.011071887 0.012693696 -0.08435505 -0.017870337 -0.023717366
0.008026667 -0.06659394 0.05774636 0.0182603 0.04723694 0.001543954 0.033246584 -0.0044812188
-0.074016936 0.0857426 0.024192743 0.023024283 -0.045901407 -0.071352586 -0.09737434 0.07873898
-0.022655435 -0.06691048 -0.036982533 0.037519466 0.068498544 -0.0024320185 0.049104344 -0.008386537
0.06857886 -0.014101416 -0.06703819 0.053052478 -0.046064712 0.04896116 -0.009574138 0.018893164
-0.08040728 0.03111288 -0.006610535 -0.077473305 -0.05299607 0.026109204 0.0029626489 -0.031742983
-0.08759313 -0.04971245 -0.06616607 -0.063893825 0.0068757897 -0.08669742 -0.080005415 5.9753656e-05
0.059586786 0.018130362 0.055281766 -0.01688549 -0.03434755 -0.031105384 -0.03614264 -0.04774629
0.026625536 -0.007855676 -0.101700924 -0.040897414 0.0412691 -0.03522388 -0.09320847 0.011247158
00000000: 6be6 68bd a3ac 43bd 93f8 2dbb 5a66 703c
00000010: 4e41 8c3d fd1a c8bd 6c3d 36bd edf7 963d
00000020: b225 1f3d 545c 99bc 12a6 473d bc13 0d3d
00000030: 00ed ff3a b862 cf3c 408e a0bd 4c58 a4bc
00000040: 8021 f8ba b03c 89bc 6fe2 19bd 469d 293c
00000050: 377f 823d b3e8 573c dcb4 4f3c c17a e43c
00000060: fe14 5e3d 8fdf bdbd 1ef4 a8bd fd25 aa3d
00000070: 5fb2 9abc 5c64 21bd 2484 8cbc a7ec 06bd
00000080: 2e09 15bd eaa2 a13c 938b a33d 1a94 ffbc
00000090: 1fd9 68bd d71f 5cbd e7af 84bd c214 eebd
000000a0: f770 373d 5055 6f3c 1b3e e13c c82c 833b
000000b0: dc65 90bc fb00 f13c ffce c93c 35bc 99bd
000000c0: 28a6 53bd c390 8b3d ee07 71bd d6b2 553d
000000d0: 76bb 493d 9d6b 933d 2d69 1abd 0e07 87bd
000000e0: 3dc3 723d 8d65 a8bc 0324 3c3d c4e5 b8bd
000000f0: 17d4 763c 888e 1e3c 3f04 923d fbfb a33d
00000100: 2074 7ebd ffc7 b9bd 02f9 a7bd d472 50bd
00000110: 6c4e 803d 6eb6 5f3d cba8 67bc 18b8 a9bc
00000120: 4324 f53a 0dc6 cb3c 3b4c 59bd a93d 7fbc
00000130: 18b6 2dbc 6602 acbd d531 42bc 226e 88bd
00000140: 73ba 833d 6eb5 703c 3ad1 56bd be4d 1e3d
00000150: e257 473d 23aa f1bb 1c7f fabd 099f a7bd
00000160: 1f9e 8c3d 5c86 353d 11e9 d4bc f39c 07bd
00000170: 859c 1cbd a57d 7fbc f537 5d3d 6068 cb3b
00000180: 6dbe 94bc 1877 3bbd a8ed c43c ed83 46bd
00000190: 0505 46bd 1b8c 18bd 6db1 83bd 38ec a8bd
000001a0: d218 d13b 31e3 ab3d c8ce 333c a853 9f3c
000001b0: f82f d43c c1c4 b4bd 0fc0 a23c 4dd0 b03d
000001c0: 1a75 7b3d f0c8 09bd cb5c a9bd dc0d 85bd
000001d0: a108 713d 6cce 873c 5ca0 b8bd 695e 47bc
000001e0: 3165 783c 9d10 2abd 34f6 ecbd cbee b9bd
000001f0: 0ccb ab3b 1087 bfbd 22a8 6fbd d085 f33b
00000200: 4cb2 753c e32d 1dbd 5bbd 93bd 9801 69bc
00000210: 4786 58bd f694 41bd ee04 b9bc bec5 a6bd
00000220: 16c5 a7bd 3f56 2ebd aeaf 91bd f0f6 3fbc
00000230: 3f36 8a3d 5795 af3d 5e00 583d 88eb 7bbc
00000240: 4c90 93bd a02d 52bd d471 db3c 0049 70bc
00000250: 6806 b4bc 4a39 babd 7199 893d 0c38 afbc
00000260: b4dd a83c d8c6 63bd d06c 093d 70cf a1bd
00000270: 4879 b73c c66f a4bd 844b b63c c5e7 69bd
00000280: f413 f43c 4505 20bd 74fc babc 0783 ae3d
00000290: 94cb 53bd 78f2 983c 40c6 51bb 9967 aebc
000002a0: 880f 89bd 049d 85bd 2d5b 17bd 833e 883d
000002b0: 644b 9ebc 96d1 743d 9cc2 93bc fe62 a0bc
000002c0: 176c 32bd 422f 5ebd abee 9f3d 3261 2b3d
000002d0: 74d2 b7bd 4863 44bd 4a39 b1bd eecc 3f3d
000002e0: 7c9b 9abd 30db c23b d00b bfbc dc66 35bc
000002f0: 38f9 4f3c 57c2 acbd d064 92bc ec4a c2bc
00000300: 4882 033c 6762 88bd 7287 6c3d a096 953c
00000310: 867b 413d 805e ca3a 922d 083d 30d7 92bb
00000320: 3196 97bd d199 af3d dc2f c63c 6c9d bc3c
00000330: 1d03 3cbd 4e21 92bd 336c c7bd e741 a13d
00000340: e497 b9bc 5d08 89bd ff7a 17bd 03ae 193d
00000350: f748 8c3d 8062 1fbb a321 493d b067 09bc
00000360: 1373 8c3d a009 67bc 524b 89bd 8e4d 593d
00000370: 5aae 3cbd 7f8b 483d d8dc 1cbc d6c5 9a3c
00000380: 92ac a4bd 70e0 fe3c 309d d8bb 53aa 9ebd
00000390: 6812 59bd f8e2 d53c 0029 423b ee04 02bd
000003a0: 0764 b3bd 489f 4bbd 1482 87bd c4da 82bd
000003b0: 4e4e e13b 6b8e b1bd e1d9 a3bd 00a0 7a38
000003c0: 4611 743d 2086 943c 226f 623d 7053 8abc
000003d0: 04b0 0cbd b8d0 febc 4e0a 14bd 9d91 43bd
000003e0: cc1d da3c 18b5 00bc 9348 d0bd 0c84 27bd
000003f0: ca09 293d ea46 10bd 15e4 bebd 0046 383c

bias f4 [128]
0.02437549 -0.06912786 -0.034964144 0.00070916314 0.112102084 0.0055189673 0.019524015 0.094240315
0.03840037 0.0005491174 0.036453024 -0.035766628 0.100973904 -0.099144466 -0.050022956 0.056273106
-0.04321214 0.13319653 0.093223624 0.06078478 -0.039666172 0.049919873 -0.042252246 0.08339372
0.105023585 -0.048185058 -0.07164386 -0.034708727 -0.095290504 -0.09499635 -0.01286737 -0.079798535
0.03705278 0.10404827 0.11191251 0.0004433319 0.05011209 -0.05038101 0.008231117 -0.026600653
-0.10314606 -0.07040113 -0.07242349 0.06629734 -0.10594761 0.10425935 -0.03849573 -0.0019381153
0.039697785 0.0021625904 0.1421138 0.03864579 -0.0029063523 -0.0007569539 -0.043701265 0.031278465
-0.0067224875 0.07964952 0.053528216 0.067682095 0.012423855 0.05048182 0.15681693 -0.025981564
0.00089667935 -0.07498444 -0.0032632288 -0.10654254 0.068303294 0.11076172 0.053923093 -0.015732074
-0.054774 0.102265194 -0.08175958 0.015179005 0.053776737 0.07126379 -0.07830153 0.08985487
0.022731906 -0.047923 0.059713818 0.06532118 -0.08704425 -0.0032870867 -0.052065276 0.14916635
-0.114806116 0.09359138 0.008422649 -0.011264607 0.036794 -0.044912912 0.12266952 0.037526645
0.019692888 0.0764693 -0.13006678 -0.010819418 0.14807828 0.110359 0.12410649 0.11174795
0.007197745 0.16549994 0.1102339 -0.042119045 8.556213e-05 0.039625514 0.14496247 -0.07221259
0.017668074 -0.04739289 -0.023790937 -0.10698439 0.127795 0.13219114 -0.0558967 -0.018698355
-0.039641473 0.14519805 -0.13473353 -0.015351733 0.02823125 0.09657935 0.032033157 0.048054267
00000000: 1caf c73c e892 8dbd 9036 0fbd 22e7 393a
00000010: c795 e53d 74d8 b43b d4f0 9f3c 1101 c13d
00000020: b549 1d3d a5f2 0f3a c44f 153d 0780 12bd
00000030: 68cb ce3d 410c cbbd dfe4 4cbd a17e 663d
00000040: 37ff 30bd ac64 083e 07ec be3d 76f9 783d
00000050: ff78 22bd c878 4c3d b110 2dbd 54ca aa3d
00000060: 9b16 d73d b25d 45bd 04ba 92bd bd2a 0ebd
00000070: ab27 c3bd 728d c2bd a9d1 52bc 6a6d a3bd
00000080: a8c4 173d 4217 d53d 6332 e53d 006f e839
00000090: 5642 4d3d 515c 4ebd cfdb 063c 9de9 d9bc
000000a0: 3e3e d3bd 782e 90bd c452 94bd e6c6 873d
000000b0: 10fb d8bd ed85 d53d b3ad 1dbd 5c08 feba
000000c0: 259a 223d 3fba 0d3b 4886 113e 0c4b 1e3d
000000d0: 8078 3ebb 516e 46ba 1900 33bd d91d 003d
000000e0: 5048 dcbb 4a1f a33d 6740 5b3d e99c 8a3d
000000f0: 6d8d 4b3c 06c6 4e3d 9e94 203e 4ad7 d4bc
00000100: 220f 6b3a 7191 99bd e5db 55bb fa32 dabd
00000110: 99e2 8b3d 0ad7 e23d 76de 5c3d 8de0 80bc
00000120: b45a 60bd 6a70 d13d 9171 a7bd 5db1 783c
00000130: ff44 5c3d c0f2 913d 8d5c a0bd d505 b83d
00000140: 4338 ba3c e84a 44bd 7a96 743d 1cc7 853d
00000150: 4144 b2bd 2a6c 57bb 6642 55bd 10bf 183e
00000160: 781f ebbd d6ac bf3d 27ff 093c 308f 38bc
00000170: 4eb5 163d 9af6 37bd 283a fb3d 8ab5 193d
00000180: fb52 a13c f09b 9c3d 3a30 05be ee43 31bc
00000190: d5a1 173e e603 e23d 8b2b fe3d 1cdc e43d
000001a0: 10db eb3b d178 293e 50c2 e13d 0585 2cbd
000001b0: d26f b338 5d4e 223d 0b71 143e 32e4 93bd
000001c0: a3bc 903c 0c1f 42bd 36e5 c2bc a21a dbbd
000001d0: b1dc 023e 1d5d 073e f0f3 64bd 4b2d 99bc
000001e0: 195f 22bd ccae 143e 96f7 09be d685 7bbc
000001f0: 3945 e73c 65cb c53d 3335 033d 8dd4 443d

weight f4 [2, 128]
0.039348055 -0.0124874525 0.044060897 0.014786995 0.024024919 0.13192546 0.18556671 -0.010442766
-0.0842424 0.15007658 0.15542106 -0.0039035513 0.11834406 -0.04131587 -0.02131322 0.19797783
0.06238333 0.0462146 -0.012372483 0.04556149 0.036703 0.09100042 -0.05213076 0.012063507
0.15693489 0.06688149 0.045282956 -0.004784197 0.037229914 -0.06158942 0.07350065 -0.027704548
-0.16398749 0.116034165 0.05352155 -0.083871335 -0.0062270565 0.12213138 -0.052854087 -0.073197804
0.0665332 -0.0013416563 0.022113424 0.087500885 0.0019148634 0.12583016 -0.005878682 -0.08815595
0.04583373 -0.061333492 0.10020509 -0.03864578 0.08078226 -0.021918533 0.0067944303 0.005633279
0.057077326 -0.01237133 0.1111831 0.09801922 -0.035871565 -0.08050926 0.15139182 -0.08004579
0.0051084952 -0.06106971 0.0883053 -0.029680591 0.12376423 0.13077 0.052301846 -0.0074341563
-0.05274495 0.013932881 0.028764222 0.028352827 0.024980456 0.13956329 0.008305055 -0.033597216
0.007030386 -0.048449986 0.060702767 -0.07289894 -0.01340579 -0.007824982 -0.050113477 0.084042124
-0.0396589 0.14041395 0.14072001 -0.04168532 0.010984831 0.016088262 0.1471599 0.06542004
0.14999563 0.13121818 -0.11436389 0.019025095 0.1363131 -0.0064921146 0.08059712 -0.015585574
0.028000586 0.14182664 -0.026748508 0.047097538 0.014070545 0.12765169 0.12724718 0.03875294
0.14660653 -0.029130384 0.0551672 -0.018756682 0.10274268 0.102392904 -0.059466373 -0.00084855745
0.10419619 0.03510664 0.03479958 0.07185474 0.077157654 0.15111567 0.15901226 0.059183143
-0.03825526 0.0810061 0.0043188594 -0.04557498 0.11688924 -0.07223243 -0.090767 0.1009392
0.00159854 0.006059877 0.09843305 0.00819207 0.108510114 -0.043467697 0.03445807 -0.020939823
-0.059769817 0.09206021 0.13144015 0.12560374 -0.05410547 0.1167079 -0.034846485 0.049777348
0.04722421 0.017329432 -0.035443142 -0.025073193 -0.059492953 0.081021845 0.011788352 0.07229873
0.02239441 0.08718593 0.075839475 0.01663728 0.008590731 -0.056302596 -0.033127222 0.14205496
-0.065412305 -0.042413343 -0.06574502 -0.118633546 -0.005568174 0.0706602 0.07291093 -0.07550454
0.044653308 -0.0029360654 0.09532796 -0.008507504 -0.064021885 0.07966325 -0.087006934 0.047926065
0.07379442 0.1651366 0.07251587 0.10544848 -0.009492449 0.0699146 0.07822323 -0.06702176
-0.06688312 0.07858481 -0.05293981 0.0021784387 0.07930469 0.07733182 -0.025306396 -0.029328471
0.0028050542 0.0016085852 0.010501623 -0.046417065 -0.00955895 -0.08226019 -0.01731398 0.09604661
-0.036582917 0.060869314 0.09160166 -0.016914776 0.05952131 -0.04932169 0.068327494 0.044474624
-0.009174377 0.0967242 -0.2706226 -0.035940565 -0.008743701 0.027147837 -0.014299777 0.035088275
-0.2367375 0.03606295 0.13144565 -0.033080507 0.10418658 0.12822019 0.0781564 0.08198265
-0.054554667 0.17344087 0.11628036 0.100473806 -0.060465712 -0.21032192 0.032749113 -0.082218856
0.08371601 -0.06824601 -0.07253197 -0.042123728 0.05953156 0.09124046 -0.010112653 -0.078949966
-0.038323443 0.083521135 -0.013971034 0.05607664 0.09812875 0.053578943 -0.062246453 -0.05637199
00000000: 6d2b 213d 2c98 4cbc 3379 343d 2745 723c
00000010: e8cf c43c 7817 073e 3305 3e3e 2318 2bbc
00000020: 4887 acbd adad 193e b326 1f3e b9d2 7fbb
00000030: 5f5e f23d d43a 29bd 1099 aebc b3ba 4a3e
00000040: aa85 7f3d 854b 3d3d f4b5 4abc af9e 3a3d
00000050: e355 163d 6e5e ba3d 1087 55bd 04a6 453c
00000060: 8ab3 203e 2af9 883d 9f7a 393d c1c4 9cbb
00000070: 657e 183d 3045 7cbd 8287 963d a6f4 e2bc
00000080: 56ec 27be 52a3 ed3d 6a39 5b3d bcc4 abbd
00000090: 560c ccbb 0420 fa3d 877d 58bd bbe8 95bd
000000a0: 8f42 883d 84da afba 3627 b53c aa33 b33d
000000b0: 27fc fa3a 9fd9 003e f5a1 c0bb 1b8b b4bd
000000c0: 26bc 3b3d d438 7bbd 5438 cd3d 0a4b 1ebd
000000d0: 2b71 a53d 7f8e b3bc d0a3 de3b 5f97 b83b
000000e0: eac9 693d 1eb1 4abc f7b3 e33d 4dbe c83d
000000f0: 10ee 12bd 0ae2 a4bd 7506 1b3e 0cef a3bd
00000100: 2a65 a73b 3b24 7abd 69d9 b43d b624 f3bc
00000110: 1a78 fd3d 92e8 053e 763a 563d 399a f3bb
00000120: 170b 58bd bd46 643c f2a2 eb3c 3044 e83c
00000130: d0a3 cc3c aee9 0e3e ed11 083c 3c9d 09bd
00000140: 275f e63b 7e73 46bd 77a3 783d 0a4c 95bd
00000150: f5a3 5bbc 5a34 00bc ca43 4dbd 471e ac3d
00000160: 5f71 22bd adc8 0f3e e818 103e 3abe 2abd
00000170: b8f9 333c 88cb 833c 16b1 163e f1fa 853d
00000180: 7498 193e 0f5e 063e 9d37 eabd 84da 9b3c
00000190: a995 0b3e cebb d4bb 1a10 a53d a35a 7fbc
000001a0: 7c61 e53c 013b 113e b01f dbbc 59e9 403d
000001b0: 2588 663c 20b7 023e 164d 023e 67bb 1e3d
000001c0: 0620 163e d8a2 eebc 00f7 613d 9da7 99bc
000001d0: c16a d23d 5fb3 d13d 0393 73bd ba71 5eba
000001e0: d064 d53d fbcb 0f3d 018a 0e3d 9428 933d
000001f0: d504 9e3d 11be 1a3e 1cd4 223e 066a 723d
00000200: 8cb1 1cbd 87e6 a53d 3885 8d3b d5ac 3abd
00000210: a063 ef3d 99ee 93bd 0de4 b9bd 36b9 ce3d
00000220: 1a86 d13a ef91 c63b 4497 c93d 0838 063c
00000230: 8d3a de3d 2f0b 32bd e823 0d3d fe89 abbc
00000240: 32d1 74bd 108a bc3d 3f98 063e 449e 003e
00000250: b39d 5dbd 8d04 ef3d 30bb 0ebd 55e3 4b3d
00000260: 2c6e 413d 74f6 8d3c d42c 11bd 4c66 cdbc
00000270: e2ae 73bd c8ee a53d ef23 413c 5b11 943d
00000280: 7b74 b73c 898e b23d ba51 9b3d e84a 883c
00000290: 23c0 0c3c 8d9d 66bd 69b0 07bd db76 113e
000002a0: e3f6 85bd 9db9 2dbd 53a5 86bd 25f6 f2bd
000002b0: 3b75 b6bb 4cb6 903d 5352 953d 20a2 9abd
000002c0: 63e6 363d 016b 40bb 4e3b c33d 0f63 0bbc
000002d0: e81d 83bd 7c26 a33d b130 b2bd 1f4e 443d
000002e0: 8721 973d 9219 293e 3383 943d 5ff5 d73d
000002f0: 3886 1bbc 632f 8f3d 8033 a03d b442 89bd
00000300: 04fa 88bd 13f1 a03d 6ad7 58bd 23c4 0e3b
00000310: 7f6a a23d 2560 9e3d 5c4f cfbc 4342 f0bc
00000320: 00d5 373b 2ad7 d23a 000f 2c3c d21f 3ebd
00000330: 249d 1cbc 0878 a8bd 0cd6 8dbc 16b4 c43d
00000340: f8d7 15bd 1a52 793d a799 bb3d db90 8abc
00000350: 9ecc 733d 8a05 4abd 49ef 8b3d 062b 363d
00000360: 2050 16bc 5617 c63d 0c8f 8abe 6a36 13bd
00000370: bd41 0fbc 2465 de3c 9d49 6abc b9b8 0f3d
00000380: 516b 72be beb6 133d b099 063e 6d7f 07bd
00000390: c65f d53d 274c 033e 7610 a03d 85e6 a73d
000003a0: b774 5fbd 7c9a 313e 6624 ee3d 36c5 cd3d
000003b0: e5aa 77bd a15e 57be ef23 063d 5c62 a8bd
000003c0: 4d73 ab3d 90c4 8bbd a48b 94bd ee89 2cbd
000003d0: 5dd7 733d 47dc ba3d 8aaf 25bc 85b0 a1bd
000003e0: 0bf9 1cbd 210d ab3d c4e6 64bc 9eb0 653d
000003f0: baf7 c83d 9875 5b3d 23f6 7ebd 51e6 66bd

bias f4 [2]
0.105643235 0.1039335
00000000: 7b5b d83d 16db d43d

weight f4 [128, 4]
0.2718676 0.20548537 -0.47592464 -0.09864833 0.09349571 -0.34941787 0.21520607 -0.22533059
-0.2627124 -0.4396736 0.8336648 -0.038266815 0.026728211 -0.022238407 -0.6527132 -0.19935538
-0.25359413 0.12897414 -0.6614293 -0.33370915 -0.23593108 -0.028832896 -0.24223329 0.21938066
-0.53931624 -0.29490894 0.56967044 -0.39723617 0.40252063 0.34303296 0.46779573 -0.055393398
0.024498807 0.22334954 -0.0939679 0.22298864 0.42618555 -0.3745275 1.0361161 -0.030609246
0.040339585 -0.17728093 -0.38423058 0.15648286 0.655559 -0.21744777 -0.6137858 -0.47792122
-0.44078058 -0.266816 0.01745326 0.29111767 -0.013438391 -0.15517356 -1.0049788 -0.41649544
0.13006806 -0.45940715 -0.2753264 -0.2578813 0.45448872 -0.055860385 -0.45332053 0.055397615
-0.2627605 0.14496475 -0.15318938 0.20568836 0.103810914 0.38342264 0.41416332 0.04811815
0.1644005 0.061867 0.8885212 0.23823778 -0.596673 -0.38408914 0.3938986 -0.22751796
-0.41306904 0.4892418 0.3229907 0.44574347 0.052752033 -0.3907472 -0.855467 -0.15824328
-0.07082466 -0.18394993 0.5980068 0.33492747 -0.35205495 -0.10013915 0.43011898 0.035735052
-0.3555723 -0.1194596 -0.36503738 0.029293727 -0.19531164 -0.1554497 0.24075392 0.42578387
0.09575188 -0.41300228 0.0042801267 -0.13499948 -0.5757944 -0.16940203 0.14001429 -0.097695634
0.28793895 0.37822565 0.43934205 -0.015515728 -0.29622588 0.16789408 0.88983905 0.13701236
-0.43559283 -0.04882907 0.6407978 0.056492154 0.53843313 0.026987698 -0.5328094 -0.048362825
-0.2482583 0.17638895 0.43912303 0.26552793 0.42966127 -0.3573742 0.6656965 -0.13981935
0.19530813 0.19032885 -0.09031196 -0.22990957 0.0032704948 0.24956642 0.44608906 0.0153938085
0.50480723 -0.34262884 -0.42276254 -0.27166086 -0.19556294 -0.51085347 -0.16922297 -0.4487924
-0.367624 0.48658726 0.23596121 0.4018092 -0.28760684 -0.2998687 0.29099146 0.009216266
-0.068667434 0.091384195 -0.0035144216 -0.47591245 0.2994529 0.3324933 0.057634536 -0.19751194
-0.16190502 -0.18958355 0.18346298 -0.06675349 -0.15052217 -0.48075843 -0.2233878 -0.36959192
-0.20580685 -0.009681685 -0.2358397 -0.12869507 -0.22615156 -0.20974192 -0.19724835 0.3101639
0.039771087 -0.2945753 -0.8510518 -0.4638451 -0.0061697075 0.40221685 0.3564008 -0.054869898
-0.3493977 -0.05001999 0.7509594 0.10891397 0.5231218 0.046853565 0.009896565 -0.14665641
0.38198468 -0.5257471 -0.39333114 -0.077575706 -0.61935043 0.2370124 0.035709288 0.31588188
0.326032 -0.33106583 0.5494121 -0.32324952 -0.48577487 -0.03447981 0.23060834 0.0074481815
-0.102294 0.19801998 0.19058643 0.30581868 -0.29008624 0.071749955 0.35532635 0.27115402
-0.2407825 -0.26953924 -0.048978124 -0.068552054 -0.017766835 -0.27747983 -0.035174128 0.0077809505
-0.18882746 0.16624752 -0.031058159 0.03195236 0.40952995 0.022558736 -0.6478029 0.28968057
0.04605193 -0.2819308 -0.5723225 0.08265606 0.08450572 0.44924322 0.5780139 0.46609765
0.5850751 0.30565283 -0.8929689 0.08358644 0.083853394 -0.17063087 0.67859876 0.18555923
00000000: 3b32 8b3e c26a 523e 65ac f3be 2308 cabd
00000010: ae7a bf3d e6e6 b2be fb5e 5c3e 10bd 66be
00000020: 3d82 86be e61c e1be 0e6b 553f aabd 1cbd
00000030: 1ff5 da3c 522d b6bc 3618 27bf d123 4cbe
00000040: 17d7 81be cc11 043e 6e53 29bf eddb aabe
00000050: eb97 71be f732 ecbc 010c 78be 53a5 603e
00000060: a110 0abf 4efe 96be ecd5 113f 8a62 cbbe
00000070: 2f17 ce3e 04a2 af3e ec82 ef3e 30e4 62bd
00000080: b9b1 c83c beb5 643e 3e72 c0bd 2257 643e
00000090: fe34 da3e 12c2 bfbe 749f 843f 3ec0 fabc
000000a0: 1f3b 253d 2289 35be dfb9 c4be 0b3d 203e
000000b0: b7d2 273f a1aa 5ebe 1121 1dbf 17b2 f4be
000000c0: fead e1be 1b9c 88be 24fa 8e3c 600d 953e
000000d0: b22c 5cbc d1e5 1ebe 25a3 80bf e43e d5be
000000e0: 9030 053e 6a37 ebbe 95f7 8cbe 0509 84be
000000f0: bfb2 e83e dccd 64bd a119 e8be 9ce8 623d
00000100: 8b88 86be a471 143e addd 1cbe f89f 523e
00000110: d19a d43d f94f c43e 370d d43e 8a17 453d
00000120: 9b58 283e 4068 7d3d 2076 633f 9bf4 733e
00000130: 90bf 18bf 55a7 c4be 14ad c93e 78fa 68be
00000140: c97d d3be e77d fa3e 095f a53e 7d38 e43e
00000150: 8412 583d 0410 c8be e3ff 5abf 870a 22be
00000160: 850c 91bd 5f5d 3cbe f916 193f 9d7b ab3e
00000170: 8c40 b4be c115 cdbd 8e38 dc3e eb5e 123d
00000180: 930d b6be 3ca7 f4bd 2ee6 babe 66f9 ef3c
00000190: c6ff 47be 352e 1fbe 3288 763e 5800 da3e
000001a0: 9019 c43d 0975 d3be 4e40 8c3b 4e3d 0abe
000001b0: 4367 13bf ba77 2dbe e85f 0f3e a614 c8bd
000001c0: bc6c 933e cba6 c13e 71f1 e03e ae35 7ebc
000001d0: ebaa 97be 6dec 2b3e 7ecc 633f f84c 0c3e
000001e0: 0606 dfbe fe00 48bd 530b 243f 5164 673d
000001f0: c1d6 093f 4e15 dd3c 3266 08bf 1918 46bd
00000200: 6c37 7ebe 4e9f 343e bcd4 e03e 47f3 873e
00000210: 90fc db3e c0f9 b6be 166b 2a3f ce2c 0fbe
00000220: dbfe 473e 91e5 423e 7af5 b8bd 6a6d 6bbe
00000230: cc55 563b 578e 7f3e c965 e43e 5036 7c3c
00000240: 0c3b 013f 0c6d afbe 5574 d8be 2217 8bbe
00000250: a741 48be 4bc7 02bf c948 2dbe 1ec8 e5be
00000260: 3739 bcbe f721 f93e d19f 713e efb9 cd3e
00000270: 3441 93be 6488 99be d5fc 943e d2ff 163c
00000280: 83a1 8cbd a327 bb3d 3652 66bb ccaa f3be
00000290: e451 993e 903c aa3e 3112 6c3d 9240 4abe
000002a0: 6eca 25be 3122 42be b8dd 3b3e 0eb6 88bd
000002b0: 7c22 1abe f825 f6be c5bf 64be 273b bdbe
000002c0: 08bf 52be ee9f 1ebc f67f 71be a4c8 03be
000002d0: 4694 67be 96c6 56be 79fb 49be cdcd 9e3e
000002e0: 02e7 223d 93d2 96be 88de 59bf 1b7d edbe
000002f0: 422b cabb 5eef cd3e 2a7a b63e 42bf 60bd
00000300: 41e4 b2be c3e1 4cbd e03e 403f 4a0e df3d
00000310: 4feb 053f 86e9 3f3d 3425 223c 192d 16be
00000320: 7f93 c33e 5d97 06bf b362 c9be 03e0 9ebd
00000330: c08d 1ebf 61b3 723e e743 123d 45bb a13e
00000340: abed a63e 7681 a9be 45a6 0c3f f680 a5be
00000350: 7cb7 f8be b43a 0dbd 9824 6c3e e00f f43b
00000360: 847f d1bd c0c5 4a3e 1729 433e 4494 9c3e
00000370: 2f86 94be a4f1 923d 56ed b53e b3d4 8a3e
00000380: b08f 76be 0c01 8abe 499d 48bd 0565 8cbd
00000390: c18b 91bc d611 8ebe bf12 10bd 58f7 fe3b
000003a0: fc5b 41be ca3c 2a3e ae6d febc 7ae0 023d
000003b0: e9ad d13e 19cd b83c 69d6 25bf 0351 943e
000003c0: f3a0 3c3d 3c59 90be ba83 12bf 9547 a93d
000003d0: 5611 ad3d 3503 e63e b8f8 133f 5aa4 ee3e
000003e0: 7bc7 153f 877e 9c3e 9c99 64bf 5e2f ab3d
000003f0: 54bb ab3d dcb9 2ebe a6b8 2d3f 3d03 3e3e
