test_model_pth/discrete/test_cartpole_dqn_cuda.pth (torch, 830058 bytes, 40 tensors)

weight f4 [128, 4]
0.32224208 0.20481879 -0.49735382 -0.073217854 0.14065652 -0.3624985 0.20648648 -0.22850706
-0.14024271 -0.42489842 0.78156614 -0.06520581 0.05962254 -0.055437922 -0.7537384 -0.15445144
-0.2161841 0.07936501 -0.600784 -0.33638975 -0.24829707 -0.01734287 -0.1866148 0.2342684
-0.49110416 -0.33333975 0.49963236 -0.34469756 0.36677498 0.27997813 0.39344922 -0.035272773
-0.0050910735 0.20494713 -0.13281266 0.20468482 0.27587652 -0.4179163 0.9208847 -0.014162417
-0.012580677 -0.20961472 -0.26767334 0.20235969 0.5829517 -0.26941147 -0.67314076 -0.4886628
-0.4721798 -0.2632823 0.028463988 0.2898948 -0.07103547 -0.19228685 -1.0354269 -0.43155518
-0.018136207 -0.5350399 -0.25238818 -0.2611058 0.3198502 -0.11532256 -0.5189015 0.036999498
-0.27582157 0.17246464 -0.23586701 0.124362566 0.082390435 0.35214463 0.36631197 0.031117484
0.114714645 0.0905614 0.8567023 0.18590724 -0.4644678 -0.42897615 0.39709345 -0.1870781
-0.42303368 0.4630299 0.28561062 0.43846637 0.21065812 -0.36356342 -1.0053765 -0.18887511
-0.10721269 -0.16232349 0.5693234 0.31561244 -0.39251754 -0.09951338 0.3873058 -0.03876206
-0.30032256 -0.06466083 -0.25948936 0.013978092 -0.07610778 -0.14131744 0.13232778 0.41810873
0.17904435 -0.44996986 0.10588383 -0.11641397 -0.62054133 -0.25295222 0.1220427 -0.108637445
0.2244011 0.30324262 0.37242237 -0.033304602 -0.24449071 0.18258522 0.8358096 0.14881356
-0.43581638 -0.03686416 0.58043855 0.024722496 0.40149975 -0.035439894 0.080755696 0.076493144
-0.26004407 0.121560335 0.4902354 0.19559596 0.35579497 -0.4008926 0.587393 -0.19030093
0.123850204 0.12963788 -0.13019238 -0.24935786 -0.028370103 0.21859047 0.38418078 0.014686972
0.5334447 -0.36058068 -0.42990175 -0.300281 -0.018322969 -0.41358018 -0.09977623 -0.48704413
-0.72524124 0.3877222 0.6072666 0.40204537 -0.26304567 -0.28679144 0.27443683 -0.021163182
-0.046517175 0.018639803 -0.25128406 -0.4482251 0.10748616 0.13180569 -0.20450875 -0.26262382
-0.13899451 -0.16464555 0.17486686 -0.11260229 -0.1296517 -0.4039598 -0.22891855 -0.5011168
-0.1729551 0.021564359 -0.16093108 -0.13059558 -0.22696379 -0.123992786 -0.07515432 0.2602878
-0.12699015 -0.26147538 -0.77646506 -0.5111694 -0.12169476 0.3478731 0.29971296 -0.082078695
-0.3735622 -0.050098505 0.67406386 0.08694039 0.35775512 -0.039371822 0.6103391 0.11614374
0.26026982 -0.47272462 -0.04033301 -0.099704355 -0.58971035 0.3397226 0.15406673 0.28649908
0.2899166 -0.42651328 0.37206447 -0.28940892 -0.4405985 -0.08292223 0.27377456 0.037056398
-0.12608092 0.18319435 0.1627175 0.2931862 -0.3847939 0.099219345 0.30934644 0.24509503
-0.08432338 -0.21210338 -0.11044875 -0.095784314 -0.053450897 -0.30648842 -0.045492355 -0.013131265
-0.20503804 0.1575544 -0.084279075 0.013687991 0.3739803 -0.020278515 -0.6750828 0.24263275
-0.063975975 -0.31642148 -0.4652452 0.018623425 0.016827038 0.43606687 0.524609 0.42835817
0.53828806 0.29881936 -0.8662577 0.07547949 0.10858819 -0.17497881 0.61717874 0.16358052
00000000: eafc a43e 04bc 513e 29a5 febe 3ef3 95bd
00000010: 4308 103e 6799 b9be 3171 533e c1fd 69be
00000020: c99b 0fbe 498c d9be b814 483f a08a 85bd
00000030: c436 743d e012 63bd 00f5 40bf 8528 1ebe
00000040: 5d5f 5dbe 1f8a a23d fbcc 19bf 473b acbe
00000050: 9641 7ebe a212 8ebc f317 3fbe 0ee4 6f3e
00000060: 0172 fbbe 82ab aabe d0cf ff3e 337c b0be
00000070: eec9 bb3e 4b59 8f3e 2d72 c93e 2f7a 10bd
00000080: 05d3 a6bb a9dd 513e 0b00 08be e698 513e
00000090: b03f 8d3e 20f9 d5be 1abf 6b3f 7b09 68bc
000000a0: 2f1f 4ebc 3ea5 56be 7b0c 89be 6137 4f3e
000000b0: 533c 153f 4df0 89be f452 2cbf 0332 fabe
000000c0: 8dc1 f1be f0cc 86be 4f2d e93c 176d 943e
000000d0: 0b7b 91bd d8e6 44be de88 84bf cdf4 dcbe
000000e0: 6292 94bc 60f8 08bf 0639 81be a9af 85be
000000f0: 68c3 a33e 3c2e ecbd bbd6 04bf c98c 173d
00000100: 7c38 8dbe 929a 303e 1f87 71be cdb1 fe3d
00000110: 51bc a83d 4d4c b43e 3e8d bb3e 18ea fe3c
00000120: 83ef ea3d 4178 b93d d850 5b3f 785e 3e3e
00000130: b9ce edbe c3a2 dbbe d54f cb3e 6791 3fbe
00000140: df97 d8be 4112 ed3e 8e3b 923e aa7e e03e
00000150: c3b6 573e fc24 babe 2db0 80bf 7a68 41be
00000160: 5492 dbbd 2138 26be 2ebf 113f f497 a13e
00000170: 0ff8 c8be accd cbbd f24c c63e f7c4 1ebd
00000180: e1c3 99be e66c 84bd cadb 84be 5e04 653c
00000190: 65de 9bbd 85b5 10be ef80 073e 5912 d63e
000001a0: 6757 373e 7362 e6be 9fd9 d83d 736a eebd
000001b0: ccdb 1ebf f482 81be 86f1 f93d 4f7d debd
000001c0: 67c9 653e 9e42 9b3e 25ae be3e 686a 08bd
000001d0: c65b 7abe 9ff7 3a3e 9ef7 553f 9562 183e
000001e0: 5323 dfbe e0fe 16bd 9f97 143f d586 ca3c
000001f0: 6091 cd3e 6c29 11bd 3e63 a53d 70a8 9c3d
00000200: 7f24 85be a0f4 f83d 2200 fb3e 4f4a 483e
00000210: c22a b63e cb41 cdbe 635f 163f 3fde 42be
00000220: 2da5 fd3d cbbf 043e 2751 05be ab57 7fbe
00000230: 6b68 e8bc 2ed6 5f3e 58b3 c43e a0a1 703c
00000240: d58f 083f 089e b8be 151c dcbe 6ebe 99be
00000250: 0d1a 96bc c8c0 d3be 7b57 ccbd d95d f9be
00000260: 69a9 39bf 8683 c63e d375 1b3f e4d8 cd3e
00000270: ecad 86be 54d6 92be fc82 8c3e 695e adbc
00000280: cb88 3ebd 80b2 983c 4ea8 80be c37d e5be
00000290: b421 dc3d 12f8 063e be6a 51be a176 86be
000002a0: 9454 0ebe d898 28be 4c10 333e 089c e6bd
000002b0: 6ac3 04be d2d3 cebe a069 6abe 3149 00bf
000002c0: 241b 31be bda7 b03c 1ecb 24be d9ba 05be
000002d0: 3269 68be eeef fdbd 82ea 99bd 7144 853e
000002e0: b509 02be 1ae0 85be 6ac6 46bf ffdb 02bf
000002f0: 1a3b f9bd 6c1c b23e fa73 993e e018 a8bd
00000300: 8b43 bfbe 1734 4dbd 738f 2c3f ce0d b23d
00000310: ae2b b73e 5944 21bd 2f3f 1c3f c5dc ed3d
00000320: 1642 853e f608 f2be 3a34 25bd cc31 ccbd
00000330: 42f7 16bf 1ff0 ad3e abc3 1d3e 02b0 923e
00000340: f36f 943e f35f dabe 3c7f be3e 682d 94be
00000350: 2096 e1be 21d3 a9bd 2e2c 8c3e 73c8 173d
00000360: 5b1b 01be 4d97 3b3e 6b9f 263e 801c 963e
00000370: b503 c5be 8333 cb3d a862 9e3e 31fa 7a3e
00000380: bcb1 acbd a131 59be f432 e2bd 912a c4bd
00000390: 54ef 5abd 0dec 9cbe 3156 3abd 8424 57bc
000003a0: 7ef5 51be f155 213e 829a acbd 9843 603c
000003b0: 597a bf3e 211f a6bc 3ad2 2cbf b874 783e
000003c0: d605 83bd ff01 a2be 9e34 eebe 2790 983c
000003d0: dbd8 893c 2844 df3e c74c 063f c351 db3e
000003e0: 3fcd 093f dafe 983e 11c3 5dbf fe94 9a3d
000003f0: 7c63 de3d a52d 33be 6dff 1d3f a781 273e

bias f4 [128]
-0.6575222 0.47101718 -0.48940003 0.24415044 -0.23189895 -0.49810678 -0.11281473 -0.60248137
0.43768904 -0.196583 -0.2992068 -0.4627682 -0.5330368 -0.23004016 0.4109054 -0.16121626
-0.3913268 -0.008261927 -0.21937032 0.3337597 0.5094781 0.041022126 -0.301913 -0.45875898
0.013530224 -0.25031063 0.39101112 0.35910285 0.07257623 -0.22656246 -0.12491669 -0.73226154
0.038160473 0.29715377 0.2604414 0.35406217 0.32222635 0.34868354 -0.31578875 -0.40245268
-0.2139777 -0.041062202 -0.45415592 -0.491199 -0.46610448 -0.37778604 -0.4018619 0.06160529
0.014728522 -0.60259247 -0.32901883 -0.0047288593 0.09785232 0.16648085 0.5462119 -0.053243358
-0.027999757 -0.3602421 0.5124952 0.44498494 0.28332445 0.53136414 -0.28911248 -0.037616435
-0.32094106 0.32753384 0.33533552 -0.14958999 0.1337753 -0.2009364 0.50197643 0.17131959
0.46388286 0.08045873 -0.083799094 -0.2706932 0.020329306 0.41152653 -0.23814118 0.23269527
-0.0044639385 -0.33855638 0.19114172 -0.028788425 -0.16140199 0.22302419 -0.116225965 0.023218064
0.13039273 -0.22785515 -0.24528418 -0.10050328 0.39208087 0.38297248 0.0077929837 0.24386528
0.23025435 -0.44111487 -0.41929287 0.28698274 0.36243486 -0.64005995 0.18737857 -0.13026172
-0.284976 0.36161885 -0.21562828 -0.07506415 0.4395649 -0.46637022 -0.030620612 -0.38429835
0.37309507 -0.343475 0.09655644 -0.32691962 -0.08205352 0.16533335 0.50469726 -0.48102495
-0.19983402 -0.2271846 0.37933913 0.45272067 0.052942213 -0.1487236 -0.4041028 -0.46406305
00000000: 6053 28bf 2a29 f13e a492 fabe 9302 7a3e
00000010: eb76 6dbe da07 ffbe 690b e7bd 383c 1abf
00000020: c718 e03e 0e4d 49be a231 99be f4ef ecbe
00000030: 1a75 08bf a68f 6bbe 3162 d23e e015 25be
00000040: fd5b c8be 095d 07bc 9da2 60be 8de2 aa3e
00000050: 286d 023f d106 283d 5794 9abe 75e2 eabe
00000060: dfad 5d3c b728 80be 9c32 c83e 54dc b73e
00000070: d9a2 943d fdff 67be 52d4 ffbd 7e75 3bbf
00000080: 284e 1c3d 8a24 983e 9358 853e a347 b53e
00000090: dafa a43e a686 b23e 10af a1be 470e cebe
000000a0: f81c 5bbe d730 28bd 2087 e8be 6f7e fbbe
000000b0: 3fa5 eebe 2c6d c1be d8c0 cdbe d455 7c3d
000000c0: e64f 713c 8043 1abf 2875 a8be 8cf4 9abb
000000d0: cc66 c83d f579 2a3e 8bd4 0b3f b515 5abd
000000e0: bf5f e5bc a771 b8be e332 033f 11d5 e33e
000000f0: e70f 913e 7b07 083f 8d06 94be b113 1abd
00000100: 6352 a4be 84b2 a73e 19b1 ab3e 1e2e 19be
00000110: 64fc 083e 46c2 4dbe 8781 003f 676e 2f3e
00000120: 0e82 ed3e 8cc7 a43d dc9e abbd 4d98 8abe
00000130: a589 a63c 9bb3 d23e 48db 73be ab47 6e3e
00000140: 3b46 92bb 4357 adbe a8ba 433e b4d5 ebbc
00000150: 9046 25be 7460 643e e107 eebd cf33 be3c
00000160: ac85 053e dc52 69be c72b 7bbe aad4 cdbd
00000170: d3be c83e f814 c43e 495c ff3b d2b7 793e
00000180: ccc7 6b3e cfd9 e1be 8ead d6be 67ef 923e
00000190: 1091 b93e f8da 23bf 2be0 3f3e 5463 05be
000001a0: 60e8 91be 1b26 b93e a9cd 5cbe 3cbb 99bd
000001b0: a70e e13e 14c8 eebe 14d8 fabc c1c2 c4be
000001c0: 5106 bf3e f5db afbe 62bf c53d 0262 a7be
000001d0: ad0b a8bd 254d 293e d733 013f e748 f6be
000001e0: 4aa1 4cbe 14a3 68be bd38 c23e 01cb e73e
000001f0: efd9 583d 004b 18be 90e6 cebe ac99 edbe

weight f4 [128, 128]
-0.09204916 0.044464156 -0.17149165 0.011030434 -0.038557936 -0.15770917 -0.019737095 -0.0055465414
0.06583215 0.03287691 -0.08535713 -0.028587142 -0.07210648 -0.13006979 -0.07683297 -0.037307333
0.046076678 0.045991834 -0.1723969 -0.032037914 0.02139767 -0.042775076 -0.13644494 0.010312565
0.029502219 -0.120343566 0.05875492 0.018404769 0.04059593 -0.11465998 0.025696648 -0.058262303
-0.0581595 0.0036500755 -0.04621447 -0.085469894 -0.05381937 -0.08738604 -0.027409667 -0.07853176
-0.04721917 0.046977565 0.040858276 0.01409512 0.03859971 0.035442222 -0.18923241 -0.05440826
0.0149616515 -0.0618835 -0.03336583 -0.015952995 -0.08240555 -0.07279619 0.07994293 -0.07667808
0.03292682 -0.1108555 -0.026147725 0.04443985 -0.04017078 0.08413057 -0.07130468 -0.07498677
0.024797045 -0.03260525 0.0023157278 -0.09231231 -0.038716525 -0.10537007 -0.053113762 -0.09240119
-0.0666366 -0.15560691 -0.17469664 0.07240365 -0.07088391 -0.045004614 -0.15358971 -0.07422498
-0.11479021 -0.1762177 0.016259082 0.048908997 -0.09314669 -0.011388475 0.06336024 -0.064001165
-0.0069579612 0.030692058 0.044653345 -0.0100432215 -0.03351361 -0.010135732 -0.020506946 0.03499811
-0.05465412 -0.058686323 0.043257657 -0.01034105 -0.023428608 -0.072644725 0.035469405 -0.05233134
-0.0160541 -0.024900679 -0.038732626 0.014150529 0.05126413 -0.0054238355 -0.011415395 -0.1363813
-0.08785402 -0.069581226 -0.13930587 0.070763916 0.030682435 -0.07653698 0.0045415196 -0.0053517
-0.101581186 -0.08281811 -0.08708382 0.023284081 0.038613856 -0.0023483438 -0.041618343 0.02783402
-0.052080426 0.124316916 -0.15262417 0.016076013 -0.055186406 -0.13244416 0.09627489 -0.08218005
0.055682596 -0.04213817 0.008909877 0.029755903 -0.048217498 -0.06421976 0.027155478 0.00036312026
-0.06620323 0.048872255 -0.20439194 -0.022446236 0.11688847 0.004959483 -0.07030291 -0.076883286
0.08655386 0.0039046714 0.02348784 -0.03730516 0.033707496 -0.4364156 0.004353235 -0.43869045
0.027216649 0.07746336 -0.022545554 0.11303206 0.017939914 0.024012292 -0.28994036 0.017960586
0.044568054 -0.013836474 -0.052159905 -0.22831559 0.07735587 0.057749398 -0.20492987 -0.032594323
0.031788014 -0.3836786 -0.06066356 0.046827096 -0.028622981 0.07456745 0.054424446 0.029970393
-0.03863663 0.05489177 0.09990254 -0.02087221 -0.058373682 0.015264937 -0.103726886 -0.05098575
-0.07491732 0.0593641 0.006834938 -0.036799435 -0.0025586493 0.082208715 0.057280913 0.09312938
-0.0017626176 -0.06865308 -0.23134604 -0.14704742 -0.025086384 0.096337646 -0.031519387 -0.043189067
0.057391644 -0.24922201 0.05423353 -0.041414373 0.024184484 -0.050911777 0.061812684 -0.0109121045
0.027551457 -0.0161169 -0.048811335 -0.09903489 0.01205921 0.022769306 0.0248673 -0.026825009
0.06206514 0.0066742594 -0.10780827 0.112033375 0.07873975 -0.15082668 0.010453984 -0.084008895
-0.09656222 0.09794242 -0.022476919 -0.063376635 -0.0103122005 0.06286399 -0.06280421 -0.2106218
0.048921596 0.020461231 -0.11714805 0.038928684 -0.059199672 -0.034738198 0.049232524 -0.07061236
-0.031043196 -0.015305379 0.047676895 0.039624427 -0.029585453 0.025813635 0.008626034 0.03775906
00000000: 4584 bcbd 0c20 363d 829b 2fbe feb8 343c
00000010: edee 1dbd 837e 21be b0af a1bc c3bf b5bb
00000020: 02d3 863d f0a9 063d b8cf aebd 952f eabc
00000030: 90ac 93bd 0431 05be 9b5a 9dbd 93cf 18bd
00000040: e6ba 3c3d ef61 3c3d d088 30be 303a 03bd
00000050: 2b4a af3c eb34 2fbd 39b8 0bbe 08f6 283c
00000060: a3ae f13c b076 f6bd 00a9 703d 99c5 963c
00000070: eb47 263d dad2 eabd c781 d23c 74a4 6ebd
00000080: a838 6ebd 1b36 6f3b 624b 3dbd d70a afbd
00000090: b371 5cbd 74f7 b2bd 3d8a e0bc 42d5 a0bd
000000a0: e368 41bd 8c6b 403d 025b 273d 38ef 663c
000000b0: bb1a 1e3d dd2b 113d 24c6 41be 32db 5ebd
000000c0: b721 753c 8e79 7dbd 9caa 08bd dbaf 82bc
000000d0: 3ec4 a8bd 2b16 95bd 1eb9 a33d 6609 9dbd
000000e0: 46de 063d 3508 e3bd c133 d6bc 8f06 363d
000000f0: 1e8a 24bd a64c ac3d 3008 92bd aa92 99bd
00000100: 2c23 cb3c 158d 05bd 77c3 173b 3d0e bdbd
00000110: 3895 1ebd 43cc d7bd d18d 59bd d63c bdbd
00000120: c578 88bd 6b57 1fbe ade3 32be 5d48 943d
00000130: 952b 91bd c256 38bd 9f46 1dbe 4403 98bd
00000140: 2117 ebbd 6a72 34be c431 853c cd54 483d
00000150: b1c3 bebd ba96 3abc 03c3 813d 0b13 83bd
00000160: 9cff e3bb e96d fb3c 6de6 363d 538c 24bc
00000170: 9145 09bd 5710 26bc 2ffe a7bc 2e5a 0f3d
00000180: 00dd 5fbd 1261 70bd f12e 313d 826d 29bc
00000190: 5aed bfbc c2c6 94bd 5e48 113d 6359 56bd
000001a0: e383 83bc 82fc cbbc 1aa6 1ebd 9fd7 673c
000001b0: 56fa 513d 6eba b1bb a307 3bbc 8aa7 0bbe
000001c0: cfec b3bd 9a80 8ebd 33a6 0ebe acec 903d
000001d0: bb59 fb3c 6cbf 9cbd 07d1 943b 505d afbb
000001e0: cc09 d0bd 8b9c a9bd 0059 b2bd 42be be3c
000001f0: 9029 1e3d ace6 19bb ff77 2abd 2c04 e43c
00000200: 4952 55bd de99 fe3d 8349 1cbe d8b1 833c
00000210: 240b 62bd 719f 07be c52b c53d 044e a8bd
00000220: 6f13 643d 1399 2cbd bcfa 113c a7c2 f33c
00000230: b67f 45bd a685 83bd 2a75 de3c 2d61 be39
00000240: 8f95 87bd 462e 483d 1f4c 51be 2be1 b7bc
00000250: 3963 ef3d 2983 a23b f9fa 8fbd fc74 9dbd
00000260: 2643 b13d 84e5 7f3b 9269 c03c 4ccd 18bd
00000270: df10 0a3d de71 dfbe 95a5 8e3b 099c e0be
00000280: 73f5 de3c 1ca5 9e3d 74b1 b8bc 5a7d e73d
00000290: baf6 923c 6db5 c43c 1073 94be 1422 933c
000002a0: fe8c 363d 61b2 62bc a0a5 55bd 90cb 69be
000002b0: c16c 9e3d a28a 6c3d 23d9 51be a081 05bd
000002c0: 2634 023d 8571 c4be 5a7a 78bd c5cd 3f3d
000002d0: be7a eabc d2b6 983d 2bec 5e3d 7884 f53c
000002e0: 7141 1ebd 31d6 603d b499 cc3d 32fc aabc
000002f0: 3e19 6fbd c919 7a3c c36e d4bd 6fd6 50bd
00000300: 406e 99bd c527 733d 9ef7 df3b 01bb 16bd
00000310: 03af 27bb 0b5d a83d 649f 6a3d 9eba be3d
00000320: a207 e7ba fc99 8cbd fae5 6cbe 9993 16be
00000330: f681 cdbc ac4c c53d 791a 01bd 05e7 30bd
00000340: 8013 6b3d 0e34 7fbe fa23 5e3d 1ea2 29bd
00000350: 8a1e c63c de88 50bd 4c2f 7d3d afc8 32bc
00000360: 98b3 e13c 9707 84bc 65ee 47bd ced2 cabd
00000370: fe93 453c b286 ba3c 82b6 cb3c 1fc0 dbbc
00000380: 0438 7e3d bfb3 da3b 95ca dcbd c171 e53d
00000390: 4e42 a13d 4f72 1abe 3047 2b3c db0c acbd
000003a0: 6ac2 c5bd 0996 c83d 8421 b8bc 9ccb 81bd
000003b0: 81f4 28bc d6be 803d 7e9f 80bd 3ead 57be
000003c0: 0362 483d 509e a73c 51eb efbd af73 1f3d
000003d0: 5b7b 72bd a449 0ebd 0ba8 493d 379d 90bd
000003e0: 4d4e febc 6ac3 7abc d948 433d 394d 223d
000003f0: 315d f2bc 1e77 d33c 3554 0d3c 3ea9 1a3d

bias f4 [128]
0.037215218 0.056146357 -0.037680432 0.14886892 -0.03635325 -0.050214514 0.03440416 -0.032032374
0.024605764 0.04958737 0.05787071 0.1074312 0.041275226 0.056957744 0.09263899 -0.043768752
-0.087288566 -0.06516294 -0.03506258 0.1086674 0.06670493 -0.064226374 -0.029148096 0.0099060945
-0.045938972 0.051881548 -0.03469067 0.111652546 0.041460905 0.10033278 -0.08354321 0.06909752
-0.059087142 -0.008487125 0.0065005375 -0.0495451 0.063996986 0.11584057 -0.098942794 -0.06591452
-0.04473389 0.103433274 -0.03410135 0.011058864 -0.10762799 0.030750465 -0.0311728 -0.0679008
-0.03481958 -0.025081221 -0.099137 0.007500438 -0.113154665 -0.0033521287 -0.19072416 0.14447927
-0.0034007002 0.14919268 -0.010381179 -0.049673453 0.1011302 0.011782035 -0.03538065 0.07438001
-0.092220955 0.092576765 0.07061597 0.11456207 0.011827998 0.022546455 0.08492385 0.010037005
0.05302398 -0.08561989 -0.077126145 0.06371493 -0.02262544 0.035875354 0.051999412 0.04815457
0.016420498 0.11751818 0.04852058 0.01960515 -0.050344743 -0.07126143 -0.0064937244 0.063175015
-0.120340005 0.055095155 -0.048991654 -0.06871027 -0.039784905 0.1219646 -0.052011732 -0.0066371155
0.118308954 0.06821682 0.01972487 0.10760309 0.07011282 -0.018600497 0.13183889 -0.025000049
0.0056385845 -0.003668656 -0.087451 0.11844529 0.10989859 -0.0100638615 0.0771034 0.02589168
0.033446692 -0.019630197 -0.019126767 -0.049127225 0.11533683 -0.0934966 -0.015492267 -0.040034626
0.0027068546 -0.12896557 -0.10607097 -0.0420405 -0.029684953 0.10652278 0.13726528 0.102636606
00000000: fc6e 183d b9f9 653d cc56 1abd 1871 183e
00000010: 25e7 14bd bcad 4dbd 60eb 0c3d 6134 03bd
00000020: 0792 c93c 201c 4b3d d609 6d3d e404 dc3d
00000030: 3610 293d 864c 693d 83b9 bd3d dd46 33bd
00000040: 59c4 b2bd 2674 85bd c89d 0fbd 048d de3d
00000050: 989c 883d 1e89 83bd fdc7 eebc 2c4d 223c
00000060: 812a 3cbd bf81 543d ce17 0ebd 17aa e43d
00000070: e9d2 293d 467b cd3d b418 abbd 0083 8d3d
00000080: 5c05 72bd 950d 0bbc 7602 d53b ceef 4abd
00000090: da10 833d d23d ed3d 85a2 cabd 31fe 86bd
000000a0: e23a 37bd d3d4 d33d dbad 0bbd 3d30 353c
000000b0: 106c dcbd 66e8 fb3c 1a5e ffbc 930f 8bbd
000000c0: fa9e 0ebd 2277 cdbc 5708 cbbd 3cc6 f53b
000000d0: a2bd e7bd 63af 5bbb 324d 43be 60f2 133e
000000e0: 48de 5ebb f7c5 183e d215 2abc 6476 4bbd
000000f0: 5a1d cf3d 7009 413c 4deb 10bd 8c54 983d
00000100: 57de bcbd e398 bd3d 1b9f 903d 859f ea3d
00000110: 38ca 413c 58b3 b83c 8eec ad3d 4072 243c
00000120: ac2f 593d 7b59 afbd 50f4 9dbd f97c 823d
00000130: fd58 b9bc 09f2 123d 56fd 543d ba3d 453d
00000140: 4884 863c 5fad f03d 84bd 463d fb9a a03c
00000150: 4a36 4ebd 83f1 91bd 4fc9 d4bb e761 813d
00000160: d274 f6bd 75ab 613d 79ab 48bd f8b7 8cbd
00000170: 7ff5 22bd 94c8 f93d 410a 55bd 297c d9bb
00000180: f74b f23d 43b5 8b3d 0d96 a13c 025f dc3d
00000190: 4f97 8f3d 1260 98bc c600 073e e7cc ccbc
000001a0: e0c3 b83b d66d 70bb 8319 b3bd 7293 f23d
000001b0: 8312 e13d e5e2 24bc 63e8 9d3d ca1a d43c
000001c0: 66ff 083d 82cf a0bc bdaf 9cbc a139 49bd
000001d0: b735 ec3d 257b bfbd 47d3 7dbc 59fb 23bd
000001e0: 7c65 313b 8d0f 04be bd3b d9bd a932 2cbd
000001f0: dc2d f3bc 9e28 da3d 458f 0c3e 2433 d23d

weight f4 [128, 128]
0.010034951 -0.13490228 -0.020419024 0.012194308 0.01116898 -0.08709941 0.01970143 -0.07146643
-0.055174563 -0.04037411 0.021724923 -0.107316695 -0.10556051 0.016871363 -0.07839385 0.088949844
-0.017048208 -0.047120087 -0.13604331 -0.026906215 0.04012784 0.040927462 0.058734164 0.04614477
0.0030595586 0.0033578537 0.025402486 0.09431214 0.043014932 -0.064070694 -0.073635444 -0.080065586
-0.014077025 0.06256922 -0.05578918 -0.059834726 -0.011226836 -0.091059335 0.05379392 0.078393556
0.06697197 -0.05879541 0.02603686 0.010479035 0.14646463 -0.05740263 0.03375878 -0.012413292
-0.018986676 -0.1069155 0.07785026 0.053449206 -0.041542638 0.059539624 0.18146148 0.0033228549
0.15657218 0.10713774 0.013333939 -0.07928684 -0.015945975 -0.050130967 -0.05017276 -0.019252943
-0.028514909 0.01689829 0.03657574 -0.033097386 -0.07553891 0.010273501 0.015062837 -0.03249129
-0.039671037 0.009235807 -0.11427267 0.039345242 0.08672919 -0.03940947 -0.034827035 -0.1005028
0.0365422 -0.04894676 -0.028840482 0.028618928 0.023933649 0.05709379 0.015631178 0.074593894
0.07103897 -0.1249577 -0.017993791 -0.10983375 -0.07781033 0.039501417 0.13179964 0.06528993
-0.10772883 -0.08461148 -0.120354496 0.0067301374 0.009252384 -0.08646988 -0.015711451 0.12996274
0.15352538 0.10095619 0.032408737 -0.11612719 0.0002598253 0.08695627 0.037940122 0.008963142
-0.12104358 0.060668997 -0.057060733 0.10118475 0.046709627 0.173531 -0.032426782 -0.13279067
0.0087578595 0.01081735 0.047327615 -0.07134101 0.08540628 -0.01722364 0.030209184 0.08001753
0.053229652 -0.06789793 -0.051622715 0.05402184 0.034527034 0.012300506 0.036339045 -0.079703696
0.08016991 0.0044866744 0.05790068 -0.0074449633 -0.07106032 -0.073994756 -0.06787314 -0.028258905
0.014238012 -0.060397282 -0.06892463 0.014430733 0.03449167 -0.09346607 -0.038760863 0.061535828
-0.037836943 -0.10627909 0.015569158 -0.09534768 0.03113837 -0.023624837 0.047785945 -0.0614687
-0.011727773 0.08208712 0.04311154 0.009525493 0.06011415 0.029437972 -0.084914066 -0.029207248
0.054994963 -0.009164211 -0.11660276 -0.00024344317 0.047955897 0.0057602804 -0.03413978 -0.0068598273
-0.095032185 0.07289946 0.032453462 -0.061793983 0.02019851 -0.05947049 -0.11851438 0.014836567
-0.1206917 0.02229082 -0.052785117 -0.02850305 -0.0070494395 -0.039054714 -0.0029980615 -0.09259863
-0.013339259 -0.06199533 0.045202084 -0.104697555 0.056912757 -0.019375823 0.041033354 0.03638857
-0.0695042 -0.057755113 0.016817972 0.0439331 0.033708632 -0.006525992 0.067429595 0.021955838
0.02434291 -0.034789633 -0.06783387 -0.057108566 -0.06383745 -0.0114519 0.035243645 -0.05054011
0.0924731 -0.07765705 -0.06039887 0.046279717 -0.052293215 0.0034264063 -0.08070993 -0.07388002
-0.017773239 -0.11717566 0.029962767 -0.07246332 -0.063039936 0.043176807 -0.020939305 0.018877221
-0.017107232 -0.026692057 -0.040535703 0.02552455 -0.10095285 0.008086075 -0.01946906 0.013734676
-0.102589995 -0.046887726 -0.101796456 -0.04219251 0.009161307 0.051305033 -0.082031496 0.042945776
-0.044087287 0.047520466 0.019892871 0.07645296 0.014351969 -0.047008347 -0.082679756 0.037516415
00000000: a369 243c d323 0abe cc45 a7bc a3ca 473c
00000010: 19fe 363c 2d61 b2bd e564 a13c fe5c 92bd
00000020: b9fe 61bd 535f 25bd 77f8 b13c dbc8 dbbd
00000030: 1c30 d8bd d035 8a3c f48c a0bd 562b b63d
00000040: afa8 8bbc fe00 41bd f04e 0bbe 6c6a dcbc
00000050: 175d 243d 8ea3 273d 3c93 703d 4c02 3d3d
00000060: e082 483b 700f 5c3b e018 d03c b926 c13d
00000070: 6d30 303d 7f37 83bd 2ece 96bd 6df9 a3bd
00000080: 52a3 66bc 4b24 803d 3283 64bd 4215 75bd
00000090: c3f0 37bc 517d babd 0357 5c3d cd8c a03d
000000a0: 9a28 893d 75d3 70bd 414b d53c 42b0 2b3c
000000b0: d3fa 153e 051f 6bbd a646 0a3d 1f61 4bbc
000000c0: f289 9bbc 83f6 dabd f56f 9f3d 8eed 5a3d
000000d0: 9d28 2abd d2df 733d 0ad1 393e 41c4 593b
000000e0: 7554 203e 086b db3d 9876 5a3c 2461 a2bd
000000f0: 22a1 82bc 2156 4dbd f481 4dbd 59b8 9dbc
00000100: 1998 e9bc 486e 8a3c 71d0 153d 2091 07bd
00000110: 25b4 9abd 3052 283c 1eca 763c 9615 05bd
00000120: 197e 22bd c851 173c ca07 eabd 7a28 213d
00000130: 139f b13d d36b 21bd cba6 0ebd 69d4 cdbd
00000140: 46ad 153d 667c 48bd e042 ecbc 3e72 ea3c
00000150: 8010 c43c 2edb 693d f50c 803c afc4 983d
00000160: e17c 913d d3e9 ffbd b767 93bc 84f0 e0bd
00000170: 065b 9fbd 3dcc 213d 7cf6 063e bab6 853d
00000180: efa0 dcbd c948 adbd 6b7c f6bd 7c88 dc3b
00000190: 5097 173c 1f17 b1bd 4db5 80bc f414 053e
000001a0: c235 1d3e 1ec2 ce3d 06bf 043d 18d4 edbd
000001b0: 2939 8839 2116 b23d 1a67 1b3d 24da 123c
000001c0: b2e5 f7bd 0e80 783d 84b8 69bd f339 cf3d
000001d0: 9852 3f3d 1cb2 313e f2d1 04bd 47fa 07be
000001e0: 207d 0f3c 413b 313c 9ada 413d 3c1b 92bd
000001f0: 7de9 ae3d 9718 8dbc 4079 f73c 3be0 a33d
00000200: 5607 5a3d 120e 8bbd 5772 53bd 0146 5d3d
00000210: 386c 0d3d 1088 493c 40d8 143d b13b a3bd
00000220: 1f30 a43d f404 933b 4329 6d3d e1f4 f3bb
00000230: 1388 91bd 908a 97bd 1301 8bbd 387f e7bc
00000240: 8d46 693c 2463 77bd 5b28 8dbd e26e 6c3c
00000250: 2347 0d3d 246b bfbd b6c3 1ebd fe0c 7c3d
00000260: e9fa 1abd daa8 d9bd c815 7f3c a545 c3bd
00000270: e515 ff3c e088 c1bc 32bb 433d 9bc6 7bbd
00000280: d825 40bc 4b1d a83d ba95 303d d010 1c3c
00000290: 413a 763d e727 f13c 6de7 adbd 0a44 efbc
000002a0: 6642 613d 7d25 16bc 6ecd eebd c744 7fb9
000002b0: 676d 443d bcc0 bc3b 27d6 0bbd 67c8 e0bb
000002c0: 3ca0 c2bd 504c 953d eced 043d b01b 7dbd
000002d0: 5877 a53c 5497 73bd abb7 f2bd 1315 733c
000002e0: 362d f7bd 3d9b b63c 3535 58bd 3a7f e9bc
000002f0: fcfe e6bb d6f7 1fbd 207b 44bb 5aa4 bdbd
00000300: e88c 5abc d1ee 7dbd d225 393d ac6b d6bd
00000310: 5a1d 693d 0cba 9ebc 9712 283d 2e0c 153d
00000320: 3858 8ebd a090 6cbd d8c5 893c 32f3 333d
00000330: 1012 0a3d fdd7 d5bb 8718 8a3d bbdc b33c
00000340: c86a c73c 937f 0ebd 7cec 8abd acea 69bd
00000350: 36bd 82bd c0a0 3bbc a45b 103d 2503 4fbd
00000360: 8962 bd3d a90a 9fbd ce64 77bd cd8f 3d3d
00000370: 6931 56bd 8f8d 603b 3f4b a5bd 684e 97bd
00000380: 2f99 91bc cbf9 efbd 7a74 f53c a667 94bd
00000390: 151b 81bd 2ada 303d e888 abbc 67a4 9a3c
000003a0: 7724 8cbc 4da9 dabc c408 26bd dc18 d13c
000003b0: 5ec0 cebd 757b 043c 947d 9fbc 6807 613c
000003c0: b41a d2bd 580d 40bd a97a d0bd 0ed2 2cbd
000003d0: 4e19 163c 3a25 523d 2100 a8bd e9e7 2f3d
000003e0: df94 34bd d2a4 423d 60f6 a23c 5f93 9c3d
000003f0: 8524 6b3c d38b 40bd 0154 a9bd d0aa 193d

bias f4 [128]
-0.121383846 -0.10640689 0.17132656 0.10956864 0.15521261 0.05206973 0.025328176 -0.054872062
-0.04282336 0.06294055 -0.024388716 -0.09399727 -0.034137335 -0.04859675 -0.020090662 0.0364493
-0.023565736 0.11805166 -0.049980003 0.17426798 -0.0012334704 0.0757351 0.17029436 -0.031616576
-0.02166912 -0.06287475 -0.094049536 -0.05525077 0.016061014 -0.04390842 -0.04371441 0.16206901
0.064559795 -0.022395954 -0.015965126 0.0184208 0.005737409 0.047347665 -0.03238068 0.05788721
0.054843258 0.051638473 -0.02296091 0.034248374 -0.018662343 0.016608305 0.16082479 0.1494264
0.00649143 -0.03572964 0.15201424 0.12157954 0.14130259 0.00771179 0.01503227 0.06051437
0.07223778 0.13745147 0.052435722 0.13061692 0.15251589 -0.024042014 0.011456236 -0.076608896
-0.11160237 0.14115176 0.1268618 0.14309496 0.07209378 -0.014898936 -0.068884045 -0.024508014
0.1742165 0.0035762354 -0.069924906 0.1290818 0.1691691 -0.0049503595 0.011622879 -0.000274901
0.068460636 0.01113309 -0.029460793 0.06662901 0.042496324 0.12047122 -0.06314967 -0.008095896
0.028371248 0.14078903 0.17817615 0.046401814 0.061199583 -0.08482453 -0.043643843 0.16378313
0.1463603 0.0029971446 -0.02640792 0.06843204 0.05333914 0.1166771 -0.04351352 -0.067820095
0.15282328 -0.095866926 -0.0996084 -0.027509248 -0.08468656 0.07162642 -0.0053819283 -0.0900316
-0.035823703 0.15092212 -0.012596402 0.0033161442 0.11434803 -0.084965125 0.14897226 0.05919907
0.06772708 0.13090797 0.04015695 0.08341853 -0.022528157 -0.04971321 0.16443719 -0.08892864
00000000: 1898 f8bd dbeb d9bd 3b70 2f3e 8665 e03d
00000010: 0ef0 1e3e 1247 553d 097d cf3c 87c1 60bd
00000020: 8c67 2fbd fae6 803d d8ca c7bc a481 c0bd
00000030: 97d3 0bbd 630d 47bd 2c95 a4bc dc4b 153d
00000040: ee0c c1bc 12c5 f13d d5b7 4cbd 4e73 323e
00000050: 66ac a1ba 011b 9b3d a561 2e3e 6280 01bd
00000060: 7083 b1bc 7ac4 80bd 0b9d c0bd a24e 62bd
00000070: 6392 833c 51d9 33bd e20d 33bd 6bf5 253e
00000080: ed37 843d b877 b7bc 4cc9 82bc 38e7 963c
00000090: e000 bc3b a0ef 413d 9ba1 04bd 241b 6d3d
000000a0: 53a3 603d dd82 533d 8518 bcbc 0648 0c3d
000000b0: c5e1 98bc 240e 883c 41af 243e 3c03 193e
000000c0: 10b6 d43b 3e59 12bd 9fa9 1b3e b2fe f83d
000000d0: a0b1 103e 2fb3 fc3b e949 763c ebdd 773d
000000e0: 67f1 933d 14c0 0c3e d7c6 563d 71c0 053e
000000f0: 202d 1c3e c2f3 c4bc f0b2 3b3c 20e5 9cbd
00000100: c98f e4bd 168a 103e 0fe8 013e 7c87 123e
00000110: e7a5 933d ab1a 74bc 1413 8dbd 08c5 c8bc
00000120: cf65 323e 465f 6a3b ca34 8fbd 052e 043e
00000130: aa3a 2d3e a036 a2bb e36d 3e3c 9620 90b9
00000140: 1735 8c3d 9067 363c c357 f1bc ca74 883d
00000150: a010 2e3d 9db9 f63d 9d54 81bd a6a4 04bc
00000160: d26a e83c 002b 103e cf73 363e d40f 3e3d
00000170: 6aac 7a3d 7cb8 adbd e3c3 32bd c4b6 273e
00000180: 79df 153e be6b 443b 6c55 d8bc 1926 8c3d
00000190: 247a 5a3d 67f4 ee3d 3c3b 32bd 43e5 8abd
000001a0: b57d 1c3e e155 c4bd 7dff cbbd 135b e1bc
000001b0: 2670 adbd dfb0 923d e35a b0bb 7d62 b8bd
000001c0: e0bb 12bd 548b 1a3e 2461 4ebc ab53 593b
000001d0: 4d2f ea3d 3202 aebd 2f8c 183e b97a 723d
000001e0: 7fb4 8a3d bd0c 063e 9d7b 243d 56d7 aa3d
000001f0: f88c b8bc 14a0 4bbd 3962 283e 3820 b6bd

weight f4 [128, 128]
-0.008466408 -0.04777206 -0.0026545855 0.015673932 0.06934312 -0.09770772 -0.043578133 0.07371507
0.03885431 -0.018720783 0.04874236 0.03444265 0.0019525588 0.025315627 -0.07839632 -0.020061634
-0.0018930882 -0.014618936 -0.03756946 0.011795024 0.063719206 0.013178038 0.021105936 0.05045635
0.05421924 -0.06038616 -0.08249687 0.08308027 -0.018883882 -0.03940235 -0.017152853 -0.0317779
-0.036385704 0.019731004 0.07985606 -0.03119855 -0.056847688 -0.053741306 -0.06478863 -0.08128008
0.061869953 0.014607742 0.027495435 0.004003143 -0.017626695 0.029419415 0.025950653 -0.07400679
-0.0200935 0.068147205 -0.058845453 0.054450065 0.051005825 0.0719826 -0.03769796 -0.065931424
0.059268225 -0.020556236 0.048204772 -0.089271404 0.015856162 0.009677537 0.07129716 0.08007046
-0.038549658 -0.08716823 -0.08118927 -0.050347332 0.06264958 0.054617338 0.03312909 -0.020717666
0.0018702825 0.024874708 -0.053051215 -0.015578664 -0.006307679 -0.08398895 0.037272744 -0.06661631
0.06432047 0.014691694 -0.05244563 0.03864836 0.048667796 -0.007375017 -0.08561808 -0.081846304
0.07698285 0.044317596 -0.025860285 -0.02999801 -0.038235206 0.019776493 0.054008447 0.008735219
-0.016249642 -0.045767874 0.024039105 -0.048465654 -0.04834463 -0.03724299 -0.06430326 -0.0824818
0.0063811326 0.08392943 0.010974593 0.019449068 0.02590178 -0.0882659 0.019866971 0.0863348
0.061390974 -0.03359601 -0.08269652 -0.06496784 0.062321097 0.016577922 -0.09014961 -0.0119928615
0.015160845 -0.04151975 -0.085777916 -0.09078749 0.005242711 -0.06902374 -0.056019265 0.007431723
0.014996192 -0.03837384 -0.07213851 -0.014221571 -0.05286243 -0.0472612 -0.022584924 -0.08143185
-0.08191888 -0.04256272 -0.07113586 -0.011716589 0.06748628 0.08573406 0.052734725 -0.015375979
-0.07205257 -0.051305663 0.010943134 -0.014664715 -0.021975711 -0.09093808 0.0671872 -0.02139407
0.020613529 -0.055609975 0.033551037 -0.07900894 0.022396699 -0.080291316 0.022252806 -0.0571058
0.02979467 -0.039067525 -0.022825457 0.08521085 -0.05170782 0.018670306 -0.0032009035 -0.021289593
-0.066924155 -0.06524089 -0.036952186 0.06652548 -0.019323058 0.05977019 -0.018037133 -0.019574668
-0.04355961 -0.054244287 0.07809194 0.04184756 -0.08975411 -0.047946244 -0.08653505 0.046826296
-0.075491875 0.0059465393 -0.023321062 -0.01106881 0.012693696 -0.08435505 -0.017870337 -0.023717366
0.0080267275 -0.066592805 0.05774636 0.0182603 0.04723694 0.001543954 0.033159394 -0.0044812188
-0.074016936 0.0857426 0.024192743 0.023024283 -0.045901407 -0.071352586 -0.09737423 0.07873898
-0.022655435 -0.06691048 -0.036982533 0.037513085 0.068498544 -0.0024320185 0.049104393 -0.008386537
0.06862289 -0.014101416 -0.06703819 0.053052478 -0.046064712 0.04896131 -0.009574138 0.018893601
-0.08040569 0.03111288 -0.006610535 -0.077473305 -0.05299607 0.026109204 0.0029626489 -0.031742983
-0.08759313 -0.04971245 -0.06616607 -0.063893825 0.0067751044 -0.08669742 -0.080005415 5.9753656e-05
0.059586786 0.018130362 0.055281766 -0.01688549 -0.034323636 -0.031105384 -0.03614264 -0.04774629
0.026625536 -0.007855676 -0.10169563 -0.040897414 0.0412691 -0.035204746 -0.09320683 0.011247158
00000000: b0b6 0abc a3ac 43bd 8ef8 2dbb 9e66 803c
00000010: c403 8e3d fc1a c8bd fc7e 32bd edf7 963d
00000020: b225 1f3d 545c 99bc 12a6 473d bc13 0d3d
00000030: 00ed ff3a b862 cf3c 408e a0bd 4c58 a4bc
00000040: 8021 f8ba 4384 6fbc 6fe2 19bd eb3f 413c
00000050: 377f 823d b3e8 573c 5be6 ac3c 51ab 4e3d
00000060: fe14 5e3d 7a57 77bd 1ef4 a8bd fd25 aa3d
00000070: 5fb2 9abc 5c64 21bd 2484 8cbc 8b29 02bd
00000080: 2d09 15bd eaa2 a13c 938b a33d 1a94 ffbc
00000090: 1fd9 68bd d81f 5cbd e7af 84bd 2c76 a6bd
000000a0: 596b 7d3d 5055 6f3c 1b3e e13c cc2c 833b
000000b0: dc65 90bc fc00 f13c 7796 d43c df90 97bd
000000c0: 209b a4bc c390 8b3d ee07 71bd 0807 5f3d
000000d0: 7ceb 503d 9d6b 933d 2d69 1abd 0e07 87bd
000000e0: 3dc3 723d 8d65 a8bc 5e72 453d edd3 b6bd
000000f0: c8e4 813c 888e 1e3c 3f04 923d fbfb a33d
00000100: 3fe6 1dbd 4285 b2bd 8f46 a6bd 0139 4ebd
00000110: 6c4e 803d 6eb6 5f3d 5eb2 073d 18b8 a9bc
00000120: 4424 f53a 0bc6 cb3c 3b4c 59bd a73d 7fbc
00000130: a6b0 cebb 6602 acbd 4eab 183d 226e 88bd
00000140: 73ba 833d 6eb5 703c 3bd1 56bd be4d 1e3d
00000150: e257 473d 20aa f1bb 8858 afbd 099f a7bd
00000160: 2fa9 9d3d 5e86 353d f3d8 d3bc 63be f5bc
00000170: 859c 1cbd 5002 a23c f637 5d3d 2a1e 0f3c
00000180: f81d 85bc 1877 3bbd a8ed c43c ec83 46bd
00000190: 0505 46bd 1b8c 18bd 6db1 83bd 38ec a8bd
000001a0: d218 d13b 31e3 ab3d c8ce 333c a753 9f3c
000001b0: f82f d43c c1c4 b4bd 0fc0 a23c 4dd0 b03d
000001c0: 1a75 7b3d f89b 09bd cb5c a9bd dc0d 85bd
000001d0: 6844 7f3d 6cce 873c 5ca0 b8bd b57d 44bc
000001e0: 3165 783c 9d10 2abd 55ac afbd cbee b9bd
000001f0: 0ccb ab3b 525c 8dbd 7574 65bd d085 f33b
00000200: 97b2 753c e32d 1dbd 5bbd 93bd 9801 69bc
00000210: 4786 58bd f694 41bd 0504 b9bc bec5 a6bd
00000220: 16c5 a7bd 3f56 2ebd aeaf 91bd f0f6 3fbc
00000230: 3f36 8a3d 5795 af3d 5e00 583d 88eb 7bbc
00000240: 4c90 93bd e325 52bd d54a 333c 4644 70bc
00000250: 6806 b4bc be3d babd 7199 893d 9e42 afbc
00000260: b4dd a83c 49c7 63bd d06c 093d 70cf a1bd
00000270: 4879 b73c c66f a4bd 844b b63c c5e7 69bd
00000280: f413 f43c 4505 20bd 74fc babc 0783 ae3d
00000290: 94cb 53bd 78f2 983c 40c6 51bb 8367 aebc
000002a0: 880f 89bd 049d 85bd 2d5b 17bd 833e 883d
000002b0: 644b 9ebc 96d1 743d 9cc2 93bc 0e5b a0bc
000002c0: 906b 32bd 422f 5ebd abee 9f3d 5968 2b3d
000002d0: 01d1 b7bd 4863 44bd 4a39 b1bd eecc 3f3d
000002e0: 7c9b 9abd 30db c23b d00b bfbc f459 35bc
000002f0: 38f9 4f3c 57c2 acbd d064 92bc ec4a c2bc
00000300: 8982 033c cf61 88bd 7287 6c3d a096 953c
00000310: 867b 413d 805e ca3a 25d2 073d 30d7 92bb
00000320: 3196 97bd d199 af3d dc2f c63c 6c9d bc3c
00000330: 1d03 3cbd 4e21 92bd 246c c7bd e741 a13d
00000340: e497 b9bc 5d08 89bd ff7a 17bd 52a7 193d
00000350: f748 8c3d 8062 1fbb b021 493d b067 09bc
00000360: 288a 8c3d a009 67bc 524b 89bd 8e4d 593d
00000370: 5aae 3cbd a88b 483d d8dc 1cbc c1c6 9a3c
00000380: bdab a4bd 70e0 fe3c 309d d8bb 53aa 9ebd
00000390: 6812 59bd f8e2 d53c 0029 423b ee04 02bd
000003a0: 0764 b3bd 489f 4bbd 1482 87bd c4da 82bd
000003b0: b201 de3b 6b8e b1bd e1d9 a3bd 00a0 7a38
000003c0: 4611 743d 2086 943c 226f 623d 7053 8abc
000003d0: f196 0cbd b8d0 febc 4e0a 14bd 9d91 43bd
000003e0: cc1d da3c 18b5 00bc cc45 d0bd 0c84 27bd
000003f0: ca09 293d da32 10bd 39e3 bebd 0046 383c

bias f4 [128]
0.024807954 -0.06912771 -0.03446306 0.00070916204 0.14418034 0.012282372 0.046749655 0.11588844
0.038400374 0.036489256 0.07901654 -0.016636647 0.1411191 -0.09788268 -0.050022956 0.09009288
-0.07247727 0.17153266 0.12180194 0.09422452 -0.039863694 0.0853657 -0.042244658 0.11056194
0.13185817 -0.04818505 -0.07581096 -0.02666825 -0.09732558 -0.05245686 0.03433844 -0.08723025
0.045819864 0.13479643 0.13831487 -0.015120778 0.050153203 -0.03939114 0.007825633 -0.022569625
-0.103178166 -0.07040112 -0.0653309 0.05864953 -0.09576213 0.13626692 -0.029948927 -0.0019381152
0.07026935 0.0022907665 0.17857546 -0.014328466 -0.02696454 0.013469699 -0.043701265 0.049847435
-0.0067224875 0.051908396 0.086957976 0.09685272 0.012431225 0.058495358 0.19553672 -0.025981564
0.0008966804 -0.09772618 -0.0032632276 -0.107202865 0.10662264 0.14873838 0.053923093 -0.015753297
-0.05469598 0.09869901 -0.081582256 0.015179006 0.053776737 0.072847664 -0.081378505 0.13010244
0.024697652 -0.046092477 0.09200546 0.06530018 -0.064425275 -0.0032840664 -0.05206522 0.19067408
-0.088178195 0.11901881 -0.035997286 -0.02835944 0.036794 -0.044912912 0.14805762 0.067536116
0.015960641 0.107622944 -0.095868565 -0.008541043 0.17581065 0.13825789 0.15534236 0.12982152
0.007197745 0.20586134 0.13075891 -0.00092315284 0.0009882869 0.03099337 0.1718657 -0.065609425
0.045191303 -0.046190236 -0.041357618 -0.107348904 0.1600239 0.16746612 -0.056365415 -0.010027742
-0.0029231173 0.16860864 -0.10470516 0.013496952 0.062437173 0.12393287 0.05742084 0.04788154
00000000: 0d3a cb3c d492 8dbd 2329 0dbd 0fe7 393a
00000010: 03a4 133e 013c 493c 917c 3f3d eb56 ed3d
00000020: b649 1d3d c275 153d 6cd3 a13d 9449 88bc
00000030: 8681 103e b776 c8bd dfe4 4cbd 9e82 b83d
00000040: f76e 94bd 42a6 2f3e 4c73 f93d c9f8 c03d
00000050: 1d48 23bd 36d4 ae3d bc08 2dbd 4c6e e23d
00000060: d405 073e b05d 45bd c742 9bbd 6077 dabc
00000070: a252 c7bd 01dd 56bd 77a6 0c3d c6a5 b2bd
00000080: 9cad 3b3d 1308 0a3e 6aa2 0d3e 24bd 77bc
00000090: 726d 4d3d 9b58 21bd 1537 003c efe3 b8bc
000000a0: 134f d3bd 762e 90bd 35cc 85bd 7d3a 703d
000000b0: f01e c4bd 8e89 0b3e 7457 f5bc 5b08 feba
000000c0: 61e9 8f3d af20 163b 7cdc 363e f1c1 6abc
000000d0: bde4 dcbc 03b0 5c3c 1900 33bd d32c 4c3d
000000e0: 5048 dcbb e69d 543d 0617 b23d b85a c63d
000000f0: 56ac 4b3c d498 6f3d c73a 483e 4ad7 d4bc
00000100: 340f 6b3a aa24 c8bd e0db 55bb 2d8d dbbd
00000110: f85c da3d e04e 183e 76de 5c3d 0f0d 81bc
00000120: e408 60bd b522 ca3d 9914 a7bd 5eb1 783c
00000130: ff44 5c3d 2831 953d c6a9 a6bd 9339 053e
00000140: bb52 ca3c 77cb 3cbd 5c6d bc3d 1abc 853d
00000150: 66f1 83bd 7e39 57bb 5742 55bd 1140 433e
00000160: c596 b4bd 22c0 f33d e471 13bd 0e52 e8bc
00000170: 4eb5 163d 9af6 37bd 6b9c 173e 6050 8a3d
00000180: e4bf 823c 6b69 dc3d bd56 c4bd bbef 0bbc
00000190: b507 343e 7a93 0d3e 1112 1f3e efef 043e
000001a0: 10db eb3b 51cd 523e aae5 053e bdff 71ba
000001b0: 6889 813a cfe5 fd3c 90fd 2f3e 3c5e 86bd
000001c0: 841a 393d f931 3dbd 9b66 29bd bed9 dbbd
000001d0: 4edd 233e 3d7c 2b3e 6cdf 66bd 664b 24bc
000001e0: c591 3fbb bea7 2c3e a96f d6bd 5222 5d3c
000001f0: 1fbe 7f3d 84d0 fd3d 1d32 6b3d 6f1f 443d

weight f4 [2, 128]
0.06188815 -0.012484415 0.0661161 0.014786994 0.01778881 0.16404185 0.15287068 -0.014543306
-0.0842424 0.12623486 0.16126929 0.015201233 0.10854591 -0.04131587 -0.02131322 0.16112337
0.06238333 0.039304793 -0.0053739864 0.046262424 0.036522247 0.08641869 -0.052124567 0.0044524823
0.15602951 0.06688149 0.042549342 0.041637868 0.053731713 -0.04492497 0.08714953 -0.015345766
-0.01136354 0.10418802 0.04106671 -0.062460404 -0.007815132 0.09496226 -0.021600015 -0.050707024
0.04016903 -0.0013656324 0.043430027 0.031928938 -0.008637279 0.10944247 -0.014216918 -0.08815595
0.030051744 -0.08233826 0.10017235 -0.22561267 0.058447786 -0.018039232 0.0067944303 -0.001541418
0.057077326 0.015824506 0.100633346 0.089091726 -0.0358691 0.0028589293 0.14634839 -0.08004579
0.0051084217 -0.0391437 0.0883053 -0.030775199 0.10951932 0.12817153 0.052301846 0.058914788
-0.050476987 0.014056044 0.027822398 0.028352827 0.024980456 0.099542275 0.011101588 -0.016704924
-0.06764534 -0.050023187 0.054536726 -0.06373014 -0.03601714 0.020175695 -0.050108913 0.07882528
-0.063971855 0.1339758 0.09441448 -0.025056357 0.010984831 0.016088262 0.09349756 0.050416455
0.056862954 0.12272309 -0.079084486 0.019025095 0.13491894 -0.00089012616 0.063394405 -0.014439797
0.028000586 0.13847479 -0.02545648 0.03203946 0.04461368 0.14794733 0.11572622 0.05951529
0.13270564 -0.029130384 0.059113078 -0.018424647 0.09512458 0.09669093 -0.058180172 -0.024526507
0.11464747 0.030625938 0.04757074 0.059277933 0.07629378 0.15277305 0.16254883 0.02012507
-0.038318276 0.0810061 0.004303526 -0.04557498 0.1215895 -0.014547496 -0.060259037 0.10207947
0.0015985396 0.023946427 0.10042951 0.00819207 0.11991039 -0.04453003 0.03445807 0.012944748
-0.03348784 0.09734533 0.12327477 0.12341067 -0.053980373 0.120477214 -0.03484649 0.0438928
0.05542221 0.017329426 -0.03240043 -0.007591216 -0.052212633 0.070009924 0.017044323 0.07229873
-0.066443324 0.09620652 0.081342734 0.01663728 0.00858908 -0.035215966 -0.033127222 0.117546126
-0.065412305 -0.042413343 -0.11493366 -0.055005897 -0.006914638 0.08137323 0.07291093 -0.07550454
0.049666446 -0.0029360657 0.099209286 0.21521524 -0.064021885 0.068195984 -0.087006934 0.034067128
0.07379442 -0.0058493316 0.085060805 0.11389062 -0.009492449 -0.0050554313 0.08866813 -0.06702176
-0.06688312 0.07858481 -0.05293981 0.0019719133 0.096523404 0.08402004 -0.025306396 -0.029349077
0.002805054 -0.00094942865 0.010501623 -0.04641707 -0.0095589515 -0.0021382126 -0.01731398 0.07529877
-0.03694718 0.060869314 0.10047448 -0.01691477 0.05952131 -0.049329504 0.068327494 0.04996718
-0.009174377 0.10417377 -0.06996035 -0.035940565 -0.0087437015 0.027147837 0.020991357 0.04393321
-0.20232569 0.049918868 0.010929056 -0.034907054 0.11376823 0.12544023 0.09210813 0.07861466
-0.054554667 0.18564135 0.11501501 0.11155258 -0.060465716 -0.13578255 0.046078973 -0.064414695
0.096958585 -0.074547745 -0.080293685 -0.041678425 0.06697309 0.09644396 0.037435286 -0.036960885
0.004307001 0.081317514 -0.0115062995 0.066645026 0.10245452 0.0568317 -0.05288553 -0.05636915
00000000: 6e7e 7d3d 6f8b 4cbc e167 873d 2645 723c
00000010: d7b9 913c 96fa 273e 228a 1c3e 0c47 6ebc
00000020: 4887 acbd b643 013e c723 253e 980e 793c
00000030: 514d de3d d43a 29bd 1099 aebc 86fd 243e
00000040: aa85 7f3d 10fe 203d 4418 b0bb ab7d 3d3d
00000050: 5a98 153d 48fc b03d 9280 55bd 21e6 913b
00000060: 33c6 1f3e 2af9 883d 3848 2e3d 788c 2a3d
00000070: c915 5c3d 3f03 38bd 747b b23d cf6c 7bbc
00000080: 242e 3abc 8760 d53d 9135 283d 7bd6 7fbd
00000090: 0a0b 00bc 937b c23d 84f2 b0bc 2bb2 4fbd
000000a0: 4888 243d 05ff b2ba afe3 313d ebc7 023d
000000b0: 6083 0dbc 6023 e03d 13ee 68bc 1b8b b4bd
000000c0: 132f f63c f6a0 a8bd 2927 cd3d 0207 67be
000000d0: f266 6f3d 03c7 93bc d0a3 de3b 6809 caba
000000e0: eac9 693d 65a2 813c db18 ce3d b975 b63d
000000f0: 7aeb 12bd e05c 3b3b 5adc 153e 0cef a3bd
00000100: 8c64 a73b 2555 20bd 69d9 b43d 451c fcbc
00000110: aa4b e03d 663f 033e 763a 563d a250 713d
00000120: f5c0 4ebd 524b 663c cceb e33c 3044 e83c
00000130: d0a3 cc3c d2dc cb3d 6fe3 353c c4d8 88bc
00000140: a489 8abd 1de5 4cbd e761 5f3d f384 82bd
00000150: b586 13bd 8047 a53c 013f 4dbd 266f a13d
00000160: ad03 83bd f430 093e 615c c13d fd42 cdbc
00000170: b8f9 333c 88cb 833c a67b bf3d 7c81 4e3d
00000180: 21e9 683d 3e56 fb3d 0cf7 a1bd 84da 9b3c
00000190: 3128 0a3e 5b57 69ba edd4 813d e694 6cbc
000001a0: 7c61 e53c 56cc 0d3e 1c8a d0bc cf3b 033d
000001b0: d6bc 363d 817f 173e de01 ed3d 4ec6 733d
000001c0: fde3 073e d8a2 eebc 8e20 723d 49ef 96bc
000001d0: add0 c23d e505 c63d 554e 6ebd d0eb c8bc
000001e0: 4bcc ea3d 3fe3 fa3c 89d9 423d 6bcd 723d
000001f0: ea3f 9c3d 8a70 1c3e 3373 263e 55dd a43c
00000200: a0f3 1cbd 87e6 a53d 9804 8d3b d5ac 3abd
00000210: ea03 f93d 9f58 6ebc 2ed2 76bd 0b0f d13d
00000220: 1786 d13a 4c2b c43c fdad cd3d 0838 063c
00000230: 9493 f53d 1f65 36bd e823 0d3d 3516 543c
00000240: 8c2a 09bd fd5c c73d 7c77 fc3d bcbe fc3d
00000250: 861a 5dbd c2bc f63d 31bb 0ebd f0c8 333d
00000260: 6602 633d 71f6 8d3c 50b6 04bd bcbf f8bb
00000270: eadc 55bd 5d61 8f3d 89a0 8b3c 5b11 943d
00000280: 7013 88bd ed07 c53d 0597 a63d e84a 883c
00000290: 36b9 0c3c 9e3e 10bd 69b0 07bd 06bc f03d
000002a0: e3f6 85bd 9db9 2dbd 5762 ebbd dd4d 61bd
000002b0: 3094 e2bb 02a7 a63d 5352 953d 20a2 9abd
000002c0: 0b6f 4b3d 026b 40bb 3d2e cb3d 6261 5c3e
000002d0: e81d 83bd 56aa 8b3d b130 b2bd f989 0b3d
000002e0: 8721 973d c0ab bfbb 5c34 ae3d 7c3f e93d
000002f0: 3886 1bbc 08a8 a5bb a397 b53d b442 89bd
00000300: 04fa 88bd 13f1 a03d 6ad7 58bd 373b 013b
00000310: 10ae c53d b312 ac3d 5c4f cfbc 7a6d f0bc
00000320: ffd4 373b 14e3 78ba 000f 2c3c d31f 3ebd
00000330: 269d 1cbc 4121 0cbb 0cd6 8dbc 3e36 9a3d
00000340: ed55 17bd 1a52 793d 90c5 cd3d d890 8abc
00000350: 9ecc 733d bc0d 4abd 49ef 8b3d 63aa 4c3d
00000360: 2050 16bc 0f59 d53d 5f47 8fbd 6a36 13bd
00000370: be41 0fbc 2465 de3c 11f6 ab3c 4ff3 333d
00000380: 772e 4fbe ba77 4c3d c90f 333c b3fa 0ebd
00000390: 51ff e83d 6773 003e 30a3 bc3d b900 a13d
000003a0: b774 5fbd c418 3e3e fd8c eb3d ae75 e43d
000003b0: e6aa 77bd 950a 0bbe 4ebd 3c3d daeb 83bd
000003c0: 3992 c63d 7dac 98bd 0471 a4bd ffb6 2abd
000003d0: 3029 893d 6984 c53d be55 193d 4c64 17bd
000003e0: be21 8d3b cc89 a63d eb84 3cbc 307d 883d
000003f0: add3 d13d 5bc8 683d 7f9e 58bd 56e3 66bd

bias f4 [2]
0.14447966 0.13722649
00000000: 7af2 133e 1a85 0c3e

weight f4 [128, 4]
0.32284936 0.20573734 -0.4962883 -0.07257522 0.14053416 -0.36269492 0.20494755 -0.22896309
-0.14061965 -0.42527053 0.7812628 -0.06530162 0.059464853 -0.05590693 -0.75487584 -0.15323447
-0.21351543 0.08301808 -0.5879988 -0.32857364 -0.24829707 -0.01734287 -0.1866148 0.2342684
-0.49800843 -0.3359939 0.48448646 -0.3629292 0.36723655 0.2808201 0.39452118 -0.035452724
-0.00546992 0.2045943 -0.13488698 0.20369026 0.27489576 -0.41827118 0.9203566 -0.016143883
-0.0125546465 -0.20886672 -0.26745188 0.20166391 0.5825494 -0.26947704 -0.6729833 -0.48870394
-0.4665401 -0.26184833 0.044312447 0.30733788 -0.06308767 -0.18702047 -1.0200641 -0.41408238
-0.021353887 -0.5342717 -0.25867513 -0.2670805 0.32157987 -0.11379386 -0.5173931 0.037909944
-0.27582157 0.17246464 -0.23586701 0.124362566 0.082888156 0.35233873 0.36661822 0.03363866
0.11485182 0.09095383 0.8574252 0.18573707 -0.4643609 -0.42677006 0.39110118 -0.1917635
-0.42332867 0.46277082 0.28355765 0.43712568 0.21667148 -0.36197495 -0.99024314 -0.17497721
-0.110445246 -0.16194174 0.5687359 0.31376407 -0.40239838 -0.10673788 0.37612334 -0.056049485
-0.32380772 -0.07619736 -0.2663187 0.010602365 -0.086832024 -0.14601362 0.1321255 0.41892257
0.17908011 -0.44997722 0.10447026 -0.115147464 -0.62288296 -0.25039384 0.11758506 -0.11403235
0.22422531 0.3027613 0.37237376 -0.027277598 -0.24449071 0.18258522 0.8358096 0.14881356
-0.43365803 -0.038083997 0.59295756 0.040918972 0.40142065 -0.03526886 0.081242554 0.077399105
-0.2575638 0.12299626 0.48941967 0.19548911 0.3548624 -0.401321 0.58392006 -0.19373089
0.123731405 0.12940553 -0.13107073 -0.24932379 -0.028249402 0.2186098 0.38289118 0.015320232
0.5327822 -0.36145523 -0.43133977 -0.29952842 -0.018392103 -0.4127345 -0.10213543 -0.49188876
-0.7224355 0.38642445 0.61857104 0.41975936 -0.2587317 -0.2862503 0.2883963 -0.0018792743
-0.030671546 0.02655103 -0.22978225 -0.44592884 0.10729374 0.13170743 -0.20549838 -0.2617492
-0.13899451 -0.16464555 0.17486686 -0.11260229 -0.121505536 -0.39925864 -0.21337202 -0.47984144
-0.1729551 0.021564359 -0.16093108 -0.13059558 -0.22051723 -0.11715431 -0.07127464 0.2568871
-0.118624106 -0.25637883 -0.7601462 -0.4912981 -0.12134387 0.34848592 0.29850686 -0.085418314
-0.3828545 -0.054965265 0.67193115 0.08645029 0.35818392 -0.03867499 0.6112973 0.116890326
0.26026982 -0.47272462 -0.04033301 -0.099704355 -0.6005969 0.33351192 0.1416813 0.2778371
0.2882376 -0.4282057 0.36796796 -0.29217505 -0.44646168 -0.084311016 0.26297334 0.027566286
-0.12627435 0.18295792 0.16094312 0.29304218 -0.38247445 0.09880155 0.3123988 0.24750322
-0.093065806 -0.22101422 -0.110671155 -0.09111023 -0.053631593 -0.30666798 -0.045641787 -0.013185459
-0.2051753 0.15729897 -0.08574392 0.01338119 0.37439921 -0.020277152 -0.6749846 0.24759124
-0.057587575 -0.31363133 -0.46313706 0.025438495 0.017870158 0.43659386 0.5252546 0.43278313
0.53822666 0.2990334 -0.86595434 0.07441901 0.1085668 -0.17475577 0.6178552 0.16394375
00000000: 834c a53e cfac 523e 8019 febe 51a2 94bd
00000010: 30e8 0f3e 26b3 b9be c5dd 513e 4d75 6abe
00000020: 99fe 0fbe 0fbd d9be d700 483f dbbc 85bd
00000030: 6b91 733d aafe 64bd 8b3f 41bf 7fe9 1cbe
00000040: caa3 5abe 6205 aa3d 1787 16bf ce3a a8be
00000050: 9641 7ebe a212 8ebc f317 3fbe 0ee4 6f3e
00000060: f6fa febe 6407 acbe 9c0e f83e dbd1 b9be
00000070: 6e06 bc3e a7c7 8f3e aefe c93e e036 11bd
00000080: 043d b3bb 2b81 513e d01f 0abe 2e94 503e
00000090: 23bf 8c3e a427 d6be 7d9c 6b3f 2d40 84bc
000000a0: 01b2 4dbc 28e1 55be 74ef 88be fc80 4e3e
000000b0: f521 153f e5f8 89be a248 2cbf 6737 fabe
000000c0: 58de eebe fc10 86be f880 353d 645b 9d3e
000000d0: 1c34 81bd 4b82 3fbe 7691 82bf 9b02 d4be
000000e0: 59ee aebc 08c6 08bf 1171 84be c6be 88be
000000f0: 1ea6 a43e c10c e9bd e073 04bf 7547 1b3d
00000100: 7c38 8dbe 929a 303e 1f87 71be cdb1 fe3d
00000110: 44c1 a93d be65 b43e 62b5 bb3e b1c8 093d
00000120: 6e37 eb3d 0046 ba3d 3880 5b3f dc31 3e3e
00000130: b6c0 edbe 9b81 dabe 6a3e c83e a75d 44be
00000140: 89be d8be 4cf0 ec3e 782e 913e f0ce df3e
00000150: 21df 5d3e c854 b9be 9380 7dbf 3a2d 33be
00000160: 1e31 e2bd 0ed4 25be ad98 113f afa5 a03e
00000170: 2907 cebe 6499 dabd 3d93 c03e 2594 65bd
00000180: 20ca a5be 5d0d 9cbd ed5a 88be 8bb5 2d3c
00000190: fdd4 b1bd 9884 15be e84b 073e 057d d63e
000001a0: c760 373e 6a63 e6be 81f4 d53d 6fd2 ebbd
000001b0: 4275 1fbf 9f33 80be 70d0 f03d cb89 e9bd
000001c0: 529b 653e 8703 9b3e c6a7 be3e 4575 dfbc
000001d0: c65b 7abe 9ff7 3a3e 9ef7 553f 9562 183e
000001e0: 6d08 debe f7fd 1bbd 11cc 173f a79a 273d
000001f0: 0287 cd3e 1576 10bd 7f62 a63d 6c83 9e3d
00000200: 67df 83be 77e5 fb3d 3795 fa3e 4c2e 483e
00000210: 86b0 b53e f279 cdbe c97b 153f 6461 46be
00000220: e466 fd3d e282 043e 6837 06be bc4e 7fbe
00000230: 4a6b e7bc 3fdb 5f3e 500a c43e b601 7b3c
00000240: 6a64 083f a910 b9be 91d8 dcbe ca5b 99be
00000250: 09ab 96bc f051 d3be 612c d1bd d8d8 fbbe
00000260: 88f1 38bf 6dd9 c53e ac5a 1e3f b3ea d63e
00000270: 7b78 84be 668f 92be aea8 933e fb51 f6ba
00000280: e542 fbbc 8c81 d93c 0a4c 6bbe c950 e4be
00000290: d2bc db3d 50de 063e 2b6e 52be fe03 86be
000002a0: 9454 0ebe d898 28be 4c10 333e 089c e6bd
000002b0: e5d7 f8bd a16b ccbe 327e 5abe c7ad f5be
000002c0: 241b 31be bda7 b03c 1ecb 24be d9ba 05be
000002d0: 45cf 61be 99ee efbd 70f8 91bd b586 833e
000002e0: 32f1 f2bd 1644 83be f198 42bf 6d8b fbbe
000002f0: 2383 f8bd bf6c b23e e4d5 983e ccef aebd
00000300: 8105 c4be 4223 61bd ae03 2c3f da0c b13d
00000310: e263 b73e ab69 1ebd fb7d 1c3f 3264 ef3d
00000320: 1642 853e f608 f2be 3a34 25bd cc31 ccbd
00000330: b8c0 19bf 13c2 aa3e e714 113e aa40 8e3e
00000340: e193 933e c73d dbbe 4c66 bc3e f897 95be
00000350: a096 e4be 41ab acbd 71a4 863e b1d2 e13c
00000360: 104e 01be 5259 3b3e 46ce 243e a009 963e
00000370: b1d3 c3be 7858 ca3d bcf2 9f3e 7c71 7d3e
00000380: 4999 bebd 8d51 62be 8fa7 e2bd 0098 babd
00000390: cdac 5bbd 9603 9dbe e2f2 3abd d307 58bc
000003a0: 7919 52be fb12 213e 829a afbd c73c 5b3c
000003b0: 41b1 bf3e 451c a6bc cacb 2cbf 8f88 7d3e
000003c0: f3e0 6bbd 4994 a0be 4d20 edbe 6464 d03c
000003d0: 7064 923c 3b89 df3e 1677 063f c095 dd3e
000003e0: 39c9 093f e81a 993e 2faf 5dbf fe68 983d
000003f0: 4558 de3d 2df3 32be c22b 1e3f dfe0 273e
