test_model_pth/continue/test_pendulum_ppo_cpu.pth (torch, 131530 bytes, 30 tensors)

weight f4 [64, 3]
00000000: 5e70 21be 66ad 833e a9bd 96bd cf7e 9b3d
00000010: 75a3 41be 17a9 b33d fff9 4a3e a6f6 ac3e
00000020: f3f5 b83e eb55 14bd 7cc8 e6bd 7a38 9c3d
00000030: 0a97 3fbe a871 833d d395 2bbe afd9 1abc
00000040: 1aaa 383e e013 59bd f2f3 0c3d be8b 98be
00000050: abf8 79bd 45ae a13e f717 ad3e 8531 073e
00000060: 41c1 69be 7be9 613d 8c28 78be 7e65 b43e
00000070: ca0a adbe e38c 2dbe a58a af3d a48c a73e
00000080: e4f3 a63d 5ee1 303d 986f 9bbc a7fa 1c3e
00000090: f29b 6bbd d41d 7abe 7519 f83d b980 8abd
000000a0: 4636 0f3e d52c 473d 012f 58be 91fd c73d
000000b0: 02dc 083e dc15 efbd 90ef 8d3e 317c 003e
000000c0: 0c90 8c3e e7a4 55bd 9d34 8bbd 7131 fabd
000000d0: b2a6 5e3e b0ef 0d3e c1e7 ebbc 709c 64bc
000000e0: 1197 a53d 5931 c53d 77dc c63e 2c99 aebd
000000f0: 439b 7f3e e953 673e f427 87bd cef6 843d
00000100: 57cf 973e 443c 1bbe ea8d f0bd 6002 30be
00000110: f41e 13be 8d6d 33bd 8527 e9bd 02de a13d
00000120: aa8c 08be dae8 9fbd a554 c73b a561 313d
00000130: b912 ad3d 2403 0f3e f7f9 40be 9ba9 8d3d
00000140: 8b87 b4ba e1f8 623e e216 bd3e 9a21 883e
00000150: 2616 2ebe 28a2 42be 2182 bcbd b6d9 633e
00000160: 9def 37be 380e 9fbe 76a6 063e 81d9 b0be
00000170: 0d7c c8bd ec4d a0be de8f bc3b 8970 a83d
00000180: faac 493e 01d3 35bd 7246 f4bc 02d3 1a3e
00000190: c78b a3be 77db 2cbd 9149 263e 068e 8c3e
000001a0: e1e4 be3d e0e8 32be c4b7 04be 2240 933b
000001b0: ae63 19be 7376 c93c 224a c0bd 7a08 7dbe
000001c0: 3d27 44be a1e7 d03d a2d0 123e 9920 4dbe
000001d0: 3928 94bd 51a7 61bd a670 93bd f2b9 0bbe
000001e0: e7dd 4e3e ee26 633c 2767 99bd 2bfd 91bc
000001f0: 4bb0 a0bd 0fea 9bbe a108 323d bbe3 a23e
00000200: fb0b 913d c64c 35be f5a1 133e 723e e5bd
00000210: da51 223d 9c99 a1be 9655 6fbd 1c45 573e
00000220: 0e44 2b3e c5e7 a93d 55ec d1bd b9eb b13b
00000230: 814d e83d 04f6 af3e 1f6e 0c3d 49f7 ca3d
00000240: 52b5 9d3d a2b7 af3e 5ffd ad3d 2977 f2bd
00000250: 225c 29be f985 953d 35c1 0ebc 41b1 843e
00000260: d3af 923d 5ace 8e3e 1c13 a23d 2d78 9e3d
00000270: 9644 56be 9f2f 01be afef c93d 1a58 4a3e
00000280: b25d 06be 1582 213d 071f c93d 2d97 93be
00000290: ce68 8d3d d0a2 6bbe 5da5 3f3e 9626 053e
000002a0: ba05 8fbe 8a00 3bbe 013f eabd 9c99 31be
000002b0: 8263 613e b207 643e 0999 0a3e c937 7a3e
000002c0: 92a8 973d 133b 6abc 776c 91be f11b 1a3c
000002d0: 2143 943e 12d1 1abe c320 cbbd 3ada 43be
000002e0: 37d4 58bd d6b8 7bbd d837 8ebe d821 753c
000002f0: 155f 14be e81c 5e3e ee2f 013e b829 943d
-0.15765521 0.2571823 -0.073603936 0.07592546 -0.1891001 0.08772486 0.19821928 0.33781928
0.36125144 -0.03621475 -0.11268708 0.076279595 -0.1870996 0.064181626 -0.16756372 -0.009451314
0.18033639 -0.05299747 0.034412332 -0.29794115 -0.061028164 0.3157827 0.33807346 0.13202484
-0.22827627 0.055154305 -0.24234217 0.35233682 -0.33797294 -0.16948275 0.08571366 0.32724488
0.08151987 0.043183677 -0.01897411 0.15329991 -0.057521768 -0.24425441 0.121142305 -0.06762833
0.13985547 0.04862674 -0.2111168 0.09765161 0.13365176 -0.11674091 0.27721834 0.12547375
0.2745365 -0.052159216 -0.067971446 -0.122164614 0.21743277 0.13860965 -0.028797032 -0.013953313
0.08085454 0.09628553 0.38840076 -0.08525309 0.24961571 0.22590603 -0.06599417 0.06492387
0.29650375 -0.15159708 -0.11745818 -0.17188406 -0.14367276 -0.043805648 -0.11384491 0.07903673
-0.13334909 -0.07808085 0.0060830885 0.04330601 0.08450837 0.13966042 -0.18845354 0.06917115
-0.0013773305 0.22165252 0.3693152 0.26588136 -0.17000636 -0.1900717 -0.092045076 0.22251019
-0.17962499 -0.31065536 0.13149437 -0.34540942 -0.09789286 -0.3130945 0.005754455 0.082245894
0.19694892 -0.044390682 -0.029818747 0.15119556 -0.3194258 -0.042201485 0.16239001 0.27452105
0.09320999 -0.17471647 -0.12960726 0.004493729 -0.14979431 0.024592614 -0.0938914 -0.24710265
-0.19155593 0.1020043 0.143374 -0.20031966 -0.07234234 -0.055091206 -0.0719922 -0.13645151
0.20201837 0.013864262 -0.07490378 -0.017820915 -0.07846125 -0.3045201 0.04346526 0.3181437
0.07082363 -0.17705068 0.1441725 -0.11193551 0.03962884 -0.31562507 -0.05843123 0.21022457
0.1672518 0.0829616 -0.10250155 0.0054297117 0.11342908 0.34367383 0.034284707 0.09910447
0.077006 0.34319788 0.08495592 -0.11839134 -0.16539052 0.07300944 -0.008713056 0.25916484
0.07162442 0.2789181 0.07913801 0.077377655 -0.20924601 -0.12615822 0.09860169 0.1976017
-0.1312168 0.039430697 0.09820371 -0.28826275 0.069047555 -0.23011327 0.18715425 0.13003
-0.27934057 -0.18261924 -0.11437798 -0.17343754 0.22010615 0.2226856 0.13534941 0.24435343
0.07405199 -0.014296311 -0.28403065 0.009406076 0.28957465 -0.15118816 -0.09918358 -0.19126216
-0.05293676 -0.06145557 -0.2777698 0.014961682 -0.14489396 0.21690714 0.1261594 0.0723452

bias f4 [64]
00000000: 6dc7 063d cb2f d53d 2763 ffbc 8362 983d
00000010: dad8 813d be0b a63d 9f93 b03d ebe1 dbbc
00000020: 057b 013c d722 35bb ec74 113d e5f9 babd
00000030: eda6 69bb e2fd 78bc 0ec2 ba3c f6e9 143b
00000040: bbd5 8d3c 8869 8d3d 7c87 35bd aa9a 183e
00000050: dbc5 0c3d 5048 893d 1f52 afbc 40cb 8d3d
00000060: cffd 273d 5141 abbd 5b7b 853d ee11 36bd
00000070: 2c96 b13c 89c8 9fbd 1c87 353b 2381 c33c
00000080: c6c1 313d 4e8b 883c c91b 2dbd c4e0 d53c
00000090: 42f8 9d3d b51c 903d 6417 8e3b 0141 5fbd
000000a0: 6e37 c4bd 84c8 10bd e457 883d ef79 a53d
000000b0: b10c dd3d b0a9 90bd e620 24ba ab85 05bd
000000c0: dced 573d 2942 8bbc 9e90 a13d 75db 9dbc
000000d0: 0613 9a3d 33b3 993d 2a36 ff3d 0f73 143d
000000e0: 057c 843d 80e2 ddbc 0526 65bc 0f57 943d
000000f0: a185 d3bc 9f5b 813d 77e0 bb3d dbb4 b4bc
0.03290503 0.104095064 -0.03117521 0.074406646 0.06340189 0.081077084 0.086219065 -0.026841125
0.007902865 -0.0027639174 0.035511896 -0.09129695 -0.0035652474 -0.015197249 0.02279761 0.002272246
0.017313829 0.06904894 -0.04431866 0.1490275 0.034368377 0.06703246 -0.021401463 0.069235325
0.041013535 -0.083620675 0.06517669 -0.044450693 0.021678053 -0.07801921 0.002769894 0.023865288
0.043397687 0.016667988 -0.042262826 0.026108153 0.07713367 0.070367254 0.0043362845 -0.054505352
-0.09580885 -0.035347477 0.06657389 0.080798976 0.10793436 -0.07063615 -0.0006261006 -0.03259818
0.052717075 -0.016999321 0.07888912 -0.019269684 0.0752316 0.07504883 0.12461503 0.03624254
0.06468967 -0.027085543 -0.013986115 0.072431676 -0.025820555 0.063163035 0.09173673 -0.022058895

weight f4 [64, 64]
00000000: 4ecb 1d3e c97b fabd 1e51 14bd 53c1 a8bd
00000010: 4230 21be fa2e 943d 53ee 80be b044 c9bd
00000020: 7d25 2dbd 0c0a 36bd d573 2a3e 25c9 dc3d
00000030: a660 c63d 7c0a ac3d f7c3 92bd 82e1 a23d
00000040: a6aa 97bd dde3 753d 7b5c a03e 22ce 813e
00000050: 916a 763b 612c 073e 33ec 6fbd ce69 0dbe
00000060: fadb 89bd a06b 9ebd 68c1 ebbd ba3f 0dbe
00000070: cd37 08be 661d c0bc 0097 0bbe 9c23 5d3d
00000080: 6433 77be 3887 803c 743c 0e3d 37a8 01be
00000090: 43c8 473e 0f47 4b3c eb0d d0bd e804 2fbe
000000a0: e49d 78be 248a 5c3d 26b6 92be b674 003e
000000b0: 9fb9 8bbd 8c5e e3bd 04ac 693e 4c1f 553c
000000c0: 3488 973c 40d8 6d3e d8aa 27bd 0d17 8fbd
000000d0: e89b e3bd 296a 2ebd 7eaa 05be 1e1c f9bd
000000e0: 0b27 9abd 3dfa e43d d9dc df3d e673 a8bd
000000f0: 36ca 02bd c094 4abe e742 15bc 5634 4b3e
00000100: b0e3 493e 0b76 303e f644 573e 5bfb 883d
00000110: cc52 2a3d 078a 45be 3a1d 073e 75da 103d
00000120: a58c 743e c9d4 22bc 9eec 283d 262f abba
00000130: e496 db3c 3c0d 3abe 5262 09be 86cb a0bd
00000140: a093 453c 9883 ddbd 5b93 fb3d 12da e13d
00000150: 23d4 943e 0b96 86bd b4c6 01be e431 12be
00000160: ae67 193d a6a7 fd3d 6ccc 83be fa8b ca3c
00000170: 1e32 793d cb3f f73d 1f0c cc3d 61ae 953d
00000180: 29f6 8a3d 97f3 a3bc 1c2c dd3c 31d5 90bd
00000190: 84ce 9dbd 1d53 cd3b 9791 743e 7a1f edbc
000001a0: 8856 9fbd 6384 4fbd c3ce c9be 9f3c 10be
000001b0: e801 823d 25e4 753d 5ba6 89bd 5216 923d
000001c0: 0a3a 14bd 77cf a6bd 707b ee3c 1574 50bd
000001d0: 9a10 6bbd 6ac1 24be db7d 833d 193c 7b3d
000001e0: 69f3 d3bd 0567 363d d6d2 31bd 4ae0 273d
000001f0: eb1b 5d3e 135c 2f3e 9837 613d 056a fd3c
00000200: 1890 a53d de7f 3a3d a2eb 86bd 1675 eb3d
00000210: 15cb 6dbe 4d84 c2bd 84a8 d9be fd6b bbbb
00000220: 8c4c 0abe 4258 0dbe d262 1a3e 36cd 293d
00000230: f47e b43d 21c2 0f3e 8f78 9fbb caf3 88bc
00000240: 425e b23d fbc7 14be 6c13 9fbd db24 3c3e
00000250: 6970 3bbe ac51 15bc 8220 95bd 9f13 4a3c
00000260: 7051 243e 70fc bf3d f7a8 adbd 623e e83d
00000270: 5c7d 16bc 965f acbc 859c 2d3e ff58 29bd
00000280: 72e7 29bd f6df ba3d d7ce a4be b716 68be
00000290: c8e8 2b3c f4e2 3a3c 02ce 93bd 41a5 3ebd
000002a0: a617 3abd 78cf 603d d0f4 9bbc 5247 afbc
000002b0: b30b efbd 1a38 f73d 7328 8cbe ce07 15be
000002c0: e1cd 0e3c 155b f3bd 73b2 b43d b246 af3c
000002d0: 185d 163d f1c1 debb a647 243e 78aa d03c
000002e0: 9589 243e dfa7 f4bd 0eec 45be b90e dc3d
000002f0: f13d aabd 71c7 b73c d63a 7a3d cd2d 0d3d
00000300: a161 b0be d58a 483e 391e afbe d396 6ebb
00000310: b5e6 3a3e 4a16 f6bd 8cf4 f83d e785 e4bd
00000320: 9d3b 82be 582d 343e 6062 bbbe 698f 4a3e
00000330: f85e 4b3e 93d5 c4bd 876c 853c 5161 3c3d
00000340: fadc 373e 2726 35bd 3f8a 4a3e 9309 ab3d
00000350: bfe5 e8bb 8c7f 733d c646 24be d4af 8cba
00000360: 1359 5abb 756a b6bd 25d1 633d 9f93 3dbe
00000370: 8c26 3fbe 70ee 4c3d 41e7 6c3e aad3 a6bd
00000380: 9294 8f3d ea67 df3b 0853 61be 46e5 603d
00000390: 0a23 1ebe 8103 033e 08c6 3a3d 70e1 80be
000003a0: 9e7b f5ba b9a3 d43d 7a8d 54be 98f8 abbd
000003b0: e7a3 da3c 5ca7 5e3e f0b1 3cbd 0db5 513e
000003c0: 4df4 ebbe 62a1 033e bb11 19be c243 8c3e
000003d0: 80ac 79bd 9616 833d 3907 563e c2bd eabd
000003e0: 0e81 5dbe 9a66 9bbb 7f84 a6be a684 cabd
000003f0: 4be9 ac3e 43dc 70bd 38df 3ebe 8973 703d
0.15409586 -0.122306414 -0.036210172 -0.08239999 -0.15741065 0.072355226 -0.25181827 -0.09827554
-0.04227208 -0.044443175 0.16645749 0.10780553 0.09686403 0.08400437 -0.071662836 0.079531685
-0.074055955 0.06003176 0.31320557 0.2535258 0.003760014 0.13200523 -0.058574867 -0.13809893
-0.0673141 -0.077353716 -0.11511499 -0.13793841 -0.13302536 -0.023451518 -0.1363182 0.053989038
-0.24140698 0.015689477 0.03472562 -0.12661825 0.19509988 0.012407078 -0.10158905 -0.17091715
-0.2427898 0.05384268 -0.28654593 0.12544522 -0.06822514 -0.11102018 0.22819525 0.01300795
0.018497564 0.23227024 -0.040934414 -0.069868185 -0.11113721 -0.04258171 -0.13053319 -0.12163566
-0.07526978 0.11180542 0.10930795 -0.08225231 -0.031931125 -0.19783306 -0.009110189 0.19844183
0.19715762 0.1723253 0.210224 0.06688567 0.041582868 -0.19290935 0.13194743 0.035364587
0.23881777 -0.009938427 0.04124128 -0.0013060316 0.026805349 -0.18169111 -0.13416412 -0.07851319
0.012059122 -0.10816115 0.12283965 0.11027922 0.29068097 -0.06571587 -0.12673455 -0.14276844
0.037452392 0.12385492 -0.257419 0.02472495 0.06083881 0.120727144 0.099632494 0.07308651
0.067852326 -0.020013614 0.026998572 -0.07071913 -0.07705405 0.0062660114 0.23883663 -0.028945673
-0.077801764 -0.050663363 -0.3941556 -0.14085625 0.0634802 0.06003203 -0.06721183 0.071331635
-0.036188163 -0.081450395 0.029111594 -0.050891954 -0.05738888 -0.16089407 0.064204894 0.06133661
-0.10349161 0.04453184 -0.04341396 0.040985383 0.21592681 0.17124967 0.05498466 0.030934343
0.08084124 0.0455321 -0.06587912 0.11496942 -0.23222001 -0.094978906 -0.4251138 -0.0057196603
-0.13505763 -0.13803199 0.1507676 0.04145547 0.08813277 0.14038898 -0.0048666666 -0.01671781
0.087093845 -0.14529411 -0.07767376 0.18373434 -0.183046 -0.00911371 -0.07281591 0.01233378
0.16046691 0.093743205 -0.08479493 0.113400236 -0.009185161 -0.021041673 0.16954239 -0.04134464
-0.04148049 0.091247484 -0.32189056 -0.22664915 0.010492511 0.011406649 -0.07217027 -0.046544317
-0.04543271 0.054885358 -0.019037634 -0.021396313 -0.11672153 0.120712474 -0.2737461 -0.14553759
0.008716078 -0.11882607 0.08823099 0.021396015 0.036709875 -0.006798022 0.16042957 0.02547191
0.16068108 -0.11946081 -0.19328329 0.107449956 -0.08312596 0.022433968 0.061091267 0.034467507
-0.34449485 0.1958421 -0.34202746 -0.0036405816 0.1825207 -0.1201597 0.121560186 -0.11158352
-0.25436106 0.17595422 -0.36598492 0.19781269 0.19860446 -0.096110485 0.016287101 0.045991246
0.1795539 -0.044225838 0.19779299 0.083514355 -0.007107466 0.05944781 -0.16042623 -0.0010733553
-0.0033317253 -0.08907024 0.055619378 -0.18513344 -0.18667048 0.05003208 0.23135091 -0.081458405
0.070107594 0.0068178074 -0.2200433 0.054906152 -0.15443054 0.12794305 0.045599014 -0.25171995
-0.0018728857 0.1038279 -0.20757094 -0.08397025 0.026689483 0.2174353 -0.046068132 0.20479222
-0.46084824 0.12854531 -0.1494817 0.27395445 -0.060955524 0.06400792 0.20901193 -0.11461975
-0.21631262 -0.0047424557 -0.32522961 -0.09888582 0.33771738 -0.058803808 -0.18639839 0.058703933

bias f4 [64]
00000000: cce4 5cbb 53ad 90bc 43d4 62bc 7d12 dd3d
00000010: 8bd4 6d3d d539 023d 1cde d73d 562f ef3d
00000020: 0000 0000 ffc1 053d 1e92 1c3c b3d5 dd3c
00000030: a16a 233d bea8 e13c b218 1a3e 1912 cf3d
00000040: 4780 113d 7140 0c3d 2e8c 9abc 415e b13d
00000050: a3f2 bf3b c257 56bc 3da4 8bbc f1ff 06bd
00000060: 8c48 9d3d 3d44 a63c bab5 103d 9111 15bd
00000070: 15e5 e63b 38a2 eabc 4e8e 53bc f8e8 443d
00000080: ec79 963c 0826 6abd 1caa 5b3c 0cce 2bbc
00000090: 494e 00bd 7779 293d 6bb5 993d 4078 53bc
000000a0: ce23 87bc 2e2b ad3d b179 873d f627 b73b
000000b0: d36d 303d 3d59 b0bc 3ff2 813d 386d a23c
000000c0: b163 ae3c 36d9 a53d 2665 273d 63f3 1a3d
000000d0: 3c0c bcbc fb69 b73d ff63 26bd 48ef b1bc
000000e0: 9c51 a5bb e68d 863d c4a9 9ebb 96a0 bd3d
000000f0: 0f06 c33c 7002 3dbb a595 173d 2920 a53d
-0.003370571 -0.017660772 -0.013844552 0.10794542 0.058064025 0.031793434 0.10540411 0.116789505
0.0 0.032655712 0.009556321 0.027079439 0.03989661 0.027546283 0.15048483 0.10110874
0.035522725 0.034241144 -0.018865671 0.08660556 0.005857782 -0.0130824465 -0.017046088 -0.03295893
0.07679853 0.02029621 0.035329558 -0.036393706 0.0070463517 -0.028641805 -0.012912346 0.04807374
0.018368684 -0.057165176 0.013407256 -0.010486137 -0.03132466 0.041375604 0.07505306 -0.012907088
-0.016496565 0.084555015 0.06615008 0.0055894805 0.043073487 -0.021526927 0.06345033 0.01982747
0.021287771 0.0809807 0.040867947 0.037829768 -0.022955053 0.08955761 -0.040622707 -0.021720544
-0.005045129 0.06570034 -0.004842015 0.09259145 0.0238066 -0.0028840564 0.037007947 0.08062775

weight f4 [1, 64]
00000000: c972 38be b08f a23c 2a49 cc3a 7bd4 823e
00000010: 4bd7 f8be 7ac5 9b3e b102 823e 6ae1 9c3e
00000020: 440d f3bd f9cf 5ebe 0aae e73e c00a e3bd
00000030: 6db6 22be 657e 55be 82b5 82be d3ae e2bd
00000040: df02 943d cdf1 cebd daf1 013e 1e72 943e
00000050: 4516 f03d 2b03 703c 69d8 cabd 2b7b 75be
00000060: a548 07be 4446 19be 19c8 69be 229c 2cbd
00000070: bf5e 0abe 2c5c 333d 6a96 113b eb42 923d
00000080: 60a1 9fbe a61d 333e d722 b53d a6a2 6fbd
00000090: db61 57be 3468 6b3d c246 893d 25fc e13d
000000a0: 9919 c4bd d583 b43e 05e5 b83e 1b34 4dbd
000000b0: 14c3 343e 6473 413b dca3 4cbe 88ea e3bd
000000c0: 38d6 de3d dd99 53be e913 243e 87e8 343e
000000d0: fa5d b9bc 4a32 f13e 0192 f9bd de71 133e
000000e0: 371f adbd 9153 15be 0d3c 893d d010 c8be
000000f0: 4fc5 243e 3fed 9fb8 2594 3d3e c4a6 1fbe
-0.18012537 0.019843906 0.001558577 0.25552735 -0.48601755 0.304241 0.25392678 0.30640727
-0.118677646 -0.21759023 0.4524997 -0.11086035 -0.15889902 -0.20848997 -0.25529104 -0.11068501
0.0722711 -0.101047136 0.12689915 0.28993315 0.117229976 0.014649193 -0.09904558 -0.23972766
-0.13211305 -0.1496821 -0.22830237 -0.042141087 -0.13512705 0.043789074 0.0022214898 0.0714167
-0.31177807 0.17491779 0.08844536 -0.058504723 -0.21033423 0.057472423 0.06702949 0.11034421
-0.09575195 0.3525683 0.36112228 -0.05009852 0.17652541 0.002951824 -0.19984382 -0.11128718
0.10880703 -0.20664163 0.1602322 0.17666827 -0.02262782 0.4710868 -0.12186051 0.14398906
-0.084532194 -0.1458266 0.06700907 -0.39075327 0.16090892 -7.625901e-05 0.18513544 -0.1559096

weight f4 [64, 3]
00000000: fc8d 45bc d77a b53e 0dd7 a63d 992b fcbd
00000010: 2a6f a23d a8ae 4c3e 6674 c73e 417c 44be
00000020: f01e 00be 9ae1 44be 4edc e5be ea6f 41be
00000030: c4ea 81be 67ac 81be e7fd a8bd bf12 16be
00000040: 0be3 b1be 9638 b0bd af59 dcbd 5474 813d
00000050: ae83 71bc 2f3a 043f a029 05bd a6ca f7bb
00000060: 5b98 3fbe 0cdf 7d3d 4ce3 4abe 6d60 1cbe
00000070: d8d1 aa3e ee91 a83d 1cf2 59bd 070a c93e
00000080: 7038 b73d 64ad 973d c4dd d3bd 63ba fdbd
00000090: 1ebd 953d f3b8 ba3e 6c65 a33d ef8a 7fbe
000000a0: 86ca da3d 88a7 7f3d 5b37 1fbe 22a1 a73d
000000b0: d010 8e3d 568d 25be f059 83bc 2433 75bd
000000c0: c3f2 513e 46f9 a0be 2e69 8abe 3015 03be
000000d0: 82c8 21be 9c9f 7cbe c425 6ebe 4aa6 673e
000000e0: 247e a63d 0f2b 16be f110 ec3e ff79 e03d
000000f0: 8996 51be 0987 26be 8364 70bd 7827 59be
00000100: 78ed 5b3e 500c 9a3d 079f 6d3e bcb3 493e
00000110: 090c c83c 7dc9 82be bf0d b6be 522a cabd
00000120: 6bd5 f83d 58c3 bf3e 8562 9b3c 8141 1fbe
00000130: 8662 853e 37a1 8e3d 9800 813e a1c7 6bbe
00000140: 32f5 67bc daea 5e3e 29be cabd fc6c 00bd
00000150: b8fa ffbd 0279 923e 98a5 8c3d b6e5 84bd
00000160: 79ce a73b b832 d2bd 7cdc 33be b05c 7bbe
00000170: 24aa 8abd 066f 8cbe 4690 d03d 7848 93bd
00000180: fc90 adbe c0f4 e73d 104f a43d 9dfa c2bd
00000190: 55a2 38be d71f 8a3d 9a44 11be ed40 50be
000001a0: 6867 5fbe 4f54 37be 24c3 493d a1ad b1bd
000001b0: d2ba bdbd 6f9c e33d 997f 82be 85a8 743e
000001c0: 498c 823d ff28 db3d f63d 363e 940e 863e
000001d0: 3f4b 44bd 85e9 60be 8346 523e 995f 9b3d
000001e0: 6348 55be caa7 20be 1374 79bd 70e2 94be
000001f0: ed81 333e b10c 8f3e 12ee fabd 064a 653e
00000200: 0b87 663d f477 38be 5117 173e aeb3 663d
00000210: 0c26 3bbe 62be ed3c 9d07 703d cf1c b83e
00000220: 02b5 453e 5f0b 81bd 229e 0f3c 8712 0f3d
00000230: b434 41be f0a0 71be c0ae 32be f6f5 90bd
00000240: 11d4 10be 7eea 25be 211c 3dbd 15cd d4bc
00000250: f895 d9bc 833b c93d 43b5 8fbe f22b 56be
00000260: c416 abbd 3a23 9abe 61d5 363e 63e6 713e
00000270: 7612 0fbe 2504 3ebc 9f94 8d3d a589 08be
00000280: a4dc d2be c162 1fbe c0dd ce3e 3353 40be
00000290: 3bd1 133c ff83 7bbe 98f8 3abd 1e0b c63c
000002a0: a49e 6abe 7795 a1be 3ff2 b8bd 28f0 e6bd
000002b0: 1952 23bd 0861 d1bc 355d 8fbd d43f 1bbe
000002c0: 6dc3 f53d 3135 38be 5ead 57be 543a 84bd
000002d0: a2f6 f7bd a511 6cbd 3243 9e3d fd8f b43e
000002e0: a4bc 0fbd a502 8bbd c9b8 5e3e 586f c53e
000002f0: 5152 9f3d fb36 12be 14ef 35be 69c1 02bd
-0.0120577775 0.35445282 0.081464864 -0.12313003 0.07931359 0.19988501 0.38955992 -0.19188024
-0.12511802 -0.19226685 -0.44894642 -0.18890348 -0.25374424 -0.25326845 -0.08251553 -0.14655589
-0.34743533 -0.08604543 -0.10759293 0.06321016 -0.014740868 0.5165128 -0.0325104 -0.0075619994
-0.18710463 0.061980292 -0.1981327 -0.15271159 0.33363223 0.08230959 -0.05320941 0.39265463
0.089463115 0.074061185 -0.10345033 -0.12389066 0.07311462 0.3646923 0.07978329 -0.24955343
0.106831595 0.06241563 -0.1554846 0.081850305 0.069368005 -0.16167197 -0.016034096 -0.059863225
0.20502762 -0.3144018 -0.2703337 -0.12801051 -0.15799144 -0.24670261 -0.23256594 0.22622028
0.08129528 -0.14664863 0.46106675 0.10960769 -0.20467581 -0.1626245 -0.058689605 -0.21206462
0.21477306 0.0752188 0.23205195 0.1969747 0.024419801 -0.25544348 -0.35557362 -0.09871353
0.12150081 0.37453723 0.018967876 -0.15552332 0.2605173 0.06964343 0.25195765 -0.23025371
-0.01415758 0.21769276 -0.098995514 -0.031353936 -0.12498993 0.28607947 0.06867522 -0.064891264
0.005121049 -0.1026358 -0.17564577 -0.24547076 -0.06770733 -0.27428454 0.10183768 -0.07191557
-0.33899677 0.11325979 0.080228925 -0.09520457 -0.18030675 0.06744354 -0.14186326 -0.20337267
-0.2181679 -0.17903255 0.049258366 -0.08675695 -0.09264149 0.11113822 -0.25487974 0.2389241
0.063744135 0.10701179 0.17797074 0.26182997 -0.047923323 -0.2196408 0.2053471 0.07586593
-0.20828395 -0.15689006 -0.060901713 -0.29079008 0.17530032 0.2793937 -0.122524396 0.22391519
0.05628113 -0.18014508 0.14754988 0.0563237 -0.18276232 0.029021446 0.05860101 0.3595948
0.1930733 -0.06300997 0.008765729 0.03492978 -0.18867761 -0.23596549 -0.17449474 -0.07078163
-0.14143397 -0.16202733 -0.046169404 -0.025976697 -0.026560768 0.09825804 -0.2806798 -0.20915201
-0.083539516 -0.30105 0.17854835 0.23623042 -0.13971886 -0.011597668 0.06913113 -0.13333757
-0.4118396 -0.15565015 0.40403557 -0.18781738 0.009022052 -0.24562071 -0.045647234 0.024175223
-0.22912079 -0.31559345 -0.0903058 -0.11276275 -0.039873216 -0.025558963 -0.070002 -0.15161067
0.12000165 -0.17989041 -0.21062228 -0.06456438 -0.12107588 -0.057634015 0.0772766 0.35266104
-0.03509201 -0.06787614 0.21750177 0.3856151 0.077793725 -0.14278786 -0.17766982 -0.03192273

bias f4 [64]
00000000: a064 f6bc 8975 8abd a4fb ff3d 0885 a53d
00000010: 4835 4e3d b810 783d 7619 1ebb 9d42 c43c
00000020: 8e13 a2bd f854 ce3d 5f44 45bb 48f0 48bd
00000030: 4f31 8ebc 021c 0c3e 7b06 06be 1e9a cebd
00000040: 825f ad3d 5eea 863d 7527 313e 62e3 923d
00000050: eab7 183e cb9f 1e3e 0d36 a43d a9ce 1f3e
00000060: 4dd4 823a 8849 c73d 40fa c03d ae31 f7bc
00000070: 00a1 863d af49 b1bd ddb8 d53d 6afa 003e
00000080: 44ec ef3d 4630 cb3d 5db7 1b3d 5064 f93d
00000090: 5e58 933d bfe1 eb3d 81eb b03d 1b16 283e
000000a0: a8c5 1c3e 5f10 903d 4b38 923d 0efd 023e
000000b0: abbb 0c3e 4c65 3d3d 05ac d6bd 5636 383e
000000c0: 8509 b43d 929b 94bd 5f89 4a3e cb97 df3d
000000d0: 35d0 05be 4437 b73d 97fc 523d fb52 aa3d
000000e0: 636d 103e 26a2 c03d 3c6a a23d 9fc5 eb3d
000000f0: d869 18be 65f3 c7bd 31b6 063e 8cb1 d03d
-0.030077279 -0.06760699 0.124991685 0.08082014 0.05034378 0.06056282 -0.0024124063 0.023957545
-0.07913886 0.100748 -0.0030100567 -0.049057275 -0.017357497 0.13682559 -0.1308841 -0.10087989
0.08465482 0.06587671 0.17300208 0.07172276 0.14913908 0.15490644 0.08018122 0.15606178
0.0009981483 0.09730822 0.094227314 -0.030175056 0.06573677 -0.08656632 0.104356505 0.12595525
0.11714986 0.09921317 0.038016666 0.12177336 0.07194589 0.11517667 0.08638669 0.16414683
0.15309775 0.070343725 0.07139643 0.12791845 0.13743465 0.046239182 -0.10482029 0.17989478
0.08790878 -0.07256235 0.19778965 0.10917624 -0.13067706 0.08946088 0.05151042 0.083166085
0.14104228 0.09405927 0.07930419 0.115123026 -0.14884126 -0.09763221 0.13155438 0.101901144

weight f4 [64, 64]
00000000: 0852 433d 7d0c f53d e185 34be 3588 8f3d
00000010: a28e af3d b4c8 ccbc 1025 fabd 9cdc cf3c
00000020: 07eb a0be 80c3 df3d a18f 323d f0d5 fd39
00000030: cc8a be3d 623a 3c3e e423 b2bd 1233 c43d
00000040: 9cab 993d fb8c b33d 6173 cc3e 61d9 85bd
00000050: 6e78 dbbd ac5b a6bd b2dd 0e3d b7b2 953d
00000060: 1339 7abd 0add a33d 8395 783d 3ca2 a43c
00000070: fb93 423b 9fc5 443e 3bae aabd 6f89 9f3c
00000080: 9d38 8b3d bfcd aa3d 6e9f 513e f0fa 6b3e
00000090: 3ee8 0abe 7036 39bd 29fa db3c a6b8 c93d
000000a0: c6a7 a03e 292b 393d fc47 083d 6bda 163d
000000b0: 8097 a23c 42bb c03e b2d3 11bc f9ad 153e
000000c0: 6848 363e d070 9ebd bf55 603d 1d79 1c3e
000000d0: 7e5a 6fbe 4afb 68bd c36b d83d 0d1f 5d3d
000000e0: 7fc7 9abd 9972 9b3d 2bc0 703e 6eba 6f3d
000000f0: 68e3 b2bd 630d 683e 4c19 89bd 1216 933e
00000100: 69f1 09bf 9b8c bebd e91d 8a3e 1826 4fbe
00000110: 8028 50be 1d05 04bf 295c babd 0355 2c3e
00000120: 79bf 1dbe ae13 0f3e f601 e6bd d2ae 81bc
00000130: 19cc 6fbd f8c5 6b3d 9206 24bd 07cc 463e
00000140: f936 083e 1243 2fbe e911 98be ba5d 9b3d
00000150: 6dfc b5be 06a3 a6be 21d0 3a3e 9a08 33bf
00000160: dbdd 10bd 3451 7dbe 3e6a 063d 3c77 8b3e
00000170: f864 0bbe 5089 a03d 2911 32bf 2586 c7bd
00000180: c2a5 53bc 9950 41bd 0f0f dabd 7cfd 6e3e
00000190: 579c 823d ff23 fd3d 23d6 be3e 0efd 02bf
000001a0: fe13 acbe 836d aa3c 943f a3be c3ce 2bbe
000001b0: de13 a6bd fcd8 a83d c7ba 993c 036f 20be
000001c0: 1ddf bfbe 3c08 093d 6785 d2be 466d ecbd
000001d0: 832d 2f3e f6b0 89be 7d91 0e3e 41ea 453c
000001e0: 0245 4dbe f005 d6bd 1d46 3f3e 6fdf e2be
000001f0: c56c 733d 7d8f af3e 451a 3b3d e87f 2ebf
00000200: 062b dcbd e331 f9bd 4b05 c5bb 4a0f 2e3e
00000210: ab5a 0dbe 8dc6 8d3d c80e 00be 4bbb b0bd
00000220: aa74 6dbd 436e b13d e6d8 f83d 3740 4b3c
00000230: 8b26 c5be 8b85 cf3e 07ac 8dbd ce98 d33d
00000240: c2e7 8e3e 68ca 3b3e 4c6c 6a3d 7262 aa3d
00000250: 14a7 19bd 1f92 8c3e fb44 f6be 7ff5 4e3d
00000260: 47c5 01bf 2d67 683e b8a3 5b3e 2821 503e
00000270: 75cf 653d 3479 423b 4ca7 873e 40dd b6bd
00000280: 4d7e 5c3d 105e 053e aa69 47bd 13c9 5ebe
00000290: e7ac bbbd 008c acbe a886 3fbd d510 9c3e
000002a0: 7cda 153e d433 b5bd 67e0 86bd 7dac 963e
000002b0: 8e16 d93d 0d72 6ebe 3e8e 893e 7bde 1ebe
000002c0: 33d2 213e 19bc 8abe aa46 fbbd 03be fabc
000002d0: 470d f2bd 1df8 b0bd 14b5 163e 62ee d33b
000002e0: 1a36 10be 212f 2d3e 0327 81bd 5b94 493e
000002f0: ccdf 04bf 3cb1 153f eb78 25bf 6eb4 833d
00000300: e4cc 093d ec6d 10be 5e48 553e a49b 71bd
00000310: 41fe a7bd 28b9 28bd c3ab 0dbe cc7d 1dbe
00000320: 3745 623d 8835 b13d 3726 6d3e 508b fbbc
00000330: 5945 0cbd dacc 8bbd 8388 51be d924 74be
00000340: d69e c2bd 0a50 e7bd b06c 513e 526b 50bd
00000350: 6748 bfbc 4b96 1c3d 2d19 e6bd 7c72 5c3e
00000360: 5755 e33d cb7d d9bc 7e51 0d3e 0610 053e
00000370: 92c5 593e 46b6 0abd 079a ac3d be74 0abe
00000380: db58 ddbd 6c3c 433e e7c3 9abd 7e22 4e3e
00000390: ebfa 143e e324 42be e5dc 80be 8539 eb3d
000003a0: 9cae c23d b439 913d 9ad8 673e 0c15 ff3d
000003b0: 48a3 03bd b0d8 2cbd a9c2 4bbe 218b a43e
000003c0: baca 4b3e d46d 6bbe cdf0 dabc 8dae babd
000003d0: 54c2 6cbe c3d7 4b3e 29bf 6a3e 4d81 133e
000003e0: cde9 883d fc29 c93d ae82 d5bd 825e 68bb
000003f0: 9927 b7be 600a 5e3e f0f2 39be 22d2 aa3c
0.047685653 0.119652726 -0.17629196 0.07008401 0.08572127 -0.024998046 -0.122141 0.02537375
-0.31429312 0.109259605 0.043594006 0.00048415316 0.09303817 0.18381646 -0.08698252 0.095800534
0.07503435 0.08767124 0.39931777 -0.06535602 -0.107163295 -0.08122954 0.034879394 0.07309478
-0.061089586 0.08001144 0.06068946 0.02009689 0.0029690254 0.19216011 -0.08334013 0.019474713
0.067979075 0.08340024 0.20470974 0.23044944 -0.13565156 -0.04521793 0.026852684 0.09849672
0.31378 0.045207176 0.033271775 0.036829393 0.019847631 0.37642866 -0.00890057 0.14617147
0.17801058 -0.07736361 0.054769274 0.15280576 -0.23374364 -0.056880273 0.10567429 0.05398469
-0.07557582 0.07590217 0.23510806 0.058527403 -0.087347806 0.22661357 -0.06694278 0.28727776
-0.5388399 -0.09304162 0.26975945 -0.20229375 -0.2032795 -0.515703 -0.090996094 0.16829304
-0.15405072 0.13972351 -0.11230843 -0.015830431 -0.058544252 0.057561845 -0.04004533 0.19413768
0.1330222 -0.17115429 -0.29701164 0.07586236 -0.35544148 -0.32546252 0.18243457 -0.69935
-0.035367828 -0.24738008 0.032816164 0.27239406 -0.13612735 0.0783869 -0.69557434 -0.09742383
-0.012917938 -0.047196005 -0.106474034 0.23338884 0.06377476 0.12360381 0.37272748 -0.5116738
-0.33609003 0.020804172 -0.31884444 -0.16778092 -0.08109258 0.082445115 0.01876582 -0.15667348
-0.3747491 0.03345512 -0.41117403 -0.1154428 0.17107205 -0.26892823 0.13922687 0.012079776
-0.20045856 -0.10450351 0.1867909 -0.4431109 0.059429903 0.3428916 0.04567935 -0.6816392
-0.107503936 -0.12167718 -0.006012594 0.1699802 -0.13804118 0.06922636 -0.12505639 -0.08629473
-0.057972588 0.08663609 0.12150745 0.012405447 -0.38505968 0.40531573 -0.06917577 0.103318796
0.27911192 0.1833893 0.057232186 0.08319558 -0.037512854 0.27455232 -0.48099503 0.050527092
-0.50691646 0.22695608 0.21449172 0.20325148 0.05610605 0.0029674293 0.26494825 -0.08928919
0.053831387 0.13024163 -0.048684753 -0.21756391 -0.09163838 -0.33700562 -0.046759278 0.30481592
0.14634126 -0.08847776 -0.0658577 0.29428473 0.10600005 -0.23285694 0.26866335 -0.15514557
0.15802841 -0.27096632 -0.122693375 -0.030608183 -0.11818939 -0.08641074 0.14717513 0.0064676264
-0.14083138 0.1691251 -0.06306269 0.196855 -0.51903987 0.58473563 -0.6463763 0.064308986
0.033642665 -0.14104432 0.20828387 -0.05898632 -0.08202792 -0.041192204 -0.13835053 -0.15380019
0.05524179 0.086527884 0.23159109 -0.030706078 -0.034245823 -0.06826182 -0.20462231 -0.23842181
-0.09502952 -0.11294563 0.20451617 -0.0508836 -0.023349954 0.038229268 -0.11235271 0.21528047
0.11100262 -0.02654924 0.13800618 0.12994394 0.21266773 -0.033865236 0.08427816 -0.13521096
-0.108079635 0.19066018 -0.07556897 0.20130345 0.14548843 -0.18959384 -0.2516853 0.1148558
0.0950596 0.07091084 0.2264122 0.12455186 -0.03213814 -0.042198837 -0.19898476 0.32137397
0.19901553 -0.22991115 -0.02672615 -0.09115324 -0.23121005 0.19906525 0.22924484 0.14404793
0.06685219 0.09822461 -0.10425316 -0.0035456722 -0.35772398 0.21683645 -0.1815908 0.020852152

bias f4 [64]
00000000: fa0e 813d 31b7 713d e535 333d 8b42 ad3d
00000010: e945 813d ecd1 6abc 3fd7 7b3d d11a 813d
00000020: f4d7 d63d 90aa ebbc 11e4 f0bc 4ed0 ccbc
00000030: e01e 82bc b789 debc ebfb 9d3d 178e 113e
00000040: 11da e5bc 4a86 c639 7fe0 a23d 312d 01bc
00000050: 542e 15bd 1ed4 c53d 0000 0000 9b72 0f3d
00000060: bbfd a73d 4dcb c63d 7dd7 33bd 5b4d eb3d
00000070: 950e 9f3d fc80 bc3d 119a 13bd 79b0 a43d
00000080: 0ea0 963d eb20 953d 4c3d 75bb db6d 523d
00000090: 753c bf3d 4caf 683b 200e f9bc b6a9 6e3d
000000a0: 0c4a 963d 620a 933d 8276 9f3d bc98 54bc
000000b0: 6994 8c3d d823 8abc 743d a33d 4eab d03d
000000c0: cec3 c03d d351 853d b097 2fbd 0000 0000
000000d0: 33a0 8b3d 6bc3 c4bb e460 863d 4c9a c4bc
000000e0: 8541 90bc a26d b4bc 377f 1abd 3028 dabc
000000f0: 6879 583d f978 ebbc 7a43 f53d b184 b23d
0.06301685 0.059012596 0.04375257 0.08459958 0.063121624 -0.014332276 0.06148457 0.06303943
0.104904085 -0.028767854 -0.029405626 -0.025001671 -0.015883863 -0.027165277 0.07714065 0.14214359
-0.028058084 0.00037865556 0.079529755 -0.00788431 -0.036421135 0.09659599 0.0 0.035021406
0.08202692 0.09706745 -0.043906678 0.11489364 0.07766453 0.09204289 -0.0360356 0.08041472
0.07354747 0.07281669 -0.003742057 0.051374298 0.09337703 0.0035504876 -0.030402243 0.058267318
0.07338342 0.07179715 0.077862754 -0.012975868 0.068642445 -0.016862795 0.07970706 0.10188924
0.09412347 0.06509747 -0.04286927 0.0 0.06817665 -0.006004741 0.06561449 -0.023999356
-0.017609367 -0.022024933 -0.037718978 -0.026630491 0.052850157 -0.028744208 0.11975761 0.08716715

weight f4 [1, 64]
00000000: cd6b 59be 00fc 903e 8542 a8be 4f0b 3cbe
00000010: f3df 27be c8b6 b13d 339e babe efa2 84be
00000020: 79f2 10be bebc 903d e910 f93d 0c36 5f3e
00000030: 7379 de3d 331f 4a3d 964b 71be 4dba 39be
00000040: 5777 0a3e cb6f d63d 8dda cfbd 775e e23d
00000050: b29a 1d3e 1995 6abe ff0f de3d ccd7 9bbd
00000060: 6702 53be 6211 39be e0dc 7ebd f64f b9bd
00000070: 2b87 d4bd b3c2 1bbe eda3 943d d6b4 03be
00000080: b4ae 5cbe 5942 3bbe 6796 7b3e 5b5e 003f
00000090: be8d 72be a011 fd3d 0ebe 4f3e faa4 6cbe
000000a0: d261 84bd ffd3 92bd c6af 27be 3e6d 5c3e
000000b0: f53a f2bd abb5 893e 3415 52be 800b a1be
000000c0: 9da2 02be bc96 0bbe cf8e 933e c174 073c
000000d0: 5409 fbbd 4bea b03d b134 00be 4d58 8f3d
000000e0: aed1 bb3d 20ac 363e 405a db3d a1a7 8a3d
000000f0: d70d 01bd 9319 613e 2721 263f 7c0d efbd
-0.21232529 0.2831726 -0.3286325 -0.18363689 -0.16394024 0.08677441 -0.3644882 -0.25905558
-0.14154996 0.0706725 0.121614285 0.21797961 0.10863008 0.04934616 -0.2356399 -0.18137474
0.13522087 0.104705416 -0.10149107 0.11053174 0.15391043 -0.22908439 0.10842895 -0.07609519
-0.20606385 -0.18073037 -0.06222236 -0.090484545 -0.10377344 -0.1521099 0.07257829 -0.12861952
-0.21551019 -0.18287028 0.24569093 0.50143975 -0.23686883 0.12356877 0.20287344 -0.23109809
-0.0646397 -0.07169341 -0.16375646 0.21526048 -0.118276514 0.26896414 -0.20515901 -0.31454086
-0.12757345 -0.1363172 0.28819892 0.008267582 -0.122576386 0.08638438 -0.125201 0.06999264
0.091708526 0.17839098 0.10710573 0.06770254 -0.03150734 0.21982412 0.64894336 -0.11672494

exp_avg f4 [64, 3]
00000000: 3633 beba b466 5b39 9995 a4bc 96a4 f139
00000010: 212b abba cccd f43b def4 eaba ed91 f13a
00000020: ce58 07bc 80d4 623a 968e 12bb d407 013c
00000030: 4428 3dbb 8c82 cbb9 357b f5bc f805 57bb
00000040: eea3 c9ba 6c0e 2fbd 8c4e b83b a3ec 88ba
00000050: 4aa6 b63c 68d0 a0ba c074 b83b 9487 cfbc
00000060: a4f0 adba c171 56ba 073c 7bbc 82e0 143c
00000070: 4c42 c7ba 82d4 493d 0406 32bb d6b9 9ab9
00000080: e77c a8bb 3d08 20b9 1c0f 5539 fa56 bcba
00000090: a6cc 3f39 7180 34ba 4d37 d43a 7e21 85ba
000000a0: 2403 44b9 8fcc 813a 369a 93ba 20e4 d2ba
000000b0: 3821 eb3b 2235 6ab9 2ff6 a6b9 44ad aa3a
000000c0: e0b5 e33b 2435 66ba 2fb2 283d c1de cc39
000000d0: 29cb 04ba 189b c33a 51b6 40b9 ebf0 1eba
000000e0: 529c 513b 1c29 d1ba bfe2 35ba 9121 1bbc
000000f0: 6d9f 953a c665 14ba 3ac0 233c 6507 e03a
00000100: 4f7c 63ba d4f5 013c 7a3f 7e39 6015 5cb6
00000110: 558a 23bb b7b6 ed3a d304 ecba bad9 d63b
00000120: 7e84 0bb9 090d b0ba a6b5 733b e5e9 80b9
00000130: 5fb9 c837 ca33 c5ba 8729 baba 9663 783a
00000140: 7704 86bc 2cf4 17bb 79c5 093b 851f 09bc
00000150: c02c 90ba fd51 c73a 4351 aebc 42a2 4b3b
00000160: a0a9 ba37 a4dd 863c 836d 4b3c 6838 2839
00000170: cbc9 343d de7a 3bba d3c4 2abb f61f 183c
00000180: a943 6e3b d064 3c38 3de3 cd3c 119d 6a3b
00000190: 421b e8ba edc2 f53c 54ac feba 921c 283b
000001a0: f62b 5fbc c5df 85ba 6ce1 bbb9 ac52 a8bb
000001b0: 54a7 47bb 577b dd3a bbc1 19bd 0e94 cab9
000001c0: b155 e8ba bad0 3b3c 886d f63b a319 06bb
000001d0: f39e 2e3d 6641 e2b9 4993 b138 1a64 e7bb
000001e0: 9300 a93b f9d4 3bba c10a 0a3d 00ac aa37
000001f0: 2f4c e739 96ab adbb 704c 0eba e2da 873a
00000200: 88ea 2abc 322d 9bba a213 0dbb c173 9dbc
00000210: a0e1 bb3b 5cd6 59bb edb6 243d 4c78 84bb
00000220: 85be b93b 2ebd a5bc 6ae3 e4b9 19c1 2aba
00000230: d8a0 713b d022 05bb 7319 2c3b 4045 c6bb
00000240: 2272 42bb a4da b3b9 d2ae 25bb e522 f6b9
00000250: 5c9d 11bb 0469 c93b b388 8eba 9e39 8bba
00000260: b2fe 353b b32f 43bb 0cf6 893b 738f 2bbc
00000270: 8081 1737 5432 67bb 7252 693c 9cac 12ba
00000280: 2d7d d639 7580 673b 6a70 4c3a 5202 52bb
00000290: 5470 8e3c 1cc2 21b9 2815 3bba 200d 903b
000002a0: e41a fbba 94b7 d239 22b6 e1bc eaa7 a6ba
000002b0: 6e9e 72ba ea5d 753b 8e02 14bb 21c6 983b
000002c0: a055 b7bc 263e 673a 7676 0fbb 0d20 553c
000002d0: a22e cf3b 1454 87b9 3400 0a3d 754e 19bb
000002e0: c425 cb3a 8824 f1bc 1589 0ebb d7a7 5cba
000002f0: 88c2 b0bc 16ac aeba a500 8b3b d65d 42bc
-0.0014511112 0.00020923727 -0.020090865 0.00046089728 -0.0013059118 0.007470822 -0.0017925759 0.001843033
-0.008260919 0.0008652881 -0.002236282 0.0078754015 -0.0028863112 -0.00038816442 -0.029965976 -0.0032809954
-0.0015383938 -0.042738363 0.005624598 -0.00104465 0.02229609 -0.0012269141 0.005629152 -0.025333203
-0.0013270569 -0.0008180403 -0.015334136 0.00908673 -0.0015202253 0.04927493 -0.002716423 -0.00029511628
-0.0051418426 -0.00015261858 0.00020318892 -0.0014369183 0.00018291417 -0.00068855943 0.0016190797 -0.0010157076
-0.00018693187 0.0009902882 -0.0011261168 -0.0016089715 0.007175591 -0.00022335773 -0.00031845408 0.0013021608
0.0069491714 -0.0008781722 0.041185554 0.00039075877 -0.00050656736 0.0014923541 -0.00018378465 -0.0006063121
0.0031984043 -0.0015957686 -0.000693839 -0.009468452 0.001141531 -0.00056609174 0.009994561 0.0017092047
-0.0008677886 0.007932145 0.00024246974 -3.2794997e-06 -0.0024954278 0.0018136118 -0.0018006809 0.0065567167
-0.0001330543 -0.0013431619 0.0037187128 -0.00024588328 2.3928178e-05 -0.0015045342 -0.001420305 0.00094752887
-0.01635955 -0.002318631 0.0021022244 -0.008369331 -0.0010999665 0.001520693 -0.021278983 0.0031072055
2.2251916e-05 0.016463108 0.012416246 0.00016042741 0.044137757 -0.00071517925 -0.0026057258 0.009284964
0.0036356247 4.4916582e-05 0.02513277 0.0035799185 -0.0017708319 0.030000174 -0.001943002 0.0025651795
-0.013621321 -0.0010213783 -0.00035835372 -0.0051368084 -0.0030464726 0.001689772 -0.03753827 -0.00038638752
-0.0017725733 0.0114633385 0.0075203814 -0.0020462058 0.042632055 -0.00043154805 8.467452e-05 -0.0070614936
0.005157539 -0.0007165219 0.033701662 2.0345673e-05 0.00044116515 -0.0052999957 -0.000542826 0.0010364915
-0.010431893 -0.0011839031 -0.0021526595 -0.019220235 0.0057336837 -0.003323934 0.040213514 -0.004042661
0.0056684637 -0.02023181 -0.00043656986 -0.0006513759 0.0036869552 -0.002031494 0.0026260286 -0.0060507357
-0.002967008 -0.0003430444 -0.0025281203 -0.00046946775 -0.0022219038 0.006146552 -0.001087448 -0.001062203
0.0027770218 -0.002978307 0.0042102393 -0.010471213 9.030453e-06 -0.00352778 0.014240848 -0.0005595179
0.00040910524 0.003532437 0.00077987334 -0.003204484 0.017387547 -0.00015426468 -0.00071366364 0.004396096
-0.0019157794 0.00040191098 -0.027552668 -0.0012714837 -0.0009255175 0.003744001 -0.002258453 0.0046622907
-0.022379696 0.00088212115 -0.0021890677 0.01300813 0.0063226977 -0.0002581185 0.0336916 -0.0023392711
0.0015498926 -0.029436365 -0.0021749188 -0.0008417344 -0.021577135 -0.0013326432 0.00424202 -0.011863193

exp_avg_sq f4 [64, 3]
00000000: cace 3938 de47 2938 4c64 9a3a 44da 6438
00000010: 8957 a137 b5b4 b439 1ab4 3038 8a19 4637
00000020: 0d4c 5339 2dbd a538 b299 bd37 821a 043a
00000030: 89f9 8938 e458 6d38 f1f6 e13a 16f9 f239
00000040: 86b2 1e39 bf21 863b 7759 b039 44b5 dc38
00000050: 40e6 003b 4841 dc39 f9f9 d238 be95 103b
00000060: 6c0d a037 809f 9737 5595 b639 973d 083a
00000070: fc28 3639 7604 7f3b 5435 3b3a d0de 1739
00000080: f02e 3b3b dcc9 ca35 a17f cc35 2991 0138
00000090: 16fc 3b37 7f5e d836 e463 a838 87c9 6336
000000a0: 0795 5236 b86c 1a38 47fe 4037 c9e5 1f37
000000b0: 3d32 5839 8422 b436 7568 7f36 67a9 8c38
000000c0: d323 0239 aa47 6838 4b83 c13a 5887 9136
000000d0: 3f29 2a36 9a96 c838 2215 7e36 bf94 0e36
000000e0: 5b4e 8138 6f56 3439 65b6 9b38 83ed 9f3a
000000f0: 300d b636 ab28 3836 e124 c338 7f32 9037
00000100: 4600 7b36 534a e138 6414 0337 dfb3 b236
00000110: 3360 ee38 87b4 8038 7be2 9e37 0dac c739
00000120: 617d 0038 e2e3 a537 0dae 2c3a f961 0936
00000130: 1631 ce35 1e3e 0f38 efbb 0c37 9b20 db36
00000140: 06cc c039 47b7 d737 1dab 0f37 b7d9 8b39
00000150: 13fc a237 7ea8 9337 f677 b239 c021 0538
00000160: 9b16 b637 cbca 253a d5af eb39 1393 2939
00000170: e500 843b a35a 0738 8f20 ad37 8c36 553a
00000180: e331 4338 7b6c ee37 ff68 4b3a 9c70 7e39
00000190: 42f9 9138 2a4d c53a 700a 2339 53bc d137
000001a0: a8f7 f739 216d 8237 7826 0137 a9b9 9839
000001b0: d305 8838 9b81 5438 a7c7 ea3a ff1b e237
000001c0: aaa8 df37 fb05 383a f724 c439 1e87 0539
000001d0: 9f73 383b 44c9 3637 dc49 0037 c4ef 2f39
000001e0: d27d 4238 2fe9 0238 8cac 973a c600 c236
000001f0: 03e9 dd36 595d 1e39 6182 c239 d9a8 8e38
00000200: 8ed0 b13a caa7 5c38 4bfe 2938 ad57 683a
00000210: 548f 143a 9048 5039 78c8 5c3b 4fa8 9739
00000220: fdb5 b638 5654 413b f35c 2236 82b3 a535
00000230: 93ab 3a38 2b97 8538 4343 8f37 4c37 f239
00000240: 490d 9239 46a5 8838 2fd0 9e3a 9986 3c37
00000250: 285b 4237 6c0a 7b39 f1ab 8238 f4a8 9437
00000260: c978 a239 5738 c338 01b0 2d38 8462 cd3a
00000270: 0334 9b38 45a8 6c38 95ee e43a be5b 0238
00000280: aae1 8c37 0e87 8b39 9261 3939 9aa7 8738
00000290: 818e 983a 96bc 1a37 dc4e f036 a8db 7739
000002a0: 129e c637 8046 d537 5d0d 303a d66f 2a37
000002b0: 2f6f 2c37 bdfa 0039 4b21 fe39 7cf7 f238
000002c0: c59d 353b 6333 ea38 29f2 0d38 78ef f639
000002d0: e2ac 5239 6410 8638 6da3 b63a f6e1 df37
000002e0: d615 df37 8a6a 5b3a 8104 1638 6aa3 1038
000002f0: 6809 593a e65b 9938 abb6 cb37 fe1d 2c3a
4.4300024e-05 4.035967e-05 0.0011779158 5.456271e-05 1.9233457e-05 0.00034466913 4.2129403e-05 1.1807666e-05
0.00020150859 7.90305e-05 2.2602126e-05 0.00050393504 6.5791486e-05 5.658799e-05 0.0017239732 0.0004634342
0.0001513456 0.0040933783 0.00033635992 0.00010524181 0.001966849 0.00042010308 0.00010060141 0.002206191
1.9079736e-05 1.8074876e-05 0.00034825006 0.0005197166 0.0001737214 0.003891257 0.00071414304 0.00014483486
0.0028561912 1.5108922e-06 1.5236329e-06 3.0891188e-05 1.1204762e-05 6.4483024e-06 8.02947e-05 3.394294e-06
3.1379184e-06 3.6817713e-05 1.1503295e-05 9.5306395e-06 0.0002061808 5.368436e-06 3.8058763e-06 6.707274e-05
0.00012411112 5.5379853e-05 0.001476386 4.337093e-06 2.5355982e-06 9.564795e-05 3.786125e-06 2.124623e-06
6.165794e-05 0.00017198337 7.4249496e-05 0.0012201521 5.425558e-06 2.7441808e-06 9.305194e-05 1.7189652e-05
3.7402074e-06 0.0001074268 7.812956e-06 5.325753e-06 0.00011366643 6.1371415e-05 1.8940531e-05 0.00038084426
3.0634346e-05 1.9775649e-05 0.0006587215 2.0471618e-06 1.5362482e-06 3.4151708e-05 8.388407e-06 6.5305044e-06
0.00036773103 2.5715342e-05 8.563305e-06 0.00026674356 1.9429286e-05 1.7602226e-05 0.00034040184 3.1741103e-05
2.1706617e-05 0.0006324469 0.00044953698 0.00016171885 0.004028427 3.227092e-05 2.0638368e-05 0.00081334333
4.6538084e-05 2.8422326e-05 0.0007759481 0.00024265278 6.960567e-05 0.0015052904 0.0001554878 2.5002437e-05
0.0004729603 1.5548025e-05 7.697956e-06 0.00029130027 6.48607e-05 5.0665443e-05 0.0017912284 2.6954336e-05
2.6662212e-05 0.0007019934 0.00037411574 0.00012734203 0.0028145087 1.0894906e-05 7.646591e-06 0.0001677862
4.6370384e-05 3.1211584e-05 0.0011571809 5.7817406e-06 6.6134394e-06 0.00015102829 0.00037099703 6.802538e-05
0.0013566182 5.2608353e-05 4.052957e-05 0.00088631624 0.00056671095 0.00019863457 0.0033688825 0.00028926364
8.712334e-05 0.002949973 2.4193985e-06 1.2345702e-06 4.4505647e-05 6.3700914e-05 1.707825e-05 0.00046199036
0.00027857188 6.51577e-05 0.0012116487 1.1237012e-05 1.1584525e-05 0.00023941108 6.23091e-05 1.772165e-05
0.0003098904 9.308819e-05 4.141033e-05 0.0015669619 7.400664e-05 5.6423498e-05 0.0017466123 3.1079857e-05
1.6794384e-05 0.0002661277 0.00017679323 6.46852e-05 0.0011639149 9.223024e-06 7.161738e-06 0.00023637584
2.3677047e-05 2.5424408e-05 0.00067158585 1.0158828e-05 1.0277886e-05 0.00012300439 0.0004847146 0.00011585557
0.0027712446 0.00011167561 3.384255e-05 0.00047099194 0.00020091565 6.392671e-05 0.0013934203 2.6688893e-05
2.659384e-05 0.00083700626 3.576698e-05 3.4484467e-05 0.00082792947 7.312726e-05 2.4284547e-05 0.00065657485

exp_avg f4 [64]
00000000: b470 423b 49d5 043b 41b1 57bb df60 8c3b
00000010: 8602 943b 03f5 aa3b 6234 c83b 7a79 8dbb
00000020: 9f64 e43a 4375 84bb 647f 4ebc ea3b 9cb9
00000030: b18b ee3a f15c b539 2ed4 0c3b f637 e439
00000040: 409a 87bb 80e8 4836 0227 af3a 0e30 8bba
00000050: afd3 12bb 06cc c4ba a8a6 4f39 7cb8 b73b
00000060: ddd8 1d3b f0af 14ba 480f df3a 20a6 50bb
00000070: 1ef7 b43a 3a7e edba c86e 123a 2e47 303b
00000080: 4014 74bb a273 213b 7f02 8bbb d5b0 ed3a
00000090: 6e89 923b 4ab2 843b 10ea 22bb b393 b03a
000000a0: 2ca9 9fbb c6b2 c53a a267 b3bb 1d6f 333b
000000b0: 64d2 073c 2dd6 9ebb 68d7 883a 3ab2 b9ba
000000c0: 7fe7 0cbc a275 233b 8559 8cbb 4d86 15bb
000000d0: ef7f b63b c7d5 513a 64ba 703b 76b3 a83a
000000e0: 6686 313b 936e 043a a1ec b1bb efeb 783b
000000f0: 2d2e 64bb 5c55 813b e512 063a b690 28ba
0.0029669227 0.002026873 -0.0032912048 0.004284009 0.0045169024 0.005217196 0.00610976 -0.0043174597
0.0017425007 -0.004042299 -0.0126036145 -0.00029799278 0.001819959 0.00034592257 0.0021488774 0.00043529243
-0.004138261 2.9937655e-06 0.0013363066 -0.001061918 -0.0022404005 -0.0015014417 0.00019803143 0.005606709
0.002408556 -0.00056719687 0.0017018104 -0.00318373 0.0013806557 -0.0018119283 0.00055859657 0.0026897895
-0.0037243515 0.0024635573 -0.004242241 0.0018134365 0.0044719493 0.004049574 -0.002485875 0.0013471752
-0.004872462 0.0015083186 -0.0054750005 0.002737946 0.008289907 -0.004847309 0.0010440173 -0.0014167496
-0.008600115 0.002494194 -0.0042831325 -0.0022815645 0.00556945 0.00080045726 0.0036732191 0.0012870866
0.0027088164 0.0005051877 -0.0054298197 0.0037982424 -0.0034817562 0.003946943 0.000511451 -0.0006430255

exp_avg_sq f4 [64]
00000000: bcfb 9b38 9923 a538 c12b 5b38 7809 db38
00000010: 3d39 d338 482b 203a ba39 ef39 be00 0f3a
00000020: f7c7 1138 a90d 2a3a d67d 693a 18e9 4936
00000030: 6406 9737 a8c4 d636 a9c1 a737 ebba 1837
00000040: 93e7 2139 6665 df36 958b ca36 917b 8639
00000050: 3660 ec36 4faf b437 b834 6437 071c ab38
00000060: f68e 4d38 8822 6e36 db85 5d37 f4e6 0d38
00000070: 0e7e 0a38 5861 4638 96a0 173a d4e8 5238
00000080: 2db2 7c38 2756 a239 9cfe 4139 823e c737
00000090: aaa2 c138 4b50 5b38 e08a fc39 4907 9c37
000000a0: 9574 8038 fa80 5137 2692 e639 b926 ae38
000000b0: 91c1 4c3a 06e2 d339 930f 7c36 0c15 b738
000000c0: 7907 b439 936d b637 1c71 a038 9228 1339
000000d0: e958 0139 16d8 5338 7c2f 8439 fbd0 7937
000000e0: ee9d 1938 1b91 a837 c186 1f3a 4254 1a39
000000f0: b77d 7b39 87e0 2738 5a23 7038 44c3 d938
7.437865e-05 7.874444e-05 5.2254418e-05 0.000104444975 0.000100719255 0.0006109965 0.00045628642 0.00054551277
3.4756926e-05 0.0006487021 0.00089069956 3.0087012e-06 1.8003579e-05 6.400591e-06 1.9998131e-05 9.103426e-06
0.00015440425 6.657722e-06 6.0363186e-06 0.00025650536 7.0445485e-06 2.1539307e-05 1.3602134e-05 8.159136e-05
4.900895e-05 3.5484863e-06 1.3203792e-05 3.383211e-05 3.301916e-05 4.7297537e-05 0.0005784122 5.028474e-05
6.024742e-05 0.00030963236 0.00018500764 2.3751756e-05 9.233256e-05 5.2288447e-05 0.00048168655 1.8600042e-05
6.125231e-05 1.24874e-05 0.00043977908 8.304179e-05 0.0007810826 0.00040413457 3.7559992e-06 8.73004e-05
0.00034337843 2.1747115e-05 7.650463e-05 0.00014034126 0.0001233552 5.0507566e-05 0.0002521238 1.4890214e-05
3.6625126e-05 2.009473e-05 0.00060854485 0.00014717973 0.00023984058 4.002501e-05 5.7253383e-05 0.000103837374
