test_model_pth/continue/test_pendulum_ppo_cuda.pth (torch, 132290 bytes, 30 tensors)

weight f4 [64, 3]
-0.08043984 0.3545715 -0.11780776 -0.13950385 -0.09418047 -0.10991489 -0.20569254 0.32314336
-0.116046414 -0.3023681 -0.0071120053 0.07346127 -0.31237695 -0.12395881 -0.116281494 -0.18650626
-0.083482 0.04540328 -0.14643873 -0.30292627 -0.093369596 -0.02149628 -0.29828426 -0.05475681
-0.1272431 0.22006789 0.28109935 0.21203673 0.20547843 0.070522755 -0.27267286 0.29487905
0.036854055 -0.04156652 0.14874509 -0.28313902 -0.029069874 -0.09103735 0.083785065 0.28074843
0.16181114 0.104191855 0.13429792 0.04777199 0.25376388 0.054356012 0.35369623 0.07982405
-0.10294229 -0.09089864 0.06495035 0.12235622 -0.32627052 -0.06410198 -0.16645323 -0.095567256
-0.011942118 -0.08709315 -0.16006564 0.057907604 0.11255033 -0.04300727 0.0735007 0.035711013
-0.3180984 -0.15135778 0.07121227 -0.107215635 -0.24386387 0.38942626 -0.051416665 -0.12551056
-0.116066866 -0.010981417 0.17651409 0.15134418 0.13058859 -0.010301591 -0.16511098 0.05316794
-0.10975703 -0.24620901 -0.077134855 -0.06467676 -0.2257475 -0.00014088175 0.21570113 0.16977492
-0.4137927 0.16884317 0.240653 -0.26573756 -0.17944263 0.07822459 -0.28117046 -0.07781856
0.18384631 -0.15927775 0.041431256 0.03858977 0.42286783 0.13261375 0.19782923 -0.25890228
-0.019517405 -0.087792814 0.07324684 0.038370878 0.02617419 0.21526262 -0.17172533 0.20372847
0.30379313 0.15691975 0.26632893 -0.21312486 0.09015868 0.26038626 0.12524293 0.05171719
0.1075728 0.18386622 -0.092799194 -0.13421391 0.003214313 0.06918375 0.14862815 -0.29215813
-0.08271784 0.17469698 0.23701932 0.06736369 0.0054081865 0.1479919 -0.062804095 0.10148896
-0.13025948 0.09790608 0.27246433 -0.14938946 -0.14809646 0.199946 -0.066851266 -0.16950467
0.0035302131 -0.2823822 -0.046177335 0.16985261 0.013253708 -0.10287534 0.09427933 -0.47634074
-0.10323681 -0.12222033 0.14541838 0.09951607 0.044265307 0.20535189 0.12204506 -0.34908235
-0.07516004 -0.042132385 0.06992327 -0.2912523 -0.069756575 0.14449617 -0.101520225 -0.0728302
-0.015105951 -0.16209799 0.05043115 0.28698277 0.16844581 0.15203246 -0.13729735 -0.02775425
-0.031707507 0.10478648 -0.17151621 -0.06513194 0.203042 0.20676076 0.069099784 -0.33590615
0.0679774 -0.23585495 -0.12722152 0.0996394 -0.15174448 -0.058371328 -0.09416984 0.047392603
00000000: a5bd a4bd 658a b53e 3245 f1bd 19da 0ebe
00000010: b1e1 c0bd 0f1b e1bd 11a1 52be 0c73 a53e
00000020: bea9 edbd fecf 9abe d30b e9bb dd72 963d
00000030: dfef 9fbe 1ede fdbd fe24 eebd 7ffb 3ebe
00000040: 9cf8 aabd caf8 393d 09f4 15be 2719 9bbe
00000050: 8f38 bfbd f718 b0bc b7b8 98be ad48 60bd
00000060: 044c 02be 7a59 613e 41ec 8f3e 2820 593e
00000070: f068 523e 3c6e 903d c79b 8bbe 63fa 963e
00000080: 47f4 163d a841 2abd a250 183e 99f7 90be
00000090: f223 eebc ca71 babd 8197 ab3d 42be 8f3e
000000a0: d2b1 253e 8a62 d53d 6585 093e 90ac 433d
000000b0: 57ed 813e 69a4 5e3d ac17 b53e cb7a a33d
000000c0: 68d3 d2bd 1129 babd b004 853d e695 fa3d
000000d0: ee0c a7be e647 83bd b772 2abe c4b8 c3bd
000000e0: e0a8 43bc e55d b2bd 3fe8 23be 8630 6d3d
000000f0: ca80 e63d 6428 30bd 8987 963d b645 123d
00000100: cbdd a2be 89fd 1abe bdd7 913d df93 dbbd
00000110: 73b7 79be e162 c73e 489a 52bd d785 00be
00000120: 77b4 edbd 67eb 33bc 1cc0 343e f8f9 1a3e
00000130: 04b9 053e 01c8 28bc da12 29be a0c6 593d
00000140: 4bc8 e0bd 371e 7cbe e1f8 9dbd 4075 84bd
00000150: 5a2a 67be a8b9 13b9 c2e0 5c3e 7ad9 2d3e
00000160: a3dc d3be 39e5 2c3e bd6d 763e c10e 88be
00000170: cfbf 37be 3734 a03d 93f5 8fbe 565f 9fbd
00000180: 3542 3c3e b519 23be d2b3 293d 4f10 1e3d
00000190: 2282 d83e e6cb 073e bf93 4a3e d78e 84be
000001a0: f7e2 9fbc b8cc b3bd 7002 963d c82a 1d3d
000001b0: 416b d63c ce6d 5c3e c4d8 2fbe 329e 503e
000001c0: c68a 9b3e 92af 203e 445c 883e 673d 5abe
000001d0: 1da5 b83d 5951 853e af3f 003e 67d5 533d
000001e0: 214f dc3d 6d47 3c3e 810d bebd 5f6f 09be
000001f0: 39a7 523b 36b0 8d3d fa31 183e c095 95be
00000200: f967 a9bd c4e3 323e 31b5 723e f9f5 893d
00000210: 2837 b13b 308b 173e 6f9f 80bd 72d9 cf3d
00000220: be62 05be fc82 c83d 7280 8b3e 8df9 18be
00000230: 99a6 17be a5be 4c3e 51e9 88bd a292 2dbe
00000240: 265b 673b 6694 90be 7224 3dbd d8ed 2d3e
00000250: 1526 593c 4eb0 d2bd 8515 c13d efe2 f3be
00000260: d26d d3bd a74e fabd 8ee8 143e 15cf cb3d
00000270: 8a4f 353d c447 523e c3f2 f93d ecba b2be
00000280: 82ed 99bd 0293 2cbd ee33 8f3d 051f 95be
00000290: 89dc 8ebd cef6 133e d6e9 cfbd 0028 95bd
000002a0: f37e 77bc 04fd 25be e590 4e3d 68ef 923e
000002b0: 0f7d 2c3e 66ae 1b3e ad97 0cbe e25c e3bc
000002c0: bbdf 01bd 4b9a d63d f2a1 2fbe e563 85bd
000002d0: 3eea 4f3e 18b9 533e 3084 8d3d e4fb abbe
000002e0: bc37 8b3d f683 71be 5c46 02be be0f cc3d
000002f0: e862 1bbe c616 6fbd 1edc c0bd bf1e 423d

bias f4 [64]
0.0937529 0.059812993 0.050236885 -0.009370063 0.061838623 0.03916157 0.047627416 0.1055256
-0.013162944 0.0334636 0.124617636 0.05774886 0.07503232 -0.1122091 -0.024140535 0.04502791
0.056008436 -0.010138299 0.07474945 0.0737036 -0.13324754 0.030846557 -0.110289425 -0.00842477
-0.060623083 0.04429178 0.033837393 0.0049519115 0.08322441 0.11270037 -0.08641927 -0.024841897
0.073674075 0.069263995 0.032969523 0.06421519 0.12181727 -0.024093427 -0.00807693 -0.01643853
0.015066844 0.016699288 -0.04691427 -0.011902382 0.12164922 -0.009601153 -0.09413327 -0.10904296
0.073089294 -0.112293236 0.058892474 0.00915437 0.02263784 0.08789157 0.027826631 -0.11601844
0.090758264 -0.017818578 0.0026687314 -0.06876365 0.0078163715 0.09065889 0.048579358 0.08259737
00000000: 8501 c03d 78fe 743d 31c5 4d3d e584 19bc
00000010: 7f4a 7d3d e267 203d f714 433d ce1d d83d
00000020: 63a9 57bc 2111 093d 8837 ff3d 128a 6c3d
00000030: 8caa 993d e2cd e5bd 5fc2 c5bc 306f 383d
00000040: 1a69 653d 1c1b 26bc 3d16 993d eaf1 963d
00000050: 0b72 08be ebb1 fc3c 6cdf e1bd 0c08 0abc
00000060: e94f 78bd 4c6b 353d 1499 0a3d a543 a23b
00000070: 8f71 aa3d 74cf e63d 96fc b0bd 3c81 cbbc
00000080: 6fe2 963d 48da 8d3d 0d0b 073d 4183 833d
00000090: 557b f93d 945f c5bc 1a55 04bc 19aa 86bc
000000a0: edda 763c f2cc 883c 2d29 40bd 3502 43bc
000000b0: 3a23 f93d 284e 1dbc f2c8 c0bd ea51 dfbd
000000c0: d7af 953d fff9 e5bd 3c39 713d 36fc 153c
000000d0: fe72 b93c 7f00 b43d adf4 e33c 139b edbd
000000e0: 78df b93d 44f8 91bc e2e5 2e3b f5d3 8cbd
000000f0: 3d10 003c 5eab b93d 26fb 463d cf28 a93d

weight f4 [64, 64]
-0.016226409 -0.096654914 -0.02191431 -0.21612413 0.08109475 -0.06686713 -0.18383832 -0.27563554
0.02110619 0.06856408 0.09459251 0.04932606 0.2024851 0.13817322 -0.22207826 0.15451114
-0.09669624 -0.1061683 -0.1518177 -0.0915878 0.05558419 -0.125138 -0.016039517 0.011460862
0.019744722 0.033845063 0.044362467 -0.039170265 -0.08431132 -0.0077100103 -0.124132656 -0.24565323
0.20217437 0.16247047 0.12402625 -0.21481775 0.03450163 0.25871468 0.23652317 -0.15982564
0.0643857 0.25953746 -0.05915896 0.29116595 0.20384799 -0.039089512 -0.14642414 -0.23487225
-0.5850057 -0.020269237 -0.38128042 0.01227427 0.028320013 -0.07522104 -0.19814964 0.07008054
0.25421038 0.12105555 -0.08199401 -0.21033993 0.053180538 0.07427376 0.15530896 -0.0007279617
0.04740983 0.00562909 -0.17784292 -0.03044607 -0.23787409 -0.06666019 -0.15526278 -0.004534747
0.21118395 -0.07301736 0.039162144 0.052443676 -0.081156865 0.07143606 -0.023976682 0.080275506
0.16350155 -0.064917855 -0.07099853 0.105717696 -0.021863107 -0.009333621 -0.0045239 -0.077645555
-0.053428497 0.030527191 0.13729113 -0.06264109 -0.16593952 0.09516367 -0.26774895 0.049697496
0.049361415 0.0009478983 0.1506232 -0.18822841 -0.093719974 -0.026216038 -0.109851845 -0.036901973
0.12544805 -0.045549914 -0.1927506 -0.07468149 -0.022870297 0.26103756 -0.20698354 0.1218976
-0.12566131 -0.20478919 -0.029871313 0.13795507 0.06922453 0.16120912 -0.18933648 -0.00023058333
-0.1485405 -0.0497173 -0.14969142 0.031344693 -0.34525555 0.03241632 -0.061212648 0.026266417
-0.2349156 0.003573411 -0.065853 -0.08050867 -0.2358215 -0.0118621895 0.22657572 0.08685865
0.039957576 0.06573934 -0.01518872 -0.05587892 0.089732714 0.0967941 0.2358233 0.25954148
-0.03077058 0.128292 -0.07972691 0.25392127 -0.017485838 -0.09024559 -0.24779245 -0.118013844
0.05610138 -0.11098621 -0.17363621 -0.08136891 0.1330146 -0.13424969 -0.1518932 -0.083641045
0.0072694723 0.026089273 -0.082338534 0.26159027 -0.09803024 0.048807725 -0.19415645 0.0547031
-0.11351535 0.17830306 -0.006299145 -0.22723924 -0.13388534 -0.0068576103 0.059736736 -0.23053673
0.023729064 -0.19049908 0.06776339 -0.025688717 0.09990474 0.22864757 0.08148344 0.08091506
0.0682879 -0.18930212 -0.09447872 -0.11612774 0.041342504 -0.11177224 0.16584729 0.1906994
-0.067163564 -0.04906411 -0.024942711 0.018520536 -0.001250061 -0.01102662 0.045940988 -0.21725583
-0.084624544 -0.023313627 -0.18464912 0.27558973 0.003611556 -0.12760253 0.005859713 -0.3136129
0.09096687 -0.0015068464 -0.33219403 0.12843664 0.02926111 0.505518 0.09651713 0.08156695
0.0017517415 -0.04430436 -0.16377495 -0.19654709 -0.04429919 0.19773245 -0.027268466 0.043223225
0.15424913 -0.030819153 0.29164016 0.06187324 -0.09828225 -0.14450864 -0.10818311 0.19304639
-0.069940604 0.027529748 0.15670566 -0.013032367 -0.012044994 0.064310886 -0.028770015 -0.109652705
0.021397676 0.13737476 0.12969004 0.021374311 -0.06315416 -0.09463639 0.053958144 0.06606174
0.15769093 -0.0985841 0.07684248 -0.02401255 -0.095805846 -0.15399289 0.07999692 -0.25789657
00000000: 3fed 84bc 03f3 c5bd a485 b3bc a54f 5dbe
00000010: 0115 a63d a2f1 88bd 1d40 3cbe 1a20 8dbe
00000020: e3e6 ac3c 536b 8c3d b8b9 c13d 1f0a 4a3d
00000030: 4158 4f3e 487d 0d3e 7c68 63be 2b38 1e3e
00000040: ae08 c6bd c46e d9bd 1976 1bbe 6292 bbbd
00000050: 3fac 633d 2d24 00be 4e65 83bc 57c6 3b3c
00000060: afbf a13c 1fa1 0a3d 6bb5 353d 0071 20bd
00000070: 6aab acbd 41a4 fcbb 4339 febd 858c 7bbe
00000080: cc06 4f3e a95e 263e 7901 fe3d 2ff9 5bbe
00000090: 9551 0d3d 4076 843e 2133 723e 55a9 23be
000000a0: a6dc 833d 18e2 843e aa50 72bd b413 953e
000000b0: 87bd 503e 531c 20bd 36f0 15be 5a82 70be
000000c0: efc2 15bf ac0b a6bc 3037 c3be 051a 493c
000000d0: 5fff e73c 7d0d 9abd bde7 4abe 6386 8f3d
000000e0: dd27 823e f9eb f73d 7aec a7bd 5a63 57be
000000f0: d6d3 593d d71c 983d 5009 1f3e afd4 3eba
00000100: cf30 423d 3b74 b83b 741c 36be 096a f9bc
00000110: 4495 73be 2385 88bd 35fd 1ebe 3798 94bb
00000120: 9b40 583e 208a 95bd 7c68 203d 2ecf 563d
00000130: 9235 a6bd 124d 923d bf6a c4bc 7c67 a43d
00000140: f36c 273e a7f3 84bd ad67 91bd 8582 d83d
00000150: 421a b3bc 0bec 18bc 393d 94bb a204 9fbd
00000160: d7d7 5abd 2914 fa3c 0c96 0c3e f949 80bd
00000170: 0dec 29be 2ce5 c23d 6416 89be 9a8f 4b3d
00000180: 322f 4a3d 617c 783a f83c 1a3e f3be 40be
00000190: 42f0 bfbd 04c3 d6bc 01fa e0bd 8626 17bd
000001a0: 7475 003e 8c92 3abd 6a60 45be 9cf2 98bd
000001b0: 7d5a bbbc b7a6 853e 7ef3 53be 73a5 f93d
000001c0: 5cad 00be 42b4 51be afb4 f4bc 1844 0d3e
000001d0: 97c5 8d3d 0114 253e 6ce1 41be bec8 71b9
000001e0: 001b 18be 5ea4 4bbd b548 19be 4b63 003d
000001f0: 56c5 b0be fac6 043d 1dba 7abd ab2c d73c
00000200: b78d 70be e32f 6a3b f0dd 86bd bbe1 a4bd
00000210: 317b 71be a159 42bc 7703 683e f3e2 b13d
00000220: 8eaa 233d 59a2 863d 1cda 78bc 4be1 64bd
00000230: c9c5 b73d fc3b c63d aa7b 713e 9fe2 843e
00000240: 9512 fcbc fa5e 033e dd47 a3bd f801 823e
00000250: 763e 8fbc aed2 b8bd 4ebd 7dbe 3eb1 f1bd
00000260: 90ca 653d bd4c e3bd b1cd 31be bea4 a6bd
00000270: fb34 083e c078 09be e489 1bbe ff4b abbd
00000280: c134 ee3b 2cb9 d53c 1ba1 a8bd 29ef 853e
00000290: 14c4 c8bd 9cea 473d f3d0 46be 5c10 603d
000002a0: bc7a e8bd 1495 363e 0f69 cebb 67b1 68be
000002b0: 3d19 09be ceb5 e0bb 82ae 743d d211 6cbe
000002c0: 7463 c23c 3112 43be 88c7 8a3d 2571 d2bc
000002d0: db9a cc3d 9722 6a3e cae0 a63d ccb6 a53d
000002e0: 87da 8b3d 6ad8 41be 0f7e c1bd 61d4 edbd
000002f0: c256 293d d8e8 e4bd dfd3 293e b446 433e
00000300: 0d8d 89bd 73f7 48bd a854 ccbc 61b8 973c
00000310: 16d9 a3ba ffa8 34bc 9e2c 3c3d 5078 5ebe
00000320: a24f adbd 38fc bebc a914 3dbe 191a 8d3e
00000330: dbaf 6c3b 3daa 02be d602 c03b df91 a0be
00000340: d74c ba3d 6081 c5ba 5615 aabe e584 033e
00000350: ffb4 ef3c a169 013f c6aa c53d 930c a73d
00000360: b19a e53a 7d78 35bd 9fb4 27be a443 49be
00000370: 1173 35bd 607a 4a3e 1e62 dfbc d60a 313d
00000380: 7cf3 1d3e 7378 fcbc dc51 953e cb6e 7d3d
00000390: 3448 c9bd 13fa 13be 1b8f ddbd f4ad 453e
000003a0: 053d 8fbd 1186 e13c 7377 203e b685 55bc
000003b0: 5e58 45bc 6db5 833d 18af ebbc 9991 e0bd
000003c0: 2e4a af3c f8ab 0c3e 77cd 043e 2e19 af3c
000003d0: f856 81bd b9d0 c1bd 3703 5d3d 614b 873d
000003e0: bb79 213e 76e6 c9bd 975f 9d3d f8b5 c4bc
000003f0: db35 c4bd 50b0 1dbe 6dd5 a33d 050b 84be

bias f4 [64]
0.03750905 -0.060341734 0.059498012 -0.013657805 -0.009442052 0.12954369 0.009400226 0.057706006
0.11193918 -0.011915592 -0.06963599 0.074803196 0.0009980235 -0.041108884 -0.008616398 0.056278653
-0.010368577 0.14068717 -0.014003689 0.06598689 0.0 -0.030324996 0.0 0.06879369
0.0086037945 0.05427066 -0.013423769 -0.02041427 0.025599293 0.03523167 0.12604457 -0.008176801
0.07285905 0.0010620147 -0.019936105 -0.06312653 0.009410585 0.11151656 0.024925826 0.0387637
0.004698259 0.019085405 -0.013260274 0.088786505 0.087951206 0.07433789 0.090690866 -0.011123343
0.0031302962 0.102754086 -0.05036239 0.018191388 0.029263888 0.021090394 0.02400419 0.0026261096
0.060901582 0.043900564 0.03217866 0.032517184 0.0967035 0.005648302 0.10757404 -0.0448779
00000000: 17a3 193d e528 77bd 30b4 733d fcc4 5fbc
00000010: d6b2 1abc 1aa7 043e 6803 1a3c 225d 6c3d
00000020: 5e40 e53d 9d39 43bc 509d 8ebd 6b32 993d
00000030: 1dd0 823a ca61 28bd cb2b 0dbc 7284 663d
00000040: f7e0 29bc 4c10 103e bb6f 65bc 2224 873d
00000050: 0000 0000 206c f8bc 0000 0000 b5e3 8c3d
00000060: eef6 0c3c e94a 5e3d 5eef 5bbc d43b a7bc
00000070: 9cb5 d13c 154f 103d d411 013e fdf7 05bc
00000080: 2037 953d 4d33 8b3a 0b51 a3bc 7b48 81bd
00000090: db2e 1a3c cb62 e43d 3f31 cc3c afc6 1e3d
000000a0: daf3 993b ff58 9c3c 9f41 59bc b3d5 b53d
000000b0: c31f b43d 773e 983d 22bc b93d af3e 36bc
000000c0: a825 4d3b bc70 d23d cb48 4ebd 1b06 953c
000000d0: d2ba ef3c c3c5 ac3c 6fa4 c43c cf1a 2c3b
000000e0: f073 793d 14d1 333d c5cd 033d bd30 053d
000000f0: 7c0c c63d 6415 b93b c74f dc3d e4d1 37bd

weight f4 [1, 64]
-0.17232962 -0.1151175 0.14686668 0.06504638 0.09719015 0.26035178 -0.09018793 0.29311025
0.15777978 -0.03174561 0.12199636 -0.18576469 0.08687816 -0.08902472 -0.27383623 -0.33808172
0.11351565 0.36486965 -0.028343905 0.22804274 -0.11523097 0.2355565 -0.13422225 -0.13241144
-0.15958445 0.10095129 0.089197725 0.27347448 0.05922815 -0.36300912 -0.18508035 -0.11895196
0.19006193 0.044475492 0.34287092 -0.11123871 -0.24399477 0.30555865 -0.21093747 -0.26804325
-0.2154294 0.14427403 -0.0038612278 -0.21595246 -0.12697087 -0.09327471 0.23787744 0.0710526
0.1516198 0.3452634 -0.07532365 0.09231388 0.19073159 -0.4200746 -0.035893973 -0.10919129
0.20958935 -0.27683356 -0.114780895 -0.1615353 0.099889055 0.17884588 0.17747739 0.09206535
00000000: 2d77 30be b9c2 ebbd 3864 163e 0937 853d
00000010: a10b c73d d44c 853e 73b4 b8bd 8c12 963e
00000020: 0691 213e af07 02bd 3ad9 f93d 1939 3ebe
00000030: 2ded b13d 9852 b6bd 4334 8cbe 0c19 adbe
00000040: e57a e83d 32d0 ba3e 7a31 e8bc 0984 693e
00000050: 37fe ebbd b935 713e 8f71 09be dd96 07be
00000060: 1b6a 23be 8dbf ce3d 4cad b63d d904 8c3e
00000070: 3799 723d 55dc b9be b485 3dbe 169d f3bd
00000080: 989f 423e ef2b 363d c78c af3e 1fd1 e3bd
00000090: c4d9 79be 2f72 9c3e feff 57be f73c 89be
000000a0: 8699 5cbe 92bc 133e a70c 7dbb a422 5dbe
000000b0: a704 02be d006 bfbd 2596 733e 0784 913d
000000c0: 3942 1b3e 5dc6 b03e 4943 9abd 0f0f bd3d
000000d0: 244f 433e 0514 d7be 8f05 13bd af9f dfbd
000000e0: 979e 563e 21bd 8dbe 3f12 ebbd 8269 25be
000000f0: a292 cc3d 6023 373e a2bc 353e c28c bc3d

weight f4 [64, 3]
-0.17485072 -0.23933801 -0.05919054 0.19269057 -0.35769486 -0.10095165 -0.13164495 0.038911708
-0.037626084 0.057093583 -0.28460765 -0.028952552 -0.13916063 -0.2905336 0.20156674 -0.1125157
0.12979397 0.024906848 -0.06534292 0.2893722 0.057462644 0.26717922 0.25284386 0.21131548
0.027486017 0.24466854 -0.16103774 0.1224289 0.10246334 -0.22434646 -0.09199752 -0.21070822
-0.050443526 -0.31485775 -0.19916327 0.005971252 0.26317507 0.40902013 0.09170241 -0.10901841
0.20358609 0.014611782 -0.15044521 0.12033305 0.050477773 -0.23736729 -0.010701595 -0.010643029
-0.1392872 0.050988905 0.03861219 0.28328836 0.06316713 0.16755371 -0.1445846 0.22662552
0.061526246 -0.14565438 0.14652038 0.04166856 -0.061728798 -0.3253313 -0.23086886 0.035886854
-0.2513331 -0.06288258 -0.18515109 0.2559559 0.07718232 -0.064934865 0.26941988 -0.15243706
0.11595036 -0.33330944 -0.339435 -0.11835886 -0.019956216 0.10094724 0.13086289 -0.24194962
-0.02618631 -0.17374593 -0.13373023 -0.05522971 -0.128083 0.088743284 0.038435258 -0.019829918
0.13126363 0.0069830306 -0.1526805 0.069395706 0.043177426 0.24921238 -0.104346 -0.017726244
-0.30874524 0.13310437 0.04892407 0.06832767 0.28395727 -0.050489143 -0.17957884 -0.24064648
-0.07397839 -0.14690764 0.014751411 -0.090478174 -0.0561488 0.49680424 0.19293891 -0.010006902
0.1656994 -0.009645139 -0.18800537 0.06380781 0.19612055 0.0029347006 -0.2800842 -0.02774656
-0.10589845 -0.3774951 -0.09543486 -0.12722372 -0.117221475 -0.04331314 -0.1242187 -0.032088615
0.11621438 0.22143939 -0.29240766 -0.158301 0.37596872 0.13364667 -0.027895294 -0.07886326
-0.046123788 0.070644006 0.23183264 -0.2842539 -0.0826676 -0.09709198 -0.08956419 0.08563912
-0.17101449 0.15428522 0.058164988 0.19066702 0.37782001 0.16743408 0.1349452 -0.11937797
0.29534656 -0.19060938 0.12756598 0.22327583 -0.057982564 -0.12689386 -0.12303319 0.3793473
-0.056077324 0.006147973 -0.073385015 -0.17383654 -0.17113926 -0.14350574 0.13069873 -0.14896312
0.35921055 0.38637444 0.11456474 -0.3337903 -0.06955226 -0.13711753 -0.19558747 0.08410765
0.035004485 -0.14241967 -0.23925996 -0.043027587 0.0588904 -0.08512488 0.13780673 0.07988215
0.21726888 -0.020183764 0.0056492393 0.008456696 -0.11017123 0.20330854 -0.25336334 -0.067187674
00000000: 110c 33be 0615 75be c871 72bd ad50 453e
00000010: c823 b7be bdbf cebd efcd 06be e261 1f3d
00000020: cf1d 1abd f6da 693d 18b8 91be e72d edbc
00000030: 2080 0ebe d2c0 94be 8367 4e3e a26e e6bd
00000040: b6e8 043e 7209 cc3c 82d2 85bd 9828 943e
00000050: f35d 6b3d b7cb 883e c074 813e 1663 583e
00000060: 5b2a e13c 648a 7a3e 14e7 24be 01bc fa3d
00000070: 4dd8 d13d 14bb 65be 3269 bcbd e5c3 57be
00000080: df9d 4ebd 0935 a1be 75f1 4bbe 7eaa c33b
00000090: e2be 863e 166b d13e 79ce bb3d 0b45 dfbd
000000a0: df78 503e 4166 6f3c 4f0e 1abe 2d71 f63d
000000b0: c8c1 4e3d 6910 73be be55 2fbc 1960 2ebc
000000c0: 4ea1 0ebe bed9 503d d127 1e3d 2c0b 913e
000000d0: c55d 813d 3393 2b3e fc0d 14be 8510 683e
000000e0: f202 7c3d 6c26 15be 7009 163e a7ac 2a3d
000000f0: 56d7 7cbd d391 a6be e368 6cbe 18fe 123d
00000100: bbae 80be 95c8 80bd 3f98 3dbe a70c 833e
00000110: c411 9e3d 92fc 84bd 67f1 893e 7618 1cbe
00000120: 6277 ed3d 89a7 aabe 6dca adbe 2166 f2bd
00000130: 387b a3bc 6dbd ce3d ec00 063e a4c1 77be
00000140: ac84 d6bc 74ea 31be 94f0 08be 8c38 62bd
00000150: 3128 03be 0abf b53d 4a6e 1d3d 5a72 a2bc
00000160: f969 063e e8d1 e43b 4758 1cbe 561f 8e3d
00000170: d0da 303d 8831 7f3e 5bb3 d5bd a136 91bc
00000180: db13 9ebe 834c 083e 9b64 483d 61ef 8b3d
00000190: d962 913e b4cd 4ebd 84e3 37be 086c 76be
000001a0: fb81 97bd f56e 16be e7af 713c 9f4c b9bd
000001b0: 49fc 65bd 205d fe3e c791 453e fdf3 23bc
000001c0: 1aad 293e a506 1ebc 7b84 40be abad 823d
000001d0: d3d3 483e 1b54 403b 3267 8fbe c14c e3bc
000001e0: 49e1 d8bd 0a47 c1be 5a73 c3bd ef46 02be
000001f0: d011 f0bd 1e69 31bd 6066 febd 5a6f 03bd
00000200: ce01 ee3d 02c1 623e 75b6 95be a819 22be
00000210: f97e c03e acda 083e ac84 e4bc 1083 a1bd
00000220: 4cec 3cbd cead 903d 8965 6d3e ba89 91be
00000230: a14d a9bd 29d8 c6bd 6e6d b7bd 9063 af3d
00000240: 6c1e 2fbe f2fc 1d3e 693e 6e3d 373e 433e
00000250: a071 c13e d773 2b3e 132f 0a3e 707c f4bd
00000260: aa37 973e 1b2f 43be a8a0 023e 6ba2 643e
00000270: 207f 6dbd 77f0 01be d3f8 fbbd cf39 c23e
00000280: 56b1 65bd ef74 c93b e24a 96bd 3502 32be
00000290: 213f 2fbe 2bf3 12be e3d5 053e ca89 18be
000002a0: 72ea b73e dfd2 c53e eba0 ea3d 90e6 aabe
000002b0: 6a71 8ebd 8a68 0cbe 1548 48be a240 ac3d
000002c0: dd60 0f3d 76d6 11be 9000 75be b23d 30bd
000002d0: 0f37 713d f455 aebd 351d 0d3e 4199 a33d
000002e0: bc7b 5e3e 6c58 a5bc 411d b93b f48d 0a3c
000002f0: 74a1 e1bd 1d30 503e d7b8 81be b199 89bd

bias f4 [64]
0.13363591 0.12615196 0.08239181 0.12024261 0.08661399 0.089963585 0.06639641 0.07755236
-0.045090914 -0.073473975 0.05489316 0.062080074 0.12794107 0.09797121 0.12952332 0.0724323
0.122931115 -0.016634746 0.10239677 0.11620809 0.07387356 0.09534126 0.14344917 -0.09013854
0.057704728 -0.13309057 0.09873141 0.1451065 0.10609734 0.13371359 0.14055246 0.12593965
0.13125819 0.09563984 0.13467978 0.0984349 0.10272388 0.13590826 0.13931704 0.12019504
0.0758648 0.10203104 -0.04634034 0.10643802 0.059377432 0.06128354 0.043660708 0.092387356
0.14288093 0.07975066 -0.06514976 -0.12850358 0.083872244 0.0839171 -0.08299545 0.086309165
0.12232363 0.115684964 0.13443972 0.11481842 -0.12069316 0.10835474 0.054402616 0.0006846804
00000000: dad7 083e fb2d 013e 0abd a83d c241 f63d
00000010: ad62 b13d d43e b83d d7fa 873d c6d3 9e3d
00000020: 40b1 38bd 8679 96bd a6d7 603d ad47 7e3d
00000030: fc02 033e 21a5 c83d c3a1 043e 6357 943d
00000040: 4fc3 fb3d 9745 88bc 66b5 d13d 82fe ed3d
00000050: 054b 973d 4742 c33d 57e4 123e 8e9a b8bd
00000060: cb5b 6c3d e548 08be b233 ca3d cc96 143e
00000070: 9049 d93d 37ec 083e fcec 0f3e 53f6 003e
00000080: 8c68 063e d2de c33d 7fe9 093e 3d98 c93d
00000090: e660 d23d 892b 0b3e 20a9 0e3e d128 f63d
000000a0: 015f 9b3d a6f5 d03d 5ecf 3dbd 2dfc d93d
000000b0: c035 733d 7304 7b3d 92d5 323d 9535 bd3d
000000c0: 614f 123e 5054 a33d 3d6d 85bd 7196 03be
000000d0: 36c5 ab3d bbdc ab3d 85f9 a9bd dcc2 b03d
000000e0: d084 fa3d 3dec ec3d 91aa 093e eb25 eb3d
000000f0: fa2d f7bd 17e9 dd3d 47d5 5e3d 207c 333a

weight f4 [64, 64]
-0.2303217 -0.092815764 0.13400592 0.19107524 0.030330068 -0.1322334 -0.16150181 0.19207908
0.07300301 -0.03310787 -0.20521712 0.0016200391 -0.15981229 0.013000883 -0.02110805 -0.055443782
0.03636083 0.020148024 -0.08808206 0.06426904 -0.19784439 6.700607e-05 0.17389901 -0.0022654051
0.08941726 0.21812569 -0.06046073 -0.10877523 0.07638002 -0.06939228 -0.035427902 -0.2120093
0.14839442 0.18546364 -0.47425082 0.13635753 -0.03044591 -0.09749712 0.0070860377 0.083352424
-0.07010859 -0.16800483 0.097535044 -0.14913735 -0.21969144 0.025107507 0.32645586 0.1786274
-0.0394967 0.1657278 0.37801665 0.099715784 -0.09983845 0.07084738 -0.083672166 -0.06640343
-0.11194232 0.15740229 -0.20130087 -0.07798921 0.03895528 -0.009490555 -0.10408562 0.053155076
0.1641091 -0.109209 0.03478505 0.31690338 -0.012943663 0.21336372 0.1894808 0.19480592
0.11538276 -0.30201343 -0.018256273 -0.004753885 0.13064763 0.37536156 -0.028355926 0.019595893
0.20925085 -0.0068799197 0.034833055 0.010360153 0.004332738 -0.15466256 -0.086091354 -0.06346611
-0.15546605 -0.10408062 0.033514895 0.03702726 0.0031431504 0.16683699 0.29293528 -0.117280036
0.101349674 0.13954358 0.20946333 -0.08416962 0.046697948 -0.0126528675 0.11918416 0.02466643
0.16542676 0.22465542 0.21638624 -0.2554781 0.027501047 0.11114951 -0.17392036 -0.19672541
-0.02238471 0.07793116 0.036850184 -0.2019559 0.05141028 -0.06301291 -0.25691363 -0.032323617
0.07726887 0.070154905 0.07434221 0.13135523 -0.093498826 0.026055073 0.118790865 0.09718718
0.0782708 -0.10685273 0.07374641 0.12793125 0.10211278 0.19405895 0.2507044 -0.19611287
-0.08041335 -0.24209358 -0.026539639 0.08393006 0.10049529 0.14986844 0.112541154 0.23446892
0.08011312 -0.04937153 0.26812872 0.11018197 -0.11073631 0.04112476 -0.030699722 -0.22336496
0.034089237 -0.24684826 0.3305112 0.07166412 0.025160246 0.079437695 0.16744797 -0.12894696
0.12410531 0.061349235 -0.054696493 -0.18432185 0.12767707 0.30637294 0.09020612 -0.02341259
-0.091973305 -0.05508624 -0.2760115 -0.18331616 0.041913155 0.053783294 0.21259828 0.07131436
0.11774315 -0.084111236 0.057576716 -0.027250355 0.12549421 0.3307505 0.07131997 0.0816345
-0.063525036 -0.06532764 0.2400207 0.17777768 0.039055016 0.33849964 0.0036823421 0.08520907
0.26041117 -0.30638447 -0.21878633 -0.057800494 -0.092383265 0.056686867 -0.10760573 -0.12244514
-0.108868726 -0.05036584 0.005763098 0.037867203 -0.18834452 -0.14416744 0.18143824 -0.36333966
-0.05814 -0.010290756 0.080670714 -0.027040616 -0.019550147 0.09036725 -0.09586502 -0.11663822
0.24154067 -0.20079093 0.081526406 0.008870524 0.11266709 -0.0060087857 -0.0049791937 0.033926718
-0.07009594 -0.067565545 -0.025092527 0.032572404 -0.037038315 0.09236032 0.07881614 0.1473025
-0.016595984 -0.036469933 0.0052989586 -0.30546388 0.01166694 -0.156723 -0.022837875 -0.099462286
0.024981508 0.19593602 0.005350975 -0.04109112 -0.040307757 -0.13529067 -0.16464096 0.028577073
-0.004619657 -0.06029401 -0.079719014 -0.015727894 -0.029046247 -0.081835285 -0.26469532 0.17649399
00000000: 74d9 6bbe 3116 bebd d938 093e 3aa9 433e
00000010: c376 f83c 3168 07be bb60 25be 61b0 443e
00000020: 9a82 953d 1e9c 07bd 7024 52be 7e57 d43a
00000030: d5a5 23be a801 553c caea acbc 0519 63bd
00000040: 18ef 143d 780d a53c 5e64 b4bd 7d9f 833d
00000050: b897 4abe 9c85 8c38 9512 323e 3177 14bb
00000060: 6520 b73d 575c 5f3e aca5 77bd 8cc5 debd
00000070: 216d 9c3d 8a1d 8ebd d91c 11bd f718 59be
00000080: b5f4 173e 2eea 3d3e 01d1 f2be 4fa1 0b3e
00000090: b369 f9bc 92ac c7bd fe31 e83b adb4 aa3d
000000a0: 1895 8fbd 7509 2cbe 74c0 c73d 76b7 18be
000000b0: cbf6 60be 42ae cd3c 3925 a73e 1aea 363e
000000c0: 4bc7 21bd 8cb4 293e 668b c13e ca37 cc3d
000000d0: 1a78 ccbd 6e18 913d 505c abbd 86fe 87bd
000000e0: 0442 e5bd 112e 213e d121 4ebe cfb8 9fbd
000000f0: 928f 1f3d 467e 1bbc d72a d5bd 23b9 593d
00000100: 370c 283e f8a8 dfbd c57a 0e3d 2941 a23e
00000110: a811 54bc 057c 5a3e 4107 423e 347b 473e
00000120: cc4d ec3d 81a1 9abe 2e8e 95bc 7ac6 9bbb
00000130: 7ec8 053e 642f c03e b04a e8bc 9187 a03c
00000140: db45 563e f370 e1bb 1bad 0e3d a2bd 293c
00000150: a4f9 8d3b dd5f 1ebe aa50 b0bd 85fa 81bd
00000160: 7e32 1fbe 3828 d5bd ea46 093d e5a9 173d
00000170: 50fd 4d3b 51d7 2a3e 9dfb 953e 8430 f0bd
00000180: 6b90 cf3d 83e4 0e3e 8e7d 563e 1f61 acbd
00000190: 5946 3f3d f94d 4fbc d316 f43d 4111 ca3c
000001a0: a265 293e 120c 663e 5b94 5d3e 07ce 82be
000001b0: e049 e13c 5ba2 e33d 2e18 32be 6372 49be
000001c0: 2460 b7bc 5f9a 9f3d 38f0 163d 87cd 4ebe
000001d0: 9693 523d ea0c 81bd 2f8a 83be c565 04bd
000001e0: 243f 9e3d 60ad 8f3d bb40 983d fc81 063e
000001f0: 507c bfbd 7371 d53c a048 f33d 120a c73d
00000200: 714c a03d 9bd5 dabd 5c08 973d 6900 033e
00000210: 8120 d13d 64b7 463e 545c 803e d0d1 48be
00000220: c1af a4bd 61e7 77be a869 d9bc 86e3 ab3d
00000230: 79d0 cd3d 1d77 193e fa7b e63d 9f18 703e
00000240: 5912 a43d cd39 4abd 2b48 893e 16a7 e13d
00000250: b8c9 e2bd 7072 283d fc7d fbbc c9b9 64be
00000260: 28a1 0b3d cac5 7cbe c438 a93e a3c4 923d
00000270: dc1c ce3c 3bb0 a23d 7b77 2b3e ac0a 04be
00000280: ed2a fe3d 5649 7b3d 6e09 60bd debe 3cbe
00000290: c7bd 023e eadc 9c3e fcbd b83d c3cb bfbc
000002a0: 805c bcbd 1ca2 61bd 6151 8dbe 3bb7 3bbe
000002b0: 21ad 2b3d df4b 5c3d 5db3 593e 430d 923d
000002c0: 5223 f13d 8342 acbd 90d5 6b3d 233c dfbc
000002d0: 8e81 003e 2158 a93e 3410 923d fd2f a73d
000002e0: 6a19 82bd 7fca 85bd fdc7 753e 5a0b 363e
000002f0: 27f8 1f3d d34f ad3e 7353 713b 1882 ae3d
00000300: 9d54 853e 6dde 9cbe 8609 60be 36c0 6cbd
00000310: 7033 bdbd 7d30 683d 6560 dcbd 84c4 fabd
00000320: 91f6 debd 694c 4ebd 5fd8 bc3b a41a 1b3d
00000330: 63dd 40be a1a0 13be f2ca 393e a807 babe
00000340: 3524 6ebd 8f9a 28bc b036 a53d 4884 ddbc
00000350: a127 a0bc 7712 b93d e154 c4bd 05e0 eebd
00000360: 7056 773e 239c 4dbe 51f7 a63d ad55 113c
00000370: 01be e63d 59e5 c4bb 8128 a3bb bef6 0a3d
00000380: 768e 8fbd ce5f 8abd d88e cdbc a46a 053d
00000390: 7db5 17bd 6827 bd3d 5b6a a13d 77d6 163e
000003a0: 4df4 87bc 7f61 15bd e3a2 ad3b c365 9cbe
000003b0: b126 3f3c fe7b 20be 7f16 bbbc e2b2 cbbd
000003c0: 05a6 cc3c 74a3 483e 3b57 af3b 2a4f 28bd
000003d0: bf19 25bd a389 0abe a497 28be 771a ea3c
000003e0: 7e60 97bb daf6 76bd b943 a3bd c9d7 80bc
000003f0: 65f2 edbc 4299 a7bd 2586 87be d7ba 343e

bias f4 [64]
-0.031298004 0.08979956 0.0767767 -0.019093623 -0.03142698 0.07871439 0.070538715 0.07656465
-0.0031263262 0.09912695 0.0034377677 0.08606053 -0.020684596 0.07452767 0.0897999 0.06308915
0.10177987 0.07136439 -0.012168401 0.07406585 0.12590376 0.08687019 -0.025428936 0.079231456
0.08538117 0.07899955 0.07752218 -0.04749991 0.078247175 -0.034902662 -0.012384441 0.07395009
0.11799301 0.04534985 0.072381206 0.080237426 0.07749085 -0.043451358 -0.062609464 0.0703516
-0.024658887 0.034878038 -0.026254166 0.107511245 0.09100035 -0.021516966 0.095437594 -0.022498414
0.10981308 -0.015047866 -0.025593426 -0.025248516 -0.020344047 0.118615896 0.067813255 0.0853263
0.11710654 -0.019995222 0.06588151 -0.024181912 0.06741635 0.0 -0.050517518 0.06532802
00000000: 5632 00bd d5e8 b73d 1a3d 9d3d 3b6a 9cbc
00000010: 94b9 00bd 0335 a13d 9a76 903d edcd 9c3d
00000020: 0de3 4cbb 1203 cb3d 2c4c 613b 8140 b03d
00000030: be72 a9bc f7a1 983d 03e9 b73d e234 813d
00000040: f771 d03d 7e27 923d f95d 47bc d6af 973d
00000050: eaec 003e 00e9 b13d 5850 d0bc 1a44 a23d
00000060: 53dc ae3d 84ca a13d f3c3 9e3d 448f 42bd
00000070: 0e40 a03d 18f6 0ebd 1ce8 4abc 2573 973d
00000080: 52a6 f13d c4c0 393d 993c 943d 8553 a43d
00000090: 86b3 9e3d 0dfa 31bd 6439 80bd 8014 903d
000000a0: 6f01 cabc 46dc 0e3d fa12 d7bc db2e dc3d
000000b0: 645e ba3d 5944 b0bc c974 c33d 984e b8bc
000000c0: aee5 e03d 538b 76bc 4ea9 d1bc fad5 cebc
000000d0: 8fa8 a6bc e4ec f23d ade1 8a3d 8ebf ae3d
000000e0: 8ed5 ef3d 05cd a3bc e3ec 863d 2519 c6bc
000000f0: 9511 8a3d 0000 0000 75eb 4ebd b2ca 853d

weight f4 [1, 64]
0.33582708 -0.22281961 -0.24203056 0.032083005 0.11453735 -0.11991717 -0.2606581 -0.09551839
-0.36079794 -0.059164707 0.34871018 -0.058923163 0.014644889 -0.1404546 -0.1525731 -0.2222427
-0.11371047 -0.12799756 0.13917734 -0.1310156 -0.45964444 -0.073459946 0.07662156 -0.29319817
-0.1025977 -0.18171932 -0.16770658 0.15374024 -0.12804136 0.30981776 0.021192264 -0.1471066
-0.17696059 0.36325568 -0.17346703 -0.13138124 -0.2387537 0.14913893 0.115228206 -0.14256051
0.19788492 0.4207767 0.04852591 -0.08551439 -0.066525996 0.06358295 -0.29528588 0.058270775
-0.17890942 0.1505498 0.12868524 0.013754756 0.012628016 -0.2800777 -0.13676901 -0.13616346
-0.18411222 0.11088753 -0.20089224 0.056764893 -0.27587348 -0.10511624 0.28866905 -0.15471502
00000000: 87f1 ab3e d32a 64be dcd6 77be 7869 033d
00000010: 8f92 ea3d 2297 f5bd fa74 85be 259f c3bd
00000020: 82ba b8be b156 72bd 248a b23e 6a59 71bd
00000030: 1ef1 6f3c 55d3 0fbe 1f3c 1cbe 9793 63be
00000040: 09e1 e8bd cb11 03be 8184 0e3e f428 06be
00000050: 8456 ebbe 2b72 96bd c4eb 9c3d 121e 96be
00000060: be1e d2bd a114 3abe 46bb 2bbe 156e 1d3e
00000070: 461d 03be 6fa0 9e3e 669b ad3c 1da3 16be
00000080: 2835 35be a6fc b93e 57a1 31be ce88 06be
00000090: da7b 74be e0b7 183e c4fc eb3d 62fb 11be
000000a0: 58a2 4a3e 0b70 d73e 1bc3 463d 2b22 afbd
000000b0: c83e 88bd c737 823d b62f 97be 56ad 6e3d
000000c0: 0834 37be ba29 1a3e 10c6 033e a15b 613c
000000d0: bde5 4e3c 5866 8fbe 2d0d 0cbe 6f6e 0bbe
000000e0: ea87 3cbe 0019 e33d b2b6 4dbe 4e82 683d
000000f0: 4a3f 8dbe 2f47 d7bd 6ecc 933e 9d6d 1ebe

exp_avg f4 [64, 3]
0.003818751 0.0038520468 0.009261003 0.0023083836 -0.0030368674 -0.009281397 -5.9904847e-05 0.0040495214
0.011516002 0.0001753635 -0.000827269 -0.0038221136 0.0012554191 -0.001078682 -0.0053431904 -0.00050791324
1.4600968e-06 -0.006844002 0.0009066794 -0.0012465224 -0.0028383816 -0.004926631 0.0036553142 -0.013924212
-0.0010973759 -0.0038382334 -0.0075806286 0.0015431015 0.0016404607 0.026119564 -0.00013162158 -0.005205899
-0.014672614 -0.001455975 0.00039026636 0.0014981502 -0.0017820882 -0.0027831935 -0.0073878355 0.0044659115
0.0013921491 0.024103284 0.001277676 0.00094088085 0.0049202936 0.0019723417 0.0008409697 0.01529477
0.0007159306 0.00010731172 -0.0023794302 -0.009957118 0.0026755973 -0.0006415332 0.000159268 -0.0004765014
-0.0017425847 0.0003559576 0.0017935872 -0.0039331554 0.0009962928 -0.0013591932 0.013830136 -7.241202e-05
0.00045849296 -0.0020456233 0.00088546827 0.00010375488 -0.0045392183 -0.001654299 0.003733073 0.0017118319
-0.00040201365 -0.0008350756 0.0007844982 0.0023236247 0.005539636 0.010773298 -0.00071319996 -0.0044782115
-0.0010805401 0.0012671428 -0.00056463276 -0.0020211749 -0.0006885946 -0.0034767392 -0.0113955615 -0.002686469
0.0012255219 0.002396974 -0.0040508537 0.0033558123 -0.0056625837 -0.0051228656 0.001424797 -0.003089424
6.118484e-05 0.0011922381 0.007536191 0.0018693296 -0.0023431275 0.0073935553 -0.005475538 0.0041654357
-0.00074347504 -0.00043761035 -0.0044527478 -0.0154453665 0.0025166292 0.0023832433 0.0043672295 0.0032337857
0.0012685339 0.026841437 0.0002646456 0.0004034115 0.008262074 0.0017252003 0.0021333226 0.020937195
0.001120002 0.0042651496 0.004908686 0.00073490967 -0.0025600342 -0.0049749906 -0.00826086 0.0030067794
-0.009296736 0.0034236338 0.0035901908 0.029697888 0.0053204605 0.0036948624 0.009211208 -0.00038395423
-0.00039248142 0.0059743077 -0.004648089 0.0059963586 -0.0047800406 -0.00037652152 0.002684104 -0.004110834
-0.0048324387 0.003885587 -0.012541956 -0.00092933694 0.0016092502 -0.0053860857 -0.010212683 0.0039367895
-0.005857185 0.00044220538 -0.0039553535 -0.0061619594 0.0016611059 -0.0012258613 0.005475017 0.00031467868
-0.0015389753 0.0017072606 -0.007347241 0.0017326799 0.0047567906 -0.00083255296 0.00068439933 -0.0027390479
-0.0033072273 0.0026103656 0.00021518186 0.0018844609 0.0023810582 0.015451948 0.0008064894 -0.00029871025
-0.0024176969 -0.0054378575 0.003395993 -0.0042645712 0.0048668273 0.0022428567 0.027035946 -0.00027848937
-0.0035684723 0.0009578373 0.0010116192 -0.00033734727 -0.002252586 -0.0049127247 -0.0045627723 -0.012811778
00000000: 0344 7a3b 9f72 7c3b 76bb 173c 4048 173b
00000010: 2e06 47bb 0011 18bc 5742 7bb8 d9b1 843b
00000020: 9dad 3c3c c8e1 3739 15dd 58ba 6d7c 7abb
00000030: e08c a43a 9062 8dba ee15 afbb 7b25 05ba
00000040: 8bf8 c335 a643 e0bb 39ae 6d3a 5a62 a3ba
00000050: 2404 3abb 946f a1bb ff8d 6f3b 6122 64bc
00000060: d3d5 8fba df8a 7bbb ec66 f8bb e541 ca3a
00000070: ba04 d73a b2f8 d53c e603 0ab9 3f96 aabb
00000080: 6765 70bc 6ad6 beba aa9c cc39 945d c43a
00000090: f594 e9ba 3d66 36bb a815 f2bb c856 923b
000000a0: c678 b63a 4074 c53c b177 a73a 72a5 763a
000000b0: 6a3a a13b 6742 013b 8574 5c3a ea96 7a3c
000000c0: 4aad 3b3a 8a0c e138 37f0 1bbb 2e23 23bc
000000d0: 1359 2f3b 902c 28ba 2e01 2739 efd2 f9b9
000000e0: 7167 e4ba d29f ba39 cd16 eb3a b3e1 80bb
000000f0: 0a96 823a f526 b2ba cb97 623c e8db 97b8
00000100: e261 f039 dd0f 06bb c51e 683a fa96 d938
00000110: b9bd 94bb 10d5 d8ba 92a6 743b 8c5f e03a
00000120: 5cc5 d2b9 fae8 5aba c8a6 4d3a f447 183b
00000130: d685 b53b 7d82 303c 0af6 3aba f6bd 92bb
00000140: e9a0 8dba 4216 a63a dd03 14ba b075 04bb
00000150: cd82 34ba 01da 63bb 73b4 3abc 780f 30bb
00000160: b1a1 a03a 8d16 1d3b 06bd 84bb 30ed 5b3b
00000170: 328d b9bb b6dd a7bb 41c0 ba3a ef77 4abb
00000180: 5c50 8038 df44 9c3a 27f2 f63b 4b04 f53a
00000190: 288f 19bb a345 f23b 246c b3bb 357e 883b
000001a0: c4e5 42ba 116f e5b9 5be8 91bb 900e 7dbc
000001b0: 08ee 243b 3030 1c3b fa1a 8f3b eced 533b
000001c0: ef44 a63a 93e2 db3c 22c0 8a39 fa80 d339
000001d0: a65d 073c 1e20 e23a 37cf 0b3b 7b84 ab3c
000001e0: 08cd 923a abc2 8b3b 0bd9 a03b f4a6 403a
000001f0: 3fc6 27bb 3f05 a3bb 8f58 07bc 630d 453b
00000200: 5651 18bc 0b5f 603b 6849 6b3b fc48 f33c
00000210: 4257 ae3b 8125 723b 9bea 163c 774d c9b9
00000220: f7c5 cdb9 20c4 c33b ff4e 98bb 1a7d c43b
00000230: e3a1 9cbb dd67 c5b9 cbe7 2f3b 2db4 86bb
00000240: 6f59 9ebb 55a5 7e3b c77c 4dbc bf9e 73ba
00000250: 7aed d23a c37d b0bb 1953 27bc 2f00 813b
00000260: a1ed bfbb cdd7 e739 e99b 81bb 43ea c9bb
00000270: 77b9 d93a 14ad a0ba c567 b33b 75fb a439
00000280: 71b7 c9ba 29c6 df3a 20c1 f0bb 171b e33a
00000290: dade 9b3b af3f 5aba 4369 333a 9981 33bb
000002a0: 11be 58bb ab12 2b3b 71a2 6139 0400 f73a
000002b0: 870b 1c3b 2b2a 7d3c 966a 533a 369c 9cb9
000002c0: 3972 1ebb 0e30 b2bb 4f8f 5e3b d1bd 8bbb
000002d0: e879 9f3b e4fc 123b 7d7a dd3c 3602 92b9
000002e0: 08dd 69bb 6017 7b3a 4f98 843a fcdd b0b9
000002f0: 1fa0 13bb ecfa a0bb 4f83 95bb 7ee8 51bc

exp_avg_sq f4 [64, 3]
0.00017281977 5.069792e-05 0.0009097196 4.5949855e-05 3.5914512e-05 0.00023594932 8.6547356e-05 9.212094e-05
0.001733078 4.135716e-06 4.2719053e-06 6.78628e-05 1.7765069e-05 1.959236e-05 0.00032622545 3.8113474e-05
2.9691753e-05 0.00093276903 7.3600922e-06 5.6436716e-06 8.460846e-05 0.00046039058 8.643885e-05 0.0020001815
2.0274278e-05 1.28338725e-05 0.00016530122 0.00038158835 0.00011086614 0.0016873954 3.645725e-05 4.015088e-05
0.0006866052 3.1298492e-05 6.1518977e-06 2.6619697e-05 8.467111e-05 2.779299e-05 0.00055831653 0.00031763542
7.0619906e-05 0.0013793812 1.8448376e-05 5.6220456e-06 0.00014268926 0.00040996875 6.9225985e-05 0.0010683308
1.9197158e-05 1.3012639e-05 0.00022427399 0.00087455846 9.4968054e-05 0.0015881605 1.0049307e-05 7.1710356e-06
0.0003015734 0.00013827659 7.482739e-05 0.002026957 4.1063646e-05 1.8842238e-05 0.00064516114 5.8619793e-05
1.5257751e-05 0.00031660654 1.6377275e-05 1.5764705e-05 0.00029993162 9.54218e-05 2.4399724e-05 0.0006405951
2.8609281e-06 2.532836e-06 4.9793012e-05 0.00019038211 6.2398714e-05 0.00080685137 4.294796e-05 3.6971018e-05
0.0003724383 1.3542015e-05 1.5801297e-05 0.00018293726 6.715741e-05 5.5352117e-05 0.001156963 7.6783894e-05
1.7724366e-05 0.0001332668 0.00016585639 2.9066376e-05 0.0006107607 0.0002630097 2.5588446e-05 0.00062685984
1.8665367e-05 1.0936327e-05 9.28261e-05 0.00014296308 2.5595571e-05 0.00054072466 0.00035271246 7.289444e-05
0.0009407223 6.679378e-05 4.2808806e-05 0.0008617113 0.00010164876 3.18833e-05 0.00032747342 0.00042175723
8.6676446e-05 0.0016943616 2.490563e-05 9.269696e-06 0.00029075815 0.00014517081 4.230173e-05 0.0005688498
5.332541e-05 1.253495e-05 6.2840096e-05 7.3344463e-06 9.421393e-06 0.00012760355 0.00028586507 2.9088118e-05
0.00059183146 0.0006051598 0.00013364253 0.0017092394 0.0002748604 6.372719e-05 0.00066671683 1.1057253e-05
6.07749e-06 0.00016347038 0.0003761567 6.791794e-05 0.00155188 6.6915534e-05 2.3435356e-05 0.0006610252
0.00061500387 8.653603e-05 0.0015099617 3.3305827e-05 1.4776207e-05 0.00044356406 0.0014183507 0.00017164453
0.0029216718 1.1941634e-05 1.3498561e-05 0.0001253466 5.8050668e-05 1.0410395e-05 0.00018244886 1.20194645e-05
1.3386896e-05 0.00048434522 0.0007202573 7.567976e-05 0.0012077594 3.7701033e-05 1.281865e-05 0.00034622126
0.0001695634 3.70232e-05 0.00064362993 0.00019306393 3.2117037e-05 0.00045280563 2.1117665e-05 2.5441486e-05
0.00043602756 0.000394408 5.480111e-05 0.0013320582 0.00043347428 0.000104709245 0.0015299869 5.292843e-05
4.0534633e-05 0.000999104 1.420626e-05 7.9894835e-06 7.299492e-05 0.00015544808 6.8179565e-05 0.0017322267
00000000: f436 3539 7aa4 5438 407a 6e3a 48ba 4038
00000010: eaa2 1638 2a69 7739 c280 b538 0e31 c138
00000020: 7328 e33a 88c5 8a36 6357 8f36 9051 8e38
00000030: 3206 9537 465a a437 3d09 ab39 08dc 1f38
00000040: 8e12 f937 1285 743a b6f6 f636 c55e bd36
00000050: d26f b138 9460 f139 8146 b538 7a15 033b
00000060: ae12 aa37 1051 5737 b554 2d39 ec0f c839
00000070: ce80 e838 982b dd3a ade9 1838 ae67 2838
00000080: 4cfd 333a 8046 0338 666c ce36 5d4d df37
00000090: 7591 b138 fe24 e937 fd5b 123a 4e88 a639
000000a0: c619 9438 5acc b43a 96c1 9a37 01a5 bc36
000000b0: db9e 1539 13f1 d639 6b2d 9138 3c07 8c3a
000000c0: 9509 a137 dc50 5a37 172b 6b39 a042 653a
000000d0: 9629 c738 d329 d03a 7299 2837 ba9e f036
000000e0: 7f1c 9e39 57fe 1039 a6ec 9c38 b2d6 043b
000000f0: c13b 2c38 660f 9e37 0820 293a 86de 7538
00000100: 8bfb 7f37 36fe a539 ee61 8937 723e 8437
00000110: 2440 9d39 301d c838 02ae cc37 9ced 273a
00000120: 5ffe 3f36 cbf9 2936 d7d8 5038 4fa1 4739
00000130: 0edc 8238 e182 533a 0523 3438 5411 1b38
00000140: d343 c339 8332 6337 078d 8437 d9d2 3f39
00000150: dcd6 8c38 e229 6838 3ca5 973a 0a07 a138
00000160: c9ae 9437 89bd 0b39 bce9 2d39 91d3 f337
00000170: 751b 203a 90e4 8939 c5a6 d637 da53 243a
00000180: 9293 9c37 2b7b 3737 a2ab c238 5ce8 1539
00000190: 12b6 d637 6bbf 0d3a 44ec b839 e8de 9838
000001a0: ce9a 763a a313 8c38 9b8d 3338 77e4 613a
000001b0: 432c d538 6fba 0538 bdb0 ab39 4c1f dd39
000001c0: 10c6 b538 5715 de3a 6fec d037 0b85 1b37
000001d0: e670 9839 fe38 1839 236d 3138 dd1e 153a
000001e0: b9a9 5f38 334d 5237 05c9 8338 6a1a f636
000001f0: 9310 1e37 51cd 0539 29e0 9539 4202 f437
00000200: 2325 1b3a 96a3 1e3a 6522 0c39 8f08 e03a
00000210: 231b 9039 46a5 8538 9cc6 2e3a 8a82 3937
00000220: 3eed cb36 3f69 2b39 e636 c539 2b6f 8e38
00000230: 7468 cb3a 0155 8c38 0b97 c437 a648 2d3a
00000240: 3638 213a ad7a b538 e8e9 c53a dcb1 0b38
00000250: 53e7 7737 298e e839 f4e7 b93a 7afb 3339
00000260: 8579 3f3b ed58 4837 e177 6237 796f 0339
00000270: 6e7b 7338 4ea8 2e37 be4f 3f39 35a7 4937
00000280: 4898 6037 b7ef fd39 a6cf 3c3a 43b6 9e38
00000290: ae4d 9e3a 2d21 1e38 af0f 5737 0885 b539
000002a0: d4cc 3139 5c49 1b38 46b9 283a 3471 4a39
000002b0: 68b5 0638 8b66 ed39 d725 b137 2d6b d537
000002c0: a19a e439 8cc8 ce39 3eda 6538 7598 ae3a
000002d0: ef43 e339 5997 db38 d789 c83a 78ff 5d38
000002e0: bb03 2a38 5ef4 823a 6c57 6e37 920a 0637
000002f0: d914 9938 c7ff 2239 a0fb 8e38 e20b e33a

exp_avg f4 [64]
0.0074958345 -0.0024408607 0.0052118804 -0.0014794766 0.0011538635 -0.0027723075 0.00012385903 -0.008902683
-0.005703414 0.010356367 -0.0072186072 0.0011736274 -0.0064067105 0.01253941 0.002453343 0.008619586
-0.0022801405 -0.0078024687 -0.000118057585 -0.004433986 0.0049519837 -0.0019609092 0.0030363202 -0.003251731
-0.00094650895 0.0077340705 0.0062497924 0.002132458 -0.0055128625 -0.0027453543 -0.0033910654 -0.0038696826
0.0007389909 0.00363796 -0.007182042 -0.0053828345 0.006850742 0.014301808 0.0011918904 0.009331774
0.0069700247 -0.0030125205 -0.0073939525 0.01545339 0.009380014 0.0014394451 -0.00489149 0.00042895664
-0.009900578 0.0004713691 -0.010820858 -0.0048969374 0.001912153 0.0015606004 -0.008489425 0.00023188526
-0.005573688 0.008652762 0.00095651124 -0.0041953535 0.011700402 0.0022730078 0.0033416264 -0.013974832
00000000: 9e9f f53b d9f6 1fbb 6cc8 aa3b ffea c1ba
00000010: 3c3d 973a 9aaf 35bb 28e0 0139 8fdc 11bc
00000020: b4e3 babb c0ad 293c 118a ecbb 67d4 993a
00000030: 62ef d1bb 1972 4d3c 44c8 203b 2a39 0d3c
00000040: 696e 15bb daab ffbb af95 f7b8 f84a 91bb
00000050: 4044 a23b 9982 00bb 00fd 463b fe1a 55bb
00000060: 241f 78ba 166e fd3b 0fcb cc3b b5c0 0b3b
00000070: 3ea5 b4bb 67eb 33bb a33c 5ebb 809a 7dbb
00000080: d7b8 413a d76a 6e3b 5657 ebbb 7d62 b0bb
00000090: 307c e03b 2152 6a3c 3539 9c3a 4ce4 183c
000000a0: ce64 e43b b56d 45bb f848 f2bb 3730 7d3c
000000b0: a1ae 193c c3ab bc3a cb48 a0bb 96e5 e039
000000c0: 0936 22bc 1722 f739 f849 31bc 7d76 a0bb
000000d0: 35a1 fa3a 0f8d cc3a 3b17 0bbc 3a26 7339
000000e0: 7ca3 b6bb 50c4 0d3c 62be 7a3a 2d79 89bb
000000f0: 0bb3 3f3c bef6 143b 30ff 5a3b b2f6 64bc

exp_avg_sq f4 [64]
0.000218163 8.264574e-05 0.0001789088 8.183449e-06 3.7361602e-05 6.407599e-05 1.2546616e-05 0.00060737523
2.79451e-05 0.00046616106 6.1735445e-05 3.6239417e-05 0.000116930634 0.00037163138 2.3580444e-05 0.00048826836
3.0722447e-05 0.0010223243 1.602733e-05 0.00020340865 5.7951467e-05 6.961271e-05 3.0737338e-05 0.00011506276
5.466723e-06 0.00023518922 8.032257e-05 2.8191924e-05 0.0001173053 0.00010221292 0.0001879932 0.00029951383
2.84148e-05 0.00017077169 0.00045177498 9.4695446e-05 0.00013465977 0.00049873255 3.3153854e-05 0.0001802185
6.8818874e-05 1.5536767e-05 0.00031986635 0.00069185725 0.00032860055 1.6781889e-05 0.00043525774 8.670586e-05
0.0007487181 4.7134232e-05 0.001678067 2.2695483e-05 6.6424065e-05 2.4966796e-05 0.00084456196 4.6723795e-05
0.00021706837 0.00022043937 4.5750734e-05 0.0004370231 0.00050940673 9.423223e-05 2.189759e-05 0.00022517101
00000000: afc2 6439 1852 ad38 7799 3b39 a54b 0937
00000010: b7b4 1c38 8960 8638 4e7f 5237 4338 1f3a
00000020: a56b ea37 1467 f439 f777 8138 c7ff 1738
00000030: a838 f538 85d7 c239 9ece c537 45fe ff39
00000040: fadb 0038 83ff 853a 6e72 8637 184a 5539
00000050: ea10 7338 0afd 9138 f7eb 0038 d94d f138
00000060: cb6e b736 209d 7639 da72 a838 b27d ec37
00000070: ce01 f638 255b d638 0a20 4539 1108 9d39
00000080: 525c ee37 2d11 3339 36dc ec39 3b97 c638
00000090: 7533 0d39 60bd 023a ae0e 0b38 09f9 3c39
000000a0: da52 9038 f454 8237 bcb3 a739 c15d 353a
000000b0: 0548 ac39 d5c6 8c37 4e33 e439 dbd5 b538
000000c0: 9f45 443a ffb1 4538 96f2 db3a 2e62 be37
000000d0: 264d 8b38 c96f d137 9865 5d3a 4bf9 4338
000000e0: d99c 6339 be25 6739 7ae4 3f38 3f20 e539
000000f0: b589 053a 8b9e c538 b7b0 b737 e21b 6c39
